npcmake/onnx list/Walker-99999000.onnx (onnx, 838919 bytes, 13 tensors)

network_body.observation_encoder.processors.0.normalizer.running_mean f4 [35]
000000 cf 45 0a 3c c7 ca f5 3d 00 00 00 00 5a 17 5f 3f
       0.008439495 0.12001567 0.0 0.87145007
000010 52 86 72 3f 94 7d 35 3d f2 87 0a 38 00 00 00 00
       0.94736207 0.044309214 3.3028373e-05 0.0
000020 08 a9 74 3f 17 4f 7d 3f 22 90 21 3d 3f c8 0e 38
       0.9557042 0.98948807 0.039444096 3.4041932e-05
000030 00 00 00 00 12 df 75 3f 83 ab 7d 3f 96 6d af 3d
       0.0 0.96043503 0.9908983 0.08565824
000040 ec 1d a9 35 00 00 00 00 c4 11 6a 3f 72 0f 79 3f
       1.260019e-06 0.0 0.9143336 0.9728919
000050 eb f3 95 3d 2d 7c ae 35 00 00 00 00 e1 40 6d 3f
       0.07321914 1.300015e-06 0.0 0.9267712
000060 bc cb 79 3f cb cf 08 3e bc 52 16 34 00 00 00 00
       0.975765 0.13360517 1.3999937e-07 0.0
000070 26 cc 5d 3f 31 64 73 3f 19 d5 ef 3d 97 96 0b 34
       0.8663963 0.95074755 0.11710567 1.3000168e-07
000080 00 00 00 00 73 05 62 3f 10 c9 74 3f
       0.0 0.88289565 0.956193

network_body.observation_encoder.processors.1.normalizer.running_mean f4 [225]
000000 f6 93 01 40 3a 31 dd 3b 5b 0f 33 bc bd e7 7d 3d
       2.0246558 0.006750253 -0.010928954 0.06198858
000010 84 4b 1e ae 00 00 00 00 42 a5 03 40 c7 e3 03 3d
       -3.5992112e-11 0.0 2.0569615 0.032199647
000020 8c 1c e0 3c 31 d0 6a 3b 6e 94 75 3f 0c 18 f3 ba
       0.027357362 0.0035829658 0.9592961 -0.0018546595
000030 7b 88 96 3b 52 93 56 3a a7 83 76 3f af a8 ab ba
       0.0045939065 0.00081854046 0.96294636 -0.0013096536
000040 36 8b f8 3f 19 62 24 42 97 6d 25 3b d7 db f3 37
       1.9417484 41.0958 0.0025242323 2.9070228e-05
000050 be eb 7a 3c a6 ef 44 3d 38 f9 58 3d 6e 26 a5 3e
       0.015314994 0.04808011 0.05297205 0.32255882
000060 77 e9 a7 bc 67 f4 c7 bd c2 c4 11 2c c8 39 6c a7
       -0.020497067 -0.09763413 2.0714962e-12 -3.2782903e-15
000070 ba 3c 47 2c 73 05 31 3a eb 24 a5 3d ef f5 74 3b
       2.831331e-12 0.0006752826 0.08063682 0.0037378033
000080 6f 99 fa bb 52 7c 2e 35 e2 e0 50 39 d4 2b 85 3c
       -0.0076476852 6.500096e-07 0.00019920201 0.01625625
000090 40 08 0e bd 99 e5 88 3d 11 22 a9 be 54 3c de bd
       -0.034675837 0.06684417 -0.33033803 -0.108513504
0000a0 c7 a1 a5 bd f8 cb 52 bb 6a 6a 22 3e 6e 57 80 3b
       -0.08087497 -0.0032165032 0.15860906 0.0039166724
0000b0 dc 96 35 3d c9 e2 eb 3c 1e c8 41 bc 49 6e 79 3f
       0.044333324 0.028794663 -0.011827497 0.97433907
0000c0 88 38 18 3f 00 00 00 00 e8 3a cd 38 df 55 12 bc
       0.5946126 0.0 9.786134e-05 -0.008931606
0000d0 e3 6f 8d bd e0 b1 35 3d 77 59 d4 3d c2 b3 fd bd
       -0.06906106 0.044359088 0.103686266 -0.12387802
0000e0 2f 52 1a be b3 65 24 bc 9b 76 03 3f cc 5e 74 b9
       -0.15070413 -0.010034013 0.5135285 -0.00023304968
0000f0 7b cb 16 3c 9e 66 07 bb 68 a0 cf bb c2 13 79 3f
       0.009203787 -0.002066053 -0.0063362606 0.97295773
000100 63 70 09 3f 4e 06 9a 3b 1a 25 79 37 63 b2 0e 3d
       0.53687114 0.0047004586 1.4850195e-05 0.03483809
000110 2b 28 23 bc 91 d8 fd 3d a0 c1 c8 3e 23 97 0b 3d
       -0.009958307 0.123948224 0.39210224 0.034079682
000120 04 02 84 be f5 d0 e1 bd b1 55 e9 bb c2 17 91 3b
       -0.25782788 -0.110261835 -0.007120811 0.004427881
000130 69 7b 71 3f 1b 5c 82 bd 0b 3f f6 3b 6f 2f 8b 3e
       0.94328934 -0.06365224 0.0075148395 0.27184626
000140 49 5b 10 3f 06 b9 8d 3c 80 ba 07 37 d4 84 2b 3a
       0.5638929 0.01730014 8.09005e-06 0.0006542925
000150 98 04 47 bd 9c 0b ad 3c 18 3b b6 be e3 72 3f 3e
       -0.048588365 0.0211237 -0.3559196 0.1869617
000160 74 63 74 be 92 4d 1b be b2 c8 57 be 5b de 1b 3e
       -0.23866063 -0.1516631 -0.21072653 0.1522154
000170 12 74 0c 3f 31 66 08 bc 89 57 1f 3c 11 f2 52 3f
       0.5486461 -0.008325146 0.00972546 0.82400614
000180 a0 ca 16 3f 9d c1 0b 3e 13 3d 17 39 3b 5a 85 bb
       0.5890293 0.13648076 0.00014423234 -0.004069594
000190 61 4c 1c bd 66 f0 8d 3d b2 f4 04 be 1f a2 97 bd
       -0.038158778 0.06930618 -0.12983969 -0.07403969
0001a0 8c b9 07 3e 88 af 3d be 85 46 00 bf b0 2a 9b bc
       0.13254374 -0.18523991 -0.50107604 -0.018941253
0001b0 01 31 33 bf 37 69 16 3d e5 3e a9 bc 90 97 2d 3f
       -0.6999665 0.036721434 -0.020659873 0.6780939
0001c0 ff 09 06 3f fc 54 d9 3b c2 cf a0 37 77 0d c3 3b
       0.52359 0.0066324454 1.9170231e-05 0.005952533
0001d0 e7 ad c9 3c 79 4d e6 3d 17 5a a7 3e 34 89 01 be
       0.024619056 0.112452455 0.3268592 -0.12649995
0001e0 e5 09 f4 bd 33 eb e0 3d 82 85 89 b8 af c4 1a 3c
       -0.1191595 0.10982361 -6.557537e-05 0.009446307
0001f0 91 42 71 3f 00 9d 59 3d 84 a8 42 3c a7 ab 8f 3e
       0.942422 0.053128242 0.011880998 0.28060648
000200 72 0c 15 3f ad ee 8e 3c 8d 8d c5 37 39 10 d3 3b
       0.58222115 0.017447794 2.3550145e-05 0.006441143
000210 7a 0a 02 bd 6b 32 33 3d a8 84 4d be 9f e6 a4 be
       -0.031748272 0.043749254 -0.20070136 -0.322072
000220 9b 91 6f be e1 ce 0a 3e f3 91 51 be e5 fa 2c 3e
       -0.23395388 0.1355548 -0.20465831 0.16892584
000230 f7 4f f0 3e a9 cd a3 3c ad eb 8c bb 5e 46 5d 3f
       0.46936008 0.019995527 -0.0043005557 0.86435497
000240 4a d5 0e 3f 9c c2 29 3e 88 b6 6b 39 e1 e0 09 3d
       0.55794203 0.16578144 0.00022479345 0.033661727
000250 ea 1b 6c bd b5 d9 7e 3d b5 23 3a be 7a 95 73 3b
       -0.05764381 0.06221934 -0.18177684 0.0037167952
000260 ae b1 87 bd 23 c3 50 3e 30 1a 05 bf cd af 89 3d
       -0.066256866 0.20386939 -0.51993084 0.067229845
000270 45 45 39 bf 3f aa e3 3a 51 6f 32 3d e2 98 29 3f
       -0.7237132 0.0017369463 0.04356319 0.66248906
000280 3d 39 0e 3f d0 cc 2b 34 bd 8f fe 39 c7 99 2d 3c
       0.5555609 1.6000126e-07 0.0004855375 0.010595745
000290 3c 42 bb 3b 25 1f 4f 3d db 3a c6 3d 88 1e 6a bd
       0.005714683 0.05056681 0.096791945 -0.057158023
0002a0 94 f8 78 be ee d6 44 be 09 af d1 3e cc 36 05 bd
       -0.24313575 -0.19222614 0.40953854 -0.03252296
0002b0 ef 5e 6a 3f 98 d8 79 be 8e 11 1e bd 0b d3 50 3d
       0.9155111 -0.2439903 -0.03859096 0.050982516
0002c0 69 04 1f 3f b2 26 af 3a 62 c8 fa 3a d2 06 fa 3a
       0.62116104 0.0013362973 0.0019133205 0.0019075519
0002d0 f0 d5 0a 3d 6d 97 07 3d f2 b7 32 be d1 55 9f 3c
       0.033895433 0.033103395 -0.17452982 0.0194501
0002e0 ca 1d ef bd 5f 0d 8c be fe 4a 7f 3e 80 76 5f bc
       -0.11675604 -0.2735395 0.24930951 -0.013639092
0002f0 e2 8a a1 be 61 67 84 bb 1c 09 1d 3c 86 01 6e 3f
       -0.31551272 -0.004040644 0.009584691 0.92971075
000300 39 3d dd 3e 56 a5 c6 34 fe 2c 27 3a a7 7b fd bb
       0.43210772 3.7000672e-07 0.0006377249 -0.007735688
000310 1f b0 a1 3a 3f 7d 9a 3d 01 16 9f bd 9d 9a 6e bd
       0.0012335813 0.0754342 -0.07767869 -0.05825292
000320 c8 ff 96 3d ff 70 31 3e 0b c6 cb 3e de 83 0d bd
       0.07373005 0.17328261 0.39799532 -0.034549586
000330 f5 11 65 3f 28 df 81 3e d5 7b 32 3c 7a bc ba 3c
       0.89480525 0.25365567 0.010893782 0.02279495
000340 d8 82 2a 3f be a0 9a 3a 78 eb 20 3b d5 58 8c bc
       0.666059 0.0011797172 0.0024554413 -0.017132202
000350 0e 26 0c 3d 4d dc 4b 3d f4 c1 60 be 85 64 81 be
       0.03421598 0.049770642 -0.21948987 -0.25272003
000360 2f f8 89 3e cf 0c 78 3e e9 98 6b 3e 35 e8 e1 bc
       0.26947162 0.24223636 0.2300755 -0.027576545
000370 a9 03 b1 be 79 c6 31 3b 1e ff 5f bc 8a 04 69 3f
       -0.34573105 0.0027126356 -0.0136716645 0.9102255
000380 8d 61 0a 3f
       0.540551

network_body._body_endoder.seq_layers.0.weight f4 [256, 260]
000000 3e 19 b5 3d ae d3 94 bd 67 ad 74 3d bb d1 84 3c
       0.08842705 -0.07266937 0.05973568 0.016213289
000010 3f fb c5 3c b2 f1 69 3d 16 e7 09 3d 49 09 cc 3c
       0.024167655 0.057115264 0.033667646 0.024906771
000020 62 2f 27 bc 5e 9b 9b bd 31 93 db bc 29 73 bb bc
       -0.010204168 -0.07597993 -0.026803585 -0.022882061
000030 fc d3 9a bd 8b 58 8c bd e3 ea fc bc 3b cd 18 3d
       -0.07559964 -0.06852826 -0.030873721 0.037305098
000040 58 93 bc 3d 4e c1 21 3b 5e 8c 95 3d a4 4d b2 bc
       0.09207791 0.002468187 0.073021635 -0.021765538
000050 50 d2 fd 3c 32 6a fb 3d a7 ce 4d 3b 92 6b ec bc
       0.030984074 0.122761145 0.0031403692 -0.028859887
000060 a3 fc aa bb 27 cf 4b 3d fc d9 70 3d 01 ad b1 3d
       -0.005218105 0.049758103 0.058801636 0.08675576
000070 56 25 d9 3c 3a e2 b4 bd f4 69 32 bd 8b 7b 3d 3c
       0.026507061 -0.08832212 -0.043558076 0.0115650995
000080 81 8f f3 bd e5 50 96 3d 0d 39 54 3d 13 19 0f 3e
       -0.118926056 0.07339648 0.05181222 0.13974409
000090 bb b7 6e 3c 14 42 0e be de 13 98 bd f4 09 2d 3c
       0.014570172 -0.13892394 -0.07425664 0.010561455
0000a0 01 48 d8 3d e6 67 6b bc 3c 6f 48 3c 85 38 32 bd
       0.10560609 -0.014368033 0.012233552 -0.043510932
0000b0 89 70 29 bd ba 41 ed 3d 85 03 08 3e 19 67 86 bd
       -0.041367088 0.11584802 0.13282593 -0.06562633
0000c0 07 88 9f bc 53 d5 43 bd b8 4b 6a 3d cf 8d f2 bc
       -0.019474043 -0.047810864 0.057201117 -0.029608635
0000d0 94 3b bc bd 7f 06 b6 bd dc a7 f6 3c 09 ca 8a bd
       -0.09191051 -0.08887958 0.030109338 -0.067768164
0000e0 62 d2 2f be 8b 11 05 be 86 3d a5 3d b8 66 81 3c
       -0.17170098 -0.12994973 0.08068375 0.01579605
0000f0 25 b9 9c bd 00 1c b8 bd 87 a6 88 3d ed ea 08 3c
       -0.07652501 -0.089897156 0.066723876 0.008356792
000100 f2 e5 ce bd 73 53 c7 3d cc 58 32 3d a2 e2 4d 3b
       -0.10102452 0.097327136 0.043541715 0.0031415601
000110 7d 9d 79 3c 5b 41 12 3e 9d ba ce bb b8 22 16 bd
       0.015235302 0.14282744 -0.006308867 -0.036654204
000120 9e e0 a9 bd fb 29 4c 3d 2f a9 84 3d ff 42 e1 bd
       -0.082947955 0.049844723 0.06477582 -0.109991066
000130 d6 9a 80 bd 8a b8 32 bc ea a4 ad 3d e3 36 ad bd
       -0.062795326 -0.010908255 0.084787205 -0.084577344
000140 a0 42 ea bb 78 71 d7 bd 43 73 0c 3e d9 7f 1b be
       -0.0071490556 -0.10519689 0.13715844 -0.15185489
000150 ae 78 21 3e 76 59 17 bd 0f 95 74 bc fc 3d c8 bd
       0.15768692 -0.03695055 -0.014928116 -0.097774476
000160 90 88 31 be b6 ea ab bc 34 43 4b 3e ff 72 22 3d
       -0.1733725 -0.020985942 0.19849855 0.03966045
000170 1d aa 18 3b 58 86 ab 3d bd d0 5a bb a0 c7 4d bd
       0.0023294755 0.083752334 -0.0033388578 -0.050239205
000180 c9 5c 08 3d 31 b4 00 be 84 14 8a 3c a6 a1 40 3e
       0.03329161 -0.12568738 0.016855486 0.18811664
000190 e1 1e b0 3d cd fc 60 bd 0c 03 0b be eb ae 80 3d
       0.0859964 -0.05492859 -0.13575381 0.06283363
0001a0 71 79 0e be fd e5 f2 3b 5b 4b 3e 3d 05 a7 dd 3c
       -0.13913514 0.0074126706 0.046458583 0.02705718
0001b0 df ea 9c bc 0f 06 97 3d 80 d4 ab 3d 64 ed a8 3b
       -0.019154964 0.073742025 0.083901405 0.0051552523
0001c0 0f de 84 bd 32 51 e8 bb 80 63 c5 bd c4 e1 24 be
       -0.06487667 -0.0070897574 -0.09638119 -0.16101748
0001d0 3f b5 59 3c eb 4d 06 3e e4 d7 db bc aa f4 24 3d
       0.013287841 0.13115661 -0.026836343 0.040272392
0001e0 f3 da 94 3d 88 fc 64 bc e8 f9 7d bd 8e 18 2a be
       0.07268324 -0.013976224 -0.062005907 -0.1661093
0001f0 a0 62 1b bd b6 ac 0c bd 1d 37 51 3e 1a 98 13 be
       -0.037935853 -0.034344397 0.2043118 -0.14413491
000200 68 65 1e bd 4d 3b e3 3c a2 0b ae bd 49 53 4d 3e
       -0.038670927 0.027738238 -0.084983125 0.20051302
000210 84 e4 4f be 56 8f c5 3c e7 fe 6f 3e d8 76 ad 3c
       -0.20302016 0.0241162 0.23437081 0.021174833
000220 b5 32 44 3d 3e f0 c6 3d ee 43 29 3d 34 6d b1 3c
       0.04789992 0.09713791 0.04132455 0.021658517
000230 2c f3 07 bd 4d 4b 11 3e 28 3a 46 3e 48 36 dd bb
       -0.03319089 0.14188881 0.19358122 -0.0067508556
000240 46 bf dc bd c2 69 09 3e 77 2f 69 3c e5 b7 49 bc
       -0.1077867 0.1341925 0.014232508 -0.01231191
000250 47 c9 ab bd 36 06 5e bd a1 28 c1 3d 0b b8 47 be
       -0.08388 -0.054205142 0.094315775 -0.195038
000260 09 46 0d be e4 5c 0d 3c 60 38 98 3d 15 a4 96 3d
       -0.13796248 0.008628104 0.07432628 0.07355515
000270 23 4e ab bd 6d 33 ce 3c 55 16 f4 3c 8f a8 fe 3c
       -0.08364513 0.025171006 0.029795805 0.031086234
000280 34 68 e8 bd 9d ae 83 bd 10 99 35 bd 58 b0 09 3e
       -0.11348 -0.06429789 -0.044335425 0.13446176
000290 be f5 77 3c 71 72 e1 3d ee 84 7f 3d 29 b3 be bd
       0.015134273 0.11008156 0.06238263 -0.09311516
0002a0 da 47 fd 3b a2 94 36 bd b4 d5 b2 3c 17 5e ee bc
       0.0077295126 -0.04457534 0.021830417 -0.0290976
0002b0 6e 69 00 3e 1d f8 8a bd b1 96 24 bd 86 ec 72 bc
       0.12540218 -0.06785605 -0.040182773 -0.014826899
0002c0 fb e3 9f bd f1 dd 3a be 3d a7 38 3c fe 14 df bc
       -0.07807156 -0.18248726 0.011270341 -0.02723169
0002d0 ba 0b 2c be a5 ef 87 3d 8f 06 6b bd db 06 72 3e
       -0.16801348 0.066375054 -0.0573793 0.23635428
0002e0 f5 91 23 3e dc 12 9c bb 33 86 c6 3d 90 5d 8c bd
       0.15973647 -0.0047629904 0.09693565 -0.06853783
0002f0 07 f0 8e bc 0e a6 1a 3d 2c 34 66 bd b6 27 69 be
       -0.017448438 0.03775602 -0.0562021 -0.22769055
000300 67 26 64 be dd 7a 8d bb d2 75 3c be 5c 2c ed bd
       -0.22280274 -0.004317625 -0.1840432 -0.115807265
000310 de d9 7c 3d fe 06 8d bd 10 9c 96 bd c5 e1 44 bc
       0.06173121 -0.06886099 -0.07353985 -0.012016718
000320 21 dd a9 bb 6c 30 66 3c a6 73 31 3e e2 a1 5e be
       -0.0051838313 0.014049631 0.17329273 -0.21741441
000330 e3 8f 37 bd f9 75 9e 3d 5d 0c f4 3d 5e 4f 8b 3e
       -0.044814955 0.07737345 0.119164206 0.2720899
000340 93 dd a7 3e 19 e0 d3 bd ff d7 97 bd bc 8a 46 bb
       0.32786235 -0.103454776 -0.07414245 -0.0030295094
000350 3d 61 86 3d be 23 4f 3c 80 d0 91 bd e4 f2 62 be
       0.065615155 0.012642799 -0.07119846 -0.22162968
000360 2f 27 5f 3d 6f 39 7d bd 60 36 a1 3c 91 3f 72 bd
       0.054480728 -0.06182235 0.019679248 -0.059142653
000370 1d 34 85 3d cb 9f f2 3c 7e fd 91 3d fd 94 bb bb
       0.065040804 0.02961721 0.07128428 -0.005724548
000380 83 f4 a0 bd f6 b7 0c be a9 3a d3 3d 48 76 15 bd
       -0.07859137 -0.1374205 0.10313923 -0.036489755
000390 25 b9 8b ba 44 21 12 bd 33 16 a7 3d a7 01 9d bb
       -0.0010660036 -0.035676256 0.08158531 -0.0047914567
0003a0 fe 2b 08 bd bc 4d 39 be 27 83 75 3d 75 e6 84 3d
       -0.03324508 -0.1809606 0.05993953 0.06489269
0003b0 43 63 6f 3d da 2e 15 bd b1 de f0 bd 78 7d 7d bc
       0.058444273 -0.036421634 -0.11761225 -0.015471809
0003c0 35 df 05 be 30 e5 c0 3d a5 4d d2 3d ac 80 81 bc
       -0.13073428 0.09418714 0.10268716 -0.015808426
0003d0 c3 a8 c2 3d 1b 7e e7 bd 7c ea 0f bc 30 32 aa 3c
       0.09504845 -0.113033496 -0.008783933 0.020775884
0003e0 de 82 c2 3d d1 17 37 be ab 9f 53 3d 7e e4 70 3c
       0.09497617 -0.17880179 0.051665943 0.014702914
0003f0 23 f4 9c 3d e5 60 2a 3c 85 a6 8d 3c 96 71 21 3d
       0.07663753 0.010399078 0.017291317 0.039414965

network_body._body_endoder.seq_layers.0.bias f4 [256]
000000 f3 db 9f bd 3b 13 d8 bc 29 01 f5 3d 19 33 94 3c
       -0.07805624 -0.026376357 0.11963112 0.018090772
000010 f1 82 54 bd 6a d9 12 be a8 cf 0e be 77 96 e2 bb
       -0.051882688 -0.1434075 -0.13946402 -0.0069149095
000020 73 df 55 bd 41 b4 cf 3c d3 43 88 3d 7d ed 0a 3e
       -0.05221505 0.025354506 0.066535614 0.13567157
000030 dc 1f e8 bd 84 19 f2 bd 22 5d 00 bd d4 34 06 be
       -0.11334202 -0.11821273 -0.03133882 -0.1310609
000040 f1 1e 08 be 4b 3d 37 be 6d 6d 80 bd a4 be ed 3d
       -0.13293053 -0.17894475 -0.06270871 0.116086274
000050 0a 33 0c be ce 64 81 3d 9b d3 dd bd d0 33 9b bd
       -0.13691345 0.06318055 -0.10831376 -0.07578242
000060 68 0c 06 be c6 d4 aa 3c f7 01 dc bd f0 8c a7 bd
       -0.1309067 0.020853411 -0.10742562 -0.081811786
000070 4f 85 e8 bd a3 3e 4a bd 07 75 38 be 42 f5 e4 bc
       -0.113535516 -0.04937614 -0.18013392 -0.02794898
000080 04 b9 90 3d 16 68 b7 bd 5e fc 39 be c0 66 3e be
       0.07066539 -0.089554 -0.18162677 -0.18593884
000090 86 8a 19 be c7 5b df 3d 16 b4 b1 bd 53 7f 2f be
       -0.14994249 0.10906177 -0.08676927 -0.17138414
0000a0 25 cd 42 3e 5f 59 29 bd 45 da 36 bd ca 14 30 3c
       0.19023569 -0.041344997 -0.04464175 0.010747144
0000b0 ea c5 89 3d 6d 5f 0f be 27 e0 2d be e9 a4 19 be
       0.06727202 -0.14001246 -0.16980039 -0.15004314
0000c0 93 34 a9 bd 59 ac f8 bd d1 a5 33 be 66 a7 ee bd
       -0.08261981 -0.12142248 -0.17543723 -0.116530225
0000d0 8c b6 d5 bc 0a 45 fc bd bf 7f 42 bd b4 f1 35 be
       -0.026088022 -0.12317856 -0.04748511 -0.17767984
0000e0 8f b3 7b 3d 19 36 1a be fb 53 a9 bc bf fe 04 be
       0.061450537 -0.15059699 -0.020669928 -0.12987803
0000f0 ac 4e 31 be 2d 99 44 be f7 b7 01 bd 39 1d fd bd
       -0.17315167 -0.19199057 -0.031669583 -0.123590894
000100 88 cf 10 be c4 f7 54 bd 87 8b d0 bc d2 c7 a7 bd
       -0.14141667 -0.0519941 -0.025457157 -0.081924096
000110 27 64 d1 3d 29 20 90 bc 41 ab 0a be e3 74 2b 3e
       0.10224181 -0.01759346 -0.1354189 0.16743807
000120 e3 58 3c 3c 4b a5 04 bd e3 6b 26 be 77 0e 14 bc
       0.011495802 -0.0323842 -0.16252093 -0.009036652
000130 eb ff a4 bb fe f1 3c bd 6b 0e f3 bd 23 a2 95 bd
       -0.0050353906 -0.04612922 -0.118679844 -0.07306316
000140 70 06 52 be 3f 56 11 bd ea 60 49 bd 79 d4 6a bd
       -0.20510268 -0.03548264 -0.04916469 -0.057331536
000150 f3 88 50 3d e0 68 ff bd 97 e3 b4 bd 2d f4 24 3e
       0.050911855 -0.12471175 -0.08832472 0.1610877
000160 10 5f b8 bd be c8 0c bc ff 09 7c bd e2 81 b5 bd
       -0.09002507 -0.008592783 -0.06153297 -0.08862664
000170 21 fb 4c 3e 4e 30 2a be 24 44 54 3d a7 61 54 be
       0.20017673 -0.1661999 0.051822796 -0.20740376
000180 a1 a8 54 bc d8 9e bd bd 7a 7f ae bd 1b 9d 23 be
       -0.012979657 -0.09258813 -0.08520408 -0.159779
000190 cc c9 b6 bc 9f 41 da bd 12 e0 40 be ca e6 f3 3c
       -0.022313021 -0.106570475 -0.18835476 0.029773135
0001a0 01 65 16 be be 74 9d 3c a6 20 3c bc 18 22 16 bd
       -0.14686967 0.019220706 -0.011482393 -0.036653608
0001b0 1c 89 ea bd e5 09 10 be 17 58 88 bd 37 19 d8 bd
       -0.11451933 -0.14066274 -0.06657427 -0.10551684
0001c0 43 62 8d bd a3 26 2f be c6 28 ea bd 74 d7 1d 3d
       -0.069035076 -0.17104582 -0.11433558 0.03853555
0001d0 5a df 3e be 02 91 0c be 81 4f 70 bd 37 4e fc bd
       -0.1863989 -0.13727191 -0.05866957 -0.12319606
0001e0 4f 5f 3c be 74 95 9c 3d fd f4 3b 3e 91 8f 8d bd
       -0.18395732 0.076456934 0.18355174 -0.06912149
0001f0 3c bf ce bd 01 d4 fa bd ad d9 fe bd 78 b8 33 be
       -0.10095069 -0.12247468 -0.12443862 -0.17550838
000200 9f 31 7b 3d d5 7e 8c bd 1b 58 d7 3c e0 83 92 bd
       0.06132662 -0.06860129 0.02628713 -0.071540594
000210 8e cf 75 be 2a d7 ef bd b2 c7 82 3b 85 78 be bd
       -0.24004957 -0.11710961 0.0039910907 -0.09300331
000220 10 7a fb 3b b2 e5 af bd 6d 89 60 bd 64 fe ac bd
       0.007674463 -0.08588733 -0.05481856 -0.08446959
000230 28 43 35 be 06 a5 97 bd ce 10 dd 3b ff 95 8a bd
       -0.177014 -0.074045226 0.006746388 -0.06766891
000240 38 0a 3e 3c d4 91 8b bd 1c 1d 6c 3c 2b eb 98 bd
       0.011599116 -0.06814924 0.014411237 -0.0746673
000250 c5 7d 99 3b 96 da 4d be 8a fc 37 be b1 45 3d be
       0.0046841823 -0.20102915 -0.1796743 -0.18483616
000260 79 8b d9 3d 90 8b 44 be 6c 9f 94 bd 26 b1 a1 bc
       0.106223054 -0.19193864 -0.0725697 -0.019737791
000270 94 e7 15 be 65 42 25 be 4e 49 f6 bd cd 61 14 bd
       -0.14639121 -0.16138609 -0.120257005 -0.036226083
000280 f1 ab 48 bd d9 13 ce bb db af 34 bb 78 84 00 bd
       -0.0489921 -0.006288987 -0.0027570638 -0.031376332
000290 c0 4c fe 3d a7 e1 84 bc db 8f 55 be 37 cf c2 bd
       0.12416983 -0.01622088 -0.20855658 -0.09512179
0002a0 a9 55 02 be 9b eb 3f be b1 27 80 bd a1 fc 45 bc
       -0.1272799 -0.1874222 -0.062575705 -0.012084157
0002b0 69 f7 1d be db 25 a0 bb f7 76 e7 bd bf 36 0c be
       -0.1542641 -0.004887325 -0.113019876 -0.13692759
0002c0 86 d4 4d be 87 4a 34 bd 22 8d 61 be 3b 94 2b bd
       -0.20100603 -0.044016387 -0.22026494 -0.04188941
0002d0 6f 70 65 3d ba e1 05 bd 60 96 a0 bd f4 c6 76 bd
       0.05601543 -0.032685973 -0.07841182 -0.06024833
0002e0 d8 c4 39 be c5 32 10 3e 31 49 2c be ff f5 c1 bd
       -0.18141496 0.14081867 -0.16824795 -0.09470748
0002f0 38 ca 14 be 0a 44 e2 bd 92 34 99 bd 5c e5 e9 bc
       -0.14530265 -0.11048134 -0.0748073 -0.02855175
000300 d7 e1 2c bd 11 71 25 bd 52 55 41 be 31 64 c0 bd
       -0.042207565 -0.04039103 -0.18880203 -0.0939411
000310 63 b2 32 be fa 47 83 3d 91 3a 15 3d db 29 a6 bd
       -0.17450862 0.06410213 0.036432806 -0.08113452
000320 1b f5 5d be ba 6e 3a be bb 78 31 be fd c9 1f bd
       -0.21675532 -0.18206301 -0.17331211 -0.03901099
000330 d6 5d 31 bd 4b 63 c8 bd 6b db 86 bd 14 e1 92 bd
       -0.04330238 -0.09784564 -0.065848194 -0.071718365
000340 76 32 3f 3d 30 ed 62 bc 51 83 2e ba 92 3d 06 be
       0.046678983 -0.013850495 -0.0006657141 -0.13109425
000350 bd f7 9e bd e8 ca 0b bc c6 a8 d7 3c 6e ba e7 bd
       -0.07762096 -0.008532263 0.026325595 -0.113148555
000360 0d db e4 bd f3 e4 2e 3e 6a 24 35 be c6 95 0f be
       -0.11174593 0.17079525 -0.17689672 -0.14021978
000370 5c bb f6 bd a7 6d ce 3d de 85 21 be 3f 8e ec bd
       -0.12047455 0.10079508 -0.15773723 -0.11550569
000380 0a 9d d3 bd 5f 9a 1c 3c 22 ef 64 bd 67 58 3d 3c
       -0.10332687 0.009558289 -0.055892117 0.011556721
000390 20 1f dd bd 61 39 39 be e1 f8 e2 bc 9a e7 98 bd
       -0.10796952 -0.18088295 -0.027706565 -0.074660495
0003a0 44 64 2d be ed a5 a9 3b 04 a7 c4 bd 59 17 39 be
       -0.1693278 0.0051772506 -0.09602168 -0.18075313
0003b0 68 1a 21 be 47 5f e3 bd 4d 2d 84 3d be 9d 8f bc
       -0.1573273 -0.11102157 0.06453953 -0.017531272
0003c0 cc df e6 bd 74 ca cb 3d d2 98 b2 3d 47 d9 05 be
       -0.112731546 0.09950724 0.087205544 -0.13071166
0003d0 e6 91 45 be a7 6d ec bc 8f fc eb bd e8 a8 45 3d
       -0.19293937 -0.02886088 -0.11522781 0.048256785
0003e0 40 fa ce 3d 6b 46 38 be f8 34 2e be 4d 57 50 3d
       0.10106325 -0.17995612 -0.17012393 0.050864507
0003f0 68 62 a7 bd 77 03 26 be 22 86 b7 3c fa fc 9d bd
       -0.081730664 -0.16212259 0.022402827 -0.07714267

network_body._body_endoder.seq_layers.2.weight f4 [256, 256]
000000 10 de 04 be ef b2 15 3d 42 62 82 3c 72 03 3e bc
       -0.12975335 0.036547597 0.015915994 -0.011597501
000010 99 93 df 3d a2 5e 44 be 91 bf 24 3e c0 4d 7c 3d
       0.10916824 -0.19176725 0.16088702 0.061597586
000020 65 3e fa bd 28 7c a3 bd e4 b3 84 bd 81 59 3f bd
       -0.12218932 -0.07982665 -0.06479624 -0.046716217
000030 eb 88 46 be 60 b6 68 bd b1 d0 e7 bd 61 e2 8b 3d
       -0.19388168 -0.05681455 -0.113191016 0.06830288
000040 d1 44 be 3d 78 40 f8 3d 28 1f 50 be 67 88 d5 3d
       0.092904694 0.121216714 -0.20324385 0.10426407
000050 06 37 69 bc 44 ef 23 ba 38 29 f6 bd f4 87 69 3d
       -0.01423431 -0.000625361 -0.120195806 0.05701442
000060 a1 47 3f 3e 65 3c 05 be d0 92 95 bd 73 21 ae 3d
       0.18679668 -0.1301132 -0.07303393 0.08502474
000070 7b 27 f6 bd c0 11 31 3d 47 3e 97 b9 c9 2d 4f 3d
       -0.12019249 0.04322982 -0.00028847365 0.050580774
000080 2a 49 65 bc 79 cf d3 bd f1 e8 ec 3b 3e df 4f 3e
       -0.013994494 -0.10342307 0.007229917 0.20300004
000090 82 55 4a bd d5 11 56 be 49 52 c8 3d 4d ed 55 3d
       -0.049397953 -0.2090524 0.0978132 0.05222826
0000a0 2b 2e f8 bd 03 5e bf bd 04 69 fd bd 8d de dd 3d
       -0.12118181 -0.09344103 -0.12373546 0.10833464
0000b0 3a 34 23 bd ea 84 d6 ba da 04 2a 3d 6e 9e 75 3c
       -0.03984473 -0.0016366516 0.041508533 0.014991386
0000c0 4e 4b 6a bd c0 35 64 3d 5f d4 69 3d 96 48 2f be
       -0.057200722 0.055715322 0.0570873 -0.17117533
0000d0 6f eb 0b 3e af 45 17 bb 9c 1f 68 bd f0 8d 77 3d
       0.1366403 -0.0023082306 -0.05667077 0.060438097
0000e0 27 27 b5 bc 97 d4 13 3d 3c b8 54 3d 6d 06 11 3d
       -0.022113396 0.036091413 0.051933512 0.03540652
0000f0 98 05 c5 3d 29 21 48 bd ea 27 fe 3d 8b ab b2 3c
       0.096202075 -0.04885975 0.12409957 0.021810314
000100 32 47 18 3d 57 c1 9c bc 7c f9 58 be 5d 40 d8 bd
       0.037177272 -0.01913516 -0.2118892 -0.10559151
000110 36 5f 61 3e 13 b5 27 be 85 75 4f bd 2f 35 24 bc
       0.22008976 -0.16377668 -0.050649185 -0.010022446
000120 d3 64 51 bd ff 66 dd bc c0 4d c6 3c 8b f3 38 be
       -0.051121544 -0.027026651 0.024206996 -0.18061654
000130 e1 45 2a be ba 7a 29 bc df 49 03 be b9 f4 89 3c
       -0.16628219 -0.010344202 -0.12821148 0.016840326
000140 7f de ae bd 04 71 17 3d 11 1c a2 bd 9a 65 5a bb
       -0.085385315 0.036973014 -0.079155095 -0.003332472
000150 c7 0a 90 3d ad ab 83 bd 83 68 93 3b 03 f6 81 be
       0.070333056 -0.06429229 0.0044985428 -0.25383005
000160 1d 1f 96 bc e2 f9 2c be 2c 9f 52 bc fd f8 e5 bc
       -0.018325383 -0.16892198 -0.012855332 -0.028072828
000170 fc 47 63 be d1 12 f3 3c 2b 57 17 be 82 52 f3 3d
       -0.22195429 0.029672058 -0.14779346 0.118809715
000180 71 9e cc bc f9 38 3f be 3c 66 36 be 9a 70 ba 3d
       -0.024977894 -0.18674077 -0.17812437 0.09103508
000190 a1 93 a0 bd 14 ce d8 bc be 70 af 3d c2 03 7f bd
       -0.07840658 -0.026465453 0.08566426 -0.062259443
0001a0 e2 09 8a 3d c9 d1 e3 bd c9 46 4e be 4e 69 f2 bd
       0.06740166 -0.11123998 -0.2014419 -0.118364915
0001b0 07 fc e4 3d b4 d2 b8 bd d4 a3 47 3e 51 17 6a 3c
       0.11180883 -0.090245634 0.19496089 0.014287786
0001c0 2e 6c 1a be 10 4f 3f 3e c1 2f 1a 3d 1f 1e 0d 3d
       -0.1508033 0.18682504 0.037643198 0.034452554
0001d0 9f d8 cb 3b f8 5c bd bb 16 94 0c 3e bd ef c1 3c
       0.0062208916 -0.005778905 0.13728365 0.023673886
0001e0 11 8c aa bb 13 4d f1 bd 39 ff 13 be 9e 74 0a bd
       -0.0052046855 -0.11782279 -0.14452828 -0.03380262
0001f0 aa 33 15 bc aa fd e9 bd 26 91 1d bc dd ac b8 3d
       -0.009106556 -0.11425336 -0.009617126 0.09017346
000200 cb c4 1d be ae d2 f5 bd 67 18 1e 3e 70 01 57 bb
       -0.15407102 -0.120030746 0.15438996 -0.0032807253
000210 aa 93 2f bd 64 df e2 bd af 00 22 3e 1e 9c c7 bc
       -0.042865433 -0.11077765 0.15820573 -0.024366435
000220 62 df b9 bd f6 fe e9 3d 2b b9 fd bd 87 64 34 be
       -0.0907581 0.11425583 -0.123888336 -0.17616473
000230 ca 2b b1 bd bf 4f ab bc 7b cd bd 3d ef 24 af bd
       -0.0865093 -0.02091205 0.09267708 -0.085519664
000240 e7 7f 68 bd c3 0f b4 bd 56 ec c8 bd 08 e1 81 3d
       -0.056762602 -0.08792069 -0.098107025 0.063417494
000250 c6 6c 03 3e 6c 1c d2 3d 07 31 4a 3e e5 a7 69 bd
       0.12834463 0.10259327 0.19745265 -0.057044882
000260 a7 ed 85 3d b5 36 78 bc 2e e1 80 3c 65 e6 11 3e
       0.06539469 -0.015149762 0.015732374 0.14248045
000270 82 ec 79 be 95 37 15 be 4a e5 0e be 50 72 d0 bd
       -0.24406627 -0.14571984 -0.13954654 -0.101780534
000280 30 69 17 3e 7d b6 68 3d cc 2e 3e bd c3 ce 82 bd
       0.1478622 0.05681466 -0.046431348 -0.06387093
000290 de 1a ae bd 5f 3d a3 bd 27 95 03 bd df 66 15 bd
       -0.08501218 -0.0797069 -0.032124665 -0.03647506
0002a0 9e 04 2f 3b 4e 0a 48 bb bf bd b2 ba 90 0f 3b 3d
       0.0026705633 -0.003052372 -0.0013636871 0.04566914
0002b0 c9 c0 5e 3e f0 21 a8 bd d9 e4 d0 3d 35 a3 0e bd
       0.21753229 -0.08209598 0.10199899 -0.034823615
0002c0 0f 23 ad 3d 5c 73 3b 3e ef f0 39 bd 39 33 36 3c
       0.084539525 0.18305725 -0.045395788 0.011120611
0002d0 0e 51 23 bd d0 96 03 3e 60 79 02 be 6b 71 94 bd
       -0.03987222 0.12850499 -0.12741613 -0.07248195
0002e0 a9 6a 33 bd ba 68 c8 3d 22 3a 34 bd b4 8a 1f 3e
       -0.04380289 0.097856 -0.044000752 0.15580255
0002f0 d1 91 3e 3d cb cb aa 3b 73 0d cb bc 09 7e 97 3d
       0.04652578 0.0052122823 -0.024786687 0.07397086
000300 68 5a 26 bc b2 df 6b bd 59 2c c0 3c 87 b1 72 bd
       -0.0101533905 -0.05758638 0.023458647 -0.059251335
000310 ac 6b cc 3d 2a 6a c8 bd 90 ee 65 3c 0d 59 4e 3d
       0.09981474 -0.09785874 0.0140339285 0.050377894
000320 a3 83 8c 3e b3 99 9d bd e4 e1 83 3d e7 3a 16 bd
       0.2744418 -0.076953314 0.064395696 -0.036677267
000330 dc ad 9b 3d 94 39 f8 3c 4d e4 03 be 32 9d 8c bd
       0.076015204 0.030300893 -0.12880059 -0.0686592
000340 d7 f5 aa 3d 01 79 89 bc 65 95 81 3d b2 cb 4b 3d
       0.083476715 -0.016781332 0.06327323 0.049754806
000350 73 af cb 3d 0e aa b7 3d ef 5d a8 bc 1a f8 50 be
       0.09945574 0.08967982 -0.020552604 -0.20407143
000360 8c b6 d4 3d 18 2c 0c be 71 ae 8f 3a 13 e2 6e bd
       0.103863806 -0.13688695 0.0010962022 -0.05832107
000370 3f 36 66 bd f9 39 60 3c bb 2c 03 3d 83 6b 07 be
       -0.056204077 0.013685697 0.03202508 -0.13224606
000380 7d d1 1b 3d 34 c2 d1 bc 8d 80 79 bc 23 0d dd bc
       0.03804158 -0.025605299 -0.015228403 -0.026983803
000390 8e 20 55 be 78 e5 7d bd 9c 74 0b 3e bb 6e e1 bd
       -0.208132 -0.061986417 0.13618702 -0.11007448
0003a0 f3 ad a2 3d fa d9 5e bd 07 71 93 be 6b 5b c8 3d
       0.079433344 -0.054407097 -0.2879717 0.097830616
0003b0 a1 9b 98 3d 96 19 25 bd a8 aa 02 3c 11 4f 71 3d
       0.07451559 -0.040307604 0.007975258 0.058913294
0003c0 eb eb 9f bc 7f f1 66 bd 16 19 cf bd a1 19 1d 3d
       -0.019521674 -0.056382652 -0.10112207 0.03835452
0003d0 60 3d 27 3d a5 0a 8a 3c af 65 65 3b 1a 1e 15 bc
       0.040830016 0.016850779 0.0035003235 -0.009101415
0003e0 4d 96 12 bd 9d 4e ba bd b3 a3 d3 bd ef de 74 be
       -0.03578787 -0.090970255 -0.103339575 -0.23913167
0003f0 b9 ab a4 3d 12 75 f8 3d dc 0d d1 bd fa 52 a3 bd
       0.08040566 0.121317044 -0.102077216 -0.07974811

network_body._body_endoder.seq_layers.2.bias f4 [256]
000000 4c 2b 94 bd 31 da 59 bd 83 49 35 3d d4 28 18 bd
       -0.07234821 -0.0531866 0.04425956 -0.03714831
000010 e8 30 4a bd fb f1 67 bd 4c 14 b9 3b 56 68 06 3d
       -0.049363047 -0.056627255 0.0056481715 0.032814346
000020 cb bc 7e bd 54 44 16 3d 5f dd 80 bd ee e7 52 bd
       -0.062191766 0.036686257 -0.06292223 -0.051490717
000030 ed 73 6c 3d 97 48 0e bd 36 af 3f bd 21 9c 07 3d
       0.057727743 -0.034737196 -0.046797954 0.03310788
000040 26 08 af 3d cb 8b 6a 3d 90 fa bc bd ec 2d f1 bc
       0.08546476 0.057262223 -0.092274785 -0.029440843
000050 8b b5 19 3c f6 ea 5b 3b 89 ce 6d 3c dc a5 bf bd
       0.009381662 0.0033556796 0.014514574 -0.09357807
000060 92 63 21 bd 2a e8 a8 bc 9d 1a 9d 3c c3 d7 1a 3d
       -0.0394016 -0.020618517 0.01917773 0.037803423
000070 22 2c 20 be 99 a2 0a bd 7c 9f 42 bd e8 bc 5b bd
       -0.15641835 -0.03384647 -0.047515377 -0.053646952
000080 4a c3 17 bd 13 43 2e 3d c9 e4 03 3e c1 6e 3d bd
       -0.037051477 0.042544436 0.12880243 -0.0462482
000090 0e a3 cf bd e5 a2 df bb 39 4e 58 3c fd 5a 9b bd
       -0.10138522 -0.0068248385 0.0132022435 -0.07585714
0000a0 d6 3a b3 3c 49 6d 8a bc 85 47 76 bd 66 54 12 bb
       0.021878641 -0.016897814 -0.0601268 -0.0022328137
0000b0 ac a8 21 bd 07 46 10 bd 5c 51 bd bd d1 0c 0b bd
       -0.0394675 -0.035223033 -0.09244034 -0.03394777
0000c0 35 6c 3f bd e7 c0 40 bd 46 a2 95 bd 36 a1 01 bd
       -0.046734054 -0.047058966 -0.07306342 -0.031647883
0000d0 60 e5 62 3d c5 42 ea bd 64 87 5c bc 0d 00 97 3b
       0.05539453 -0.114385165 -0.013460014 0.0046081604
0000e0 b1 bd 5c 3d 0c 8d 15 bd 3c 67 5a 3d ab 58 8d 3a
       0.05389184 -0.036511466 0.05332111 0.0010783871
0000f0 42 16 1f bd 5d 15 95 bc c1 a1 96 bd f2 fc 07 3c
       -0.038839586 -0.018198663 -0.07355071 0.008300053
000100 84 4b df bc 1a d8 92 bd 1c 16 7b 3c 67 1b d9 3d
       -0.027257688 -0.07170124 0.0153250955 0.1060093
000110 08 9b ef bc 8f 5c 1c bd f1 2c 16 bd 42 07 9a 3b
       -0.02924873 -0.03817421 -0.036663953 0.004700572
000120 d7 de 15 bd 79 4d d8 3d 26 8a 45 bd 4d 12 09 bd
       -0.03658947 0.10561652 -0.04822745 -0.03346472
000130 bc c8 bf bd 8a 8b 14 be 9f 05 9b 3b d7 e9 24 bd
       -0.09364459 -0.14506355 0.0047308947 -0.04026207
000140 9e 69 59 bd c7 b3 76 bd e6 9d 9f 3d 38 3f 83 bd
       -0.05307924 -0.060230043 0.077937886 -0.064085424
000150 21 7b 29 bd a4 87 f4 bc 0f 79 cc bd 6d cc 1a bd
       -0.04137719 -0.029849835 -0.099840276 -0.037792612
000160 74 7e 86 3c 4b d5 07 be 9f de be ba c5 1c 3f bd
       0.01641772 -0.13264959 -0.0014562196 -0.046658296
000170 2e 3b 0f be de 7c 8e bc 43 05 3d ba ad 47 80 bc
       -0.13987419 -0.017393526 -0.0007210562 -0.015659178
000180 37 5c 4b 3c 6d ce ba bd 58 f8 85 bc b7 7a 06 bd
       0.012412122 -0.09121404 -0.016353771 -0.032831874
000190 3c 17 80 bd 2c 12 b9 bb 29 2d 0d bd cf 73 54 bd
       -0.062544316 -0.005647918 -0.034466896 -0.051868256
0001a0 bd 58 a1 bc 8e 5e fe bc bb 90 14 bc 23 c7 50 3a
       -0.019695634 -0.031050947 -0.00906771 0.0007964244
0001b0 9b fc ee ba 26 56 60 bd 27 2f b2 b9 47 77 0f be
       -0.0018233241 -0.054769658 -0.00033985937 -0.14010344
0001c0 f3 3e 61 3d 8b bd 88 3c d3 9a 89 3b 80 fc a4 3c
       0.054991674 0.016691944 0.0041993647 0.020139933
0001d0 67 01 0a 3c 50 23 78 bd d7 20 25 3c 57 8f 86 3c
       0.008423186 -0.06058055 0.01007863 0.016425772
0001e0 dd f9 b6 3c 6c 7a 8b 3a 1f 8c 09 bd bf f4 c2 3c
       0.022335941 0.0010641343 -0.033580896 0.023798345
0001f0 1a 00 59 3c 8c be c5 3c 1a ec b8 bb fb 8e 6c bd
       0.013244653 0.024138711 -0.00564338 -0.057753544
000200 c9 ff 16 bd fd 61 d9 ba 27 8a 49 3c fa 6a 44 bd
       -0.03686503 -0.0016584989 0.0123010045 -0.047953583
000210 0f 23 42 bd 6e ad 53 bd fb 93 7f bc b0 a5 b6 bb
       -0.047396716 -0.051679067 -0.015599246 -0.0055739507
000220 1e ca c7 bd c9 2c 25 bd f5 0a 82 bd 74 25 96 bd
       -0.09755348 -0.040325914 -0.06349746 -0.07331362
000230 df 7f 89 bd e2 0e 92 3d 63 41 ac ba ed 4b 25 bd
       -0.067138426 0.07131745 -0.0013142045 -0.04035561
000240 a4 a4 39 bc b2 8c 36 bd c0 20 51 3c 99 60 f7 bc
       -0.011330757 -0.04456777 0.012764156 -0.030197429
000250 b8 ac 8e bc 7f f2 d6 3d bd b7 ac bc 6e 77 94 bd
       -0.017416343 0.10495471 -0.021083707 -0.07249342
000260 cc 2b e3 bd 01 b4 2b bd 79 bd 85 3d ed fa d9 ba
       -0.11092338 -0.041919712 0.0653028 -0.0016630568
000270 55 97 70 bd da 9e b2 bd 9c 07 2a bd 47 ff 6d bd
       -0.05873807 -0.08721705 -0.041511163 -0.05810478
000280 b3 85 61 bc 5c 76 62 bd f7 c6 d2 bc 87 83 67 bd
       -0.0137647865 -0.055288658 -0.02572964 -0.05652192
000290 c7 68 db bd e2 31 c5 3d 61 4f c2 bc 80 75 75 3a
       -0.10713344 0.09628655 -0.023719491 0.0009363517
0002a0 cc c2 d9 3c fc 4b e1 bc 9c 8b 3a bd b8 91 82 bc
       0.026582144 -0.027502052 -0.045543298 -0.015938625
0002b0 71 2b 89 3d 94 bb 1c bd 50 4e 20 bd f9 df 15 3d
       0.06697739 -0.038264826 -0.039137185 0.03659055
0002c0 5a 3d 82 bd 50 d6 38 bd 1f c1 22 bd 60 c0 e1 3c
       -0.06359358 -0.04512626 -0.039734956 0.027557552
0002d0 b9 2a 86 3d e6 6d 69 3c 40 91 5f bd 17 cd 6a bc
       0.065511174 0.014247393 -0.05458188 -0.014331124
0002e0 f2 c4 fd 3d c1 db 9d 3d ad 40 26 bd 7f 9f 06 bd
       0.1239108 0.0770793 -0.040589023 -0.03286695
0002f0 09 b4 db bc d0 5c e8 bc 37 89 7e bc c9 fe cc 3c
       -0.026819246 -0.028364569 -0.015535644 0.025023835
000300 f0 02 8c bd be 68 4d bd 4a 99 14 3d e3 1d 67 3d
       -0.06836498 -0.050148718 0.036279 0.056424987
000310 c0 80 48 3d 80 4b 0a 3d ea 32 7b bd 04 b8 aa bc
       0.04895091 0.03376341 -0.061327852 -0.020839699
000320 66 4e 4a bc 3c 2e 4a 3d 66 5e c3 3c ea ae cf 3c
       -0.012347793 0.0493605 0.023848724 0.02535196
000330 f4 b6 91 3d bd 30 6f bd da c1 6a bd 72 01 78 bc
       0.07114974 -0.05839609 -0.057313778 -0.015137063
000340 52 a7 9a bc d2 f3 9c bc 03 43 92 bd 0f 58 a5 bc
       -0.018878613 -0.019159231 -0.07141688 -0.020183591
000350 67 2f 8a bd c4 0a 0e bd 45 ce e7 3b 70 1a 16 bc
       -0.067473225 -0.034678236 0.00707415 -0.009161577
000360 32 e9 83 bc 52 12 ee bb df 25 bb 3b 5d 44 ed bb
       -0.016102407 -0.0072653675 0.0057113017 -0.0072408156
000370 8a a6 74 3d ab 41 aa bc 1b 90 9f bd 57 e1 7f bd
       0.059729137 -0.020783266 -0.07791158 -0.06247076
000380 a0 03 ff bc ca 53 b3 ba 20 3c 09 bc 91 01 d3 bc
       -0.031129658 -0.0013681587 -0.008376151 -0.025757583
000390 f0 89 bf bc a2 09 f1 ba 42 17 e3 bc 5d 71 6b bc
       -0.023381203 -0.0018389712 -0.027721051 -0.01437029
0003a0 05 6f 94 3d d0 f2 49 3d 1b cc f9 3b b8 c6 0e bd
       0.07247738 0.04930383 0.007623208 -0.03485748
0003b0 11 9d 4e 3c 9f 43 26 3d d7 40 56 3d 8e 00 72 bd
       0.01261069 0.040591832 0.05230793 -0.05908256
0003c0 d3 3a e2 3c f3 ba 91 3d 4e 85 3c 3b b2 30 34 bd
       0.02761594 0.07115736 0.002876598 -0.043991752
0003d0 38 ad 82 bd 53 b8 34 bd cc c7 88 bd 17 63 a2 3d
       -0.06380695 -0.044121098 -0.06678733 0.07929056
0003e0 29 61 94 bc 38 43 03 bd b8 fe 0c 3d ec 22 98 bc
       -0.018112736 -0.032046527 0.034422606 -0.01857134
0003f0 db 18 a7 bd 15 83 82 bd 04 b2 34 3e 62 00 7c bc
       -0.08159038 -0.06372658 0.17646033 -0.015380951

network_body._body_endoder.seq_layers.4.weight f4 [256, 256]
000000 7a 9f fb 3b 47 3f 8b 3d 29 59 e2 3d 0a 81 00 3d
       0.007678923 0.067991786 0.11052162 0.03137306
000010 e4 ce 49 bd 9d aa ab bc 1b 97 4f 3e 3d 07 a3 bc
       -0.049269572 -0.020955378 0.20272486 -0.019900912
000020 73 ed 35 bc c0 79 ef 3c af 4d 91 bc 54 46 ec 3d
       -0.011103976 0.02923286 -0.017737238 0.115368515
000030 8a 8e 17 bd 06 38 f4 3b f3 9d 6d bd 33 fe 90 3c
       -0.03700117 0.0074529676 -0.05801196 0.017699337
000040 b9 ea 66 3d 7d 52 a3 bd 80 1e 0d 3e c6 27 dc bc
       0.056376193 -0.07974718 0.13781166 -0.026874434
000050 62 7a 78 bc 23 c3 b6 3d 3b ec 63 3c 7e fd 9e 3d
       -0.015165897 0.08923938 0.013911302 0.077631935
000060 af d2 5d 3e 6d 66 de bc 7f 2c e8 3c 07 55 09 bb
       0.216624 -0.02714845 0.02834153 -0.0020955221
000070 af 3c 11 3e 73 a0 2d be 66 ac 92 bd a0 4a f9 3d
       0.14183305 -0.16955738 -0.07161789 0.12172437
000080 79 8e cc 3b 26 66 47 be 4c 79 fd 3c 91 b6 28 be
       0.00624257 -0.1947256 0.030941628 -0.16475894
000090 19 99 77 bd 93 cc 13 bb fb 95 98 bd 66 42 81 3d
       -0.06044874 -0.0022552356 -0.074504815 0.063114926
0000a0 61 ef 92 3d b3 c1 66 bd 28 c6 c1 bc 0a 1d 12 3e
       0.07174564 -0.05633707 -0.023654059 0.1426889
0000b0 6e 90 46 be ad f0 ea bd f7 c1 94 3c 59 31 b1 bc
       -0.19391033 -0.114716865 0.018158896 -0.021629976
0000c0 c3 df 2a 3c 76 b2 c4 bd 32 b1 f4 3d 9a ef 3f bd
       0.0104293255 -0.09604351 0.1194786 -0.04685936
0000d0 8b 23 19 bc 56 2b 12 3d 56 69 cf bc 58 cd 04 be
       -0.009346853 0.03568586 -0.025318783 -0.12968957
0000e0 c4 36 84 bd fa 62 d1 3d b7 65 f8 bb 06 7c 8f be
       -0.06455758 0.102239564 -0.0075804847 -0.2802431
0000f0 0b f7 52 be 98 c7 08 3d cd ff 10 be 5a ca 73 3e
       -0.20602052 0.033393472 -0.1416008 0.2380766
000100 2d d2 aa bd 00 70 07 3e 9c 90 ad 3b c8 0f 16 3e
       -0.08340869 0.13226318 0.00529678 0.14654458
000110 30 f3 18 be 79 22 88 3d 07 73 3e bd 5a 1a 17 3e
       -0.14936519 0.066472 -0.046496417 0.14756146
000120 08 e6 c3 3c 2d f9 14 be 53 64 1a 3c 0d 21 91 bd
       0.023913398 -0.14548178 0.009423333 -0.07086382
000130 aa fb 1e be 86 12 29 be 6e ef 67 3d 30 43 be bc
       -0.1552569 -0.16510972 0.056624822 -0.023225397
000140 b9 ac f1 bc b4 86 3f bd 3e 47 5a 3d 05 a2 08 3e
       -0.029501306 -0.046759322 0.053290598 0.13343056
000150 08 38 88 be 0d 02 85 3a 36 35 82 bd 9d 41 b5 bd
       -0.26605248 0.0010147706 -0.063578054 -0.08850405
000160 69 85 90 3d 25 26 fc 3c 73 2a 25 3e 60 12 d3 3d
       0.07056696 0.030779907 0.16129474 0.10306239
000170 54 97 8e 3c e1 9e 8f bd fe d5 6c 3d 34 13 19 3e
       0.017406143 -0.070127256 0.057821266 0.14948732
000180 63 98 aa 3d c8 4e bf 3a fe b7 d6 3d db e6 6a 3d
       0.08329847 0.0014595622 0.104843125 0.057349067
000190 ca 86 1f be c7 75 5c bc a3 b0 d3 3a b4 33 f5 3c
       -0.15578762 -0.013455815 0.0016150664 0.02993188
0001a0 8f c7 c7 bd a2 99 96 3c bc b9 e8 bd 9f 5b 31 3d
       -0.0975486 0.018383805 -0.11363551 0.043300267
0001b0 0b f6 ce bd cb 09 a4 3d cb 2e 83 bc 18 66 49 bc
       -0.10105523 0.0800968 -0.016013524 -0.012292407
0001c0 46 52 ed bc 3b dd 06 bd e8 06 ba 3d f1 8a e7 3c
       -0.028969895 -0.032925826 0.090833485 0.028264495
0001d0 c6 6e 80 3d fb 37 26 be 2b 28 bb 3d ed 75 f1 bd
       0.06271128 -0.16232292 0.09138521 -0.11790071
0001e0 b6 4f 93 bc ed 8a ce 3c b3 bd 8b 3d 47 67 da 3d
       -0.017982345 0.02521273 0.06823292 0.1066423
0001f0 0f 94 34 3c 19 03 6e bd 1a df 81 3d c1 27 9f 3d
       0.011021628 -0.058108423 0.06341381 0.07771254
000200 81 21 f6 3d 5b 4c 17 be 82 6f 3f be eb e4 d3 3d
       0.12018109 -0.14775221 -0.1869488 0.10346397
000210 b3 cf 5a 3c a6 d7 16 3e d4 df 1c 3e df ea a6 bd
       0.013355183 0.14730701 0.15319759 -0.08150267
000220 95 d7 20 be 51 f0 c4 3d 0c ff 73 bd be ae 10 bd
       -0.15707238 0.09616149 -0.059569404 -0.035322897
000230 5b a3 0c 3e b4 ca ea bd a7 43 73 bd 91 d7 c1 3d
       0.1373419 -0.11464444 -0.05939069 0.09464944
000240 2e 26 61 bd a6 4f d6 bd 6c f4 4f 3c d9 bd 44 be
       -0.05496805 -0.104644105 0.012692552 -0.19213046
000250 d7 f4 bb bd ff 6d 90 bd 9a 3b 2e 3e e0 45 d1 3d
       -0.09177559 -0.0705223 0.17014924 0.10218406
000260 56 51 e4 bd 42 b7 ba 3d ec e4 80 3d 1f 39 7a 3e
       -0.11148326 0.09116985 0.062936634 0.24435852
000270 88 f9 88 bd e1 4e 9b bc 69 92 58 3d 19 30 9c bd
       -0.06688219 -0.01895851 0.052874003 -0.076263614
000280 81 82 d5 bd c0 a8 1a bd 98 28 49 3e ac e0 39 3e
       -0.10425282 -0.03775859 0.19644392 0.18152112
000290 b2 e5 fa bc 95 4b 0b be 19 24 a5 bc 5a 9f 7d be
       -0.030627105 -0.13603051 -0.020158814 -0.24767819
0002a0 bc f1 84 3d 1b a2 0e be 53 65 0e be c4 3a 46 bd
       0.0649142 -0.13929026 -0.1390584 -0.048395887
0002b0 f0 8e c5 bd 26 42 43 bd 2a ff ad 3d 1e 5c 05 3e
       -0.09646404 -0.047670506 0.08495934 0.13023421
0002c0 6b 57 a7 bd e5 2d 71 3d 2d ed c2 bd 31 da a3 bd
       -0.081709705 0.05888166 -0.09517894 -0.08000601
0002d0 d9 fe 73 3b 20 94 19 3c 9c 70 e3 bd 46 4e 57 be
       0.0037230758 0.009373695 -0.11105463 -0.21025953
0002e0 6b 8b 8f bd 9c b2 0b 3d 5f 2f 7a 3d 42 e6 46 be
       -0.07009014 0.034105882 0.061080333 -0.19423774
0002f0 6a e6 cd 3d 40 6b 86 be 03 5e e8 3b 8e 84 d4 3c
       0.100537136 -0.262537 0.007091285 0.025942113
000300 8d 1d c5 bd 75 b7 6f bc 0c 38 bb bc 4b 84 ab bc
       -0.09624777 -0.014631142 -0.022853874 -0.020937106
000310 f1 a2 53 be ff e5 31 3e 17 10 a0 bd 0c 82 c5 bc
       -0.20667626 0.17372893 -0.07815569 -0.024109863
000320 12 89 3f 3c fb 5b bf bd 71 10 5f 3d f5 8f 20 bd
       0.011690395 -0.09343716 0.05445904 -0.039199788
000330 f1 4c 7e be f9 b3 ca 3d 5f a4 51 be e9 a7 21 be
       -0.24834038 0.09897608 -0.20472859 -0.15786709
000340 28 74 b5 bd 28 51 40 3d d2 d1 b0 3d e5 05 17 3a
       -0.08860046 0.046952397 0.0863377 0.0005761071
000350 a9 67 d2 bc bc 75 16 bd ad 79 33 3d 71 11 d0 3c
       -0.025684195 -0.036733374 0.04381721 0.025398942
000360 59 58 36 bb ab 8c 4c bd bc 7a 21 3e 77 31 ac bd
       -0.0027823655 -0.04993884 0.15769476 -0.08407872
000370 7c ee 8b 3d 40 ae 1d 3d 95 a7 e6 3d a7 e8 c9 3d
       0.06832597 0.038496256 0.112624325 0.09858828
000380 fc 6b c7 3d 5a 69 9b 3d 24 9a 2c 3e 0b 9c 37 be
       0.09737393 0.075884536 0.16855675 -0.1793062
000390 02 31 a7 3c bb f1 6f 3c 0f f8 30 be 00 78 e8 3d
       0.020409111 0.014645035 -0.17282127 0.11351013
0003a0 28 41 64 bd 13 63 29 bc 9e fd c6 bd 72 d4 47 3d
       -0.0557262 -0.010338563 -0.097163424 0.048786588
0003b0 ff c8 f3 bb a4 35 55 3c 3c 9d 6d bd 50 55 08 bd
       -0.007439732 0.013013277 -0.05801128 -0.033284485
0003c0 80 99 5b 3c 45 37 7f 3d 62 46 b3 3c 1b a3 14 bd
       0.0134032965 0.06230857 0.021884147 -0.036288362
0003d0 c5 01 04 3d 15 5d 90 3d a4 91 a1 bd a8 bf 5d be
       0.03222825 0.07049004 -0.07889107 -0.21655142
0003e0 c9 e9 f8 bd 46 a7 ba 3c 19 60 96 bc 65 d2 87 bd
       -0.12153966 0.02278484 -0.01835637 -0.066319264
0003f0 bb 22 1d 3e a2 84 08 3e e2 bc 92 3d 4c e3 8e bc
       0.1534528 0.13331845 0.07164933 -0.017442368

network_body._body_endoder.seq_layers.4.bias f4 [256]
000000 2f 97 b6 bd e8 cc b5 3c 5f 04 bd bd 09 04 e8 3c
       -0.08915555 0.022192433 -0.09229349 0.028322237
000010 e3 1b a2 3d 17 43 97 bc 97 6f 73 3d b1 4e e4 3b
       0.07915475 -0.018464608 0.059432592 0.0069673886
000020 1a 12 e3 bb 8a 44 ba bd dd a0 89 bd 26 f3 35 3d
       -0.006929648 -0.09095104 -0.06720135 0.044421338
000030 19 7b e4 bb d1 73 1f 3d 70 31 64 3d 81 10 d0 bb
       -0.006972682 0.03892881 0.05571121 -0.0063496237
000040 18 a2 69 bc 97 1b f4 3d 7d dc 24 3c 25 78 a9 3c
       -0.014259838 0.11919325 0.010062334 0.020687172
000050 54 c5 5b 3c 6e 2f 02 be 1c 14 16 3c ab 16 89 ba
       0.013413746 -0.12713405 0.009160068 -0.0010459026
000060 61 16 cd bc d2 65 2d 3d 47 87 9f 3d 11 b4 47 bd
       -0.025035085 0.04233343 0.07789474 -0.04875571
000070 4f 7d b7 bc 4d 44 28 bd 17 36 41 3d a9 04 c4 3c
       -0.022398619 -0.04108076 0.047170725 0.023928003
000080 16 9a b6 bb b1 6c bd bb e6 32 35 bd 9e 7e 4e 3d
       -0.0055725677 -0.0057807793 -0.044237994 0.05041372
000090 8a 6b 94 3d 5b 7d f7 bc 1c aa ee 3c 21 2e 21 bd
       0.07247074 -0.030211141 0.029133849 -0.039350633
0000a0 24 c8 43 3d f9 1c 0c bc c5 25 50 bd 2f 40 c1 3c
       0.04779829 -0.0085518295 -0.05081727 0.023590175
0000b0 56 8d 94 bd eb e5 7e bd 33 0e a5 bb be d1 dd bc
       -0.0725352 -0.062230986 -0.005037093 -0.027077552
0000c0 a5 d1 9d 3d f6 9b 15 3c fb 3d 18 bd d3 5d bf 3c
       0.07706002 0.009131422 -0.037168484 0.023360169
0000d0 55 67 18 bd b3 36 31 bd 12 13 78 bc 87 e1 9d bc
       -0.03720792 -0.043265056 -0.0151412655 -0.019272579
0000e0 0c ae 3d 3d 89 96 20 3e 5c 5e e4 bc f8 0f bb 3b
       0.046308562 0.15682425 -0.027877025 0.0057086907
0000f0 7e f7 86 3c 06 b9 71 bc 28 28 09 3c 8b f6 cc bc
       0.016475435 -0.014753586 0.00837139 -0.025019905
000100 0f 4d 83 3d 8c 5f 9d bd ce 7a e2 bc ec c6 30 bd
       0.06411182 -0.0768424 -0.027646448 -0.043158457
000110 92 9c 0a 3d e3 6f 90 bc 59 df 6b bd 49 5c 10 3e
       0.033840723 -0.017631477 -0.057586048 0.14097704
000120 ee f7 35 3d b3 c8 20 bd 9d a1 28 bd 91 54 20 bc
       0.044425897 -0.0392539 -0.04116975 -0.009785787
000130 fd b5 15 bd 21 c3 3e 3a f6 e3 a9 3c 21 c9 b6 3d
       -0.03655051 0.0007277001 0.020738583 0.08925081
000140 b8 1c d4 bc 33 14 25 3c d3 42 7b 3d 06 81 67 3d
       -0.0258926 0.010075617 0.061343025 0.05651953
000150 d8 2d bd 3d bf b1 df 3c ab 5b 98 bc 30 ec fa bc
       0.092372596 0.027306436 -0.018598398 -0.030630201
000160 3e 5a b1 bb 27 1d a3 bc 6d 0c 62 bd 5f d9 fd bb
       -0.005412369 -0.019911362 -0.05518763 -0.00774686
000170 32 81 2f bd cc fb 8b 3c b7 a1 c0 3d 91 06 7d 3c
       -0.04284782 0.01708784 0.09405845 0.01544346
000180 a9 c8 0a bd 15 ab 42 3e 38 73 67 bd 69 6a 61 bd
       -0.03388277 0.19010575 -0.056506366 -0.05503312
000190 8a ee 22 3d a0 a5 48 bc f7 e1 61 3c 3e a0 8f 3b
       0.03977827 -0.012246519 0.013786784 0.004383116
0001a0 aa fc 96 bd 5f e6 0e bd 66 83 0d 3d cf 9d 0f 3e
       -0.073724106 -0.034887668 0.03454914 0.14025043
0001b0 63 70 cf 3c a4 41 44 3a 39 15 0c 3e 61 ac 12 3e
       0.025322145 0.0007486588 0.13679971 0.1432357
0001c0 61 1d fb bc 60 c5 91 bc 78 d1 90 bb 3b 2b be bc
       -0.030653657 -0.017794311 -0.004419502 -0.023213973
0001d0 89 03 9d bd a7 a8 b7 3c 95 6e c6 bb bc 68 bf 3d
       -0.0766669 0.022419287 -0.006055663 0.09346148
0001e0 98 57 e4 bc 44 97 59 bd 26 3a 6c bd b5 bb 3f bd
       -0.0278738 -0.053122774 -0.057672642 -0.04680987
0001f0 38 f2 8a bd 9f 2a d4 bc 61 88 4e bd 9d 9d 5b 3d
       -0.06784481 -0.02589923 -0.05042303 0.05361711
000200 72 d9 b9 3d 5e d0 c3 bc eb 08 76 bd 1c 27 7d bb
       0.090746775 -0.023903068 -0.0600671 -0.0038628047
000210 2d 27 0b 3a d2 3a 0c 3d 70 bb 1d 3d 09 cd ec 3d
       0.0005308267 0.034235783 0.038508832 0.11562545
000220 8e 94 a5 bc e7 44 6c 3c 5b bd 5b 3d dc 0f 76 3c
       -0.020212438 0.0144207245 0.05364738 0.01501843
000230 bc 1d 95 bb e5 1b 28 3d 08 e7 10 3e 35 31 d5 3b
       -0.0045506638 0.041042227 0.14150631 0.00650611
000240 3e f8 a2 3d 81 e2 10 bd 43 93 05 3d e9 5f 90 bd
       0.07957505 -0.03537226 0.032611143 -0.070495434
000250 14 d7 27 bd dd 21 7f 3d 11 81 18 3d e1 64 a3 bd
       -0.0409766 0.062288154 0.037232462 -0.079782255
000260 b9 4e 8e 3c c9 dc 8d 3c 05 eb b5 3d ec 99 a6 bc
       0.017371522 0.017317193 0.08882717 -0.020337068
000270 c4 49 73 3d 6e 57 e5 bb e7 de 3f bd 78 d1 2e 3d
       0.05939652 -0.006998948 -0.046843436 0.042680234
000280 5f ab d1 bc 0d e3 1c bd e8 67 75 bc 99 3f 72 bc
       -0.025594411 -0.03830247 -0.014978386 -0.014785671
000290 de c2 85 3d 3c 53 26 3d fd 79 0e 3d a0 a5 81 bd
       0.065313086 0.040606722 0.034784306 -0.063304186
0002a0 c5 66 2c bd 95 de 7b 3c 1d 72 b0 bb c2 39 21 bd
       -0.042090196 0.015372892 -0.005384697 -0.039361723
0002b0 d3 d2 1c bd 5d e1 be bb b7 80 12 bd 7e 7d 17 bd
       -0.038286995 -0.0058252052 -0.035767283 -0.036984913
0002c0 39 ad 79 bd 05 28 19 bb ed da de 3d d1 5f ea bc
       -0.060956214 -0.00233698 0.108816005 -0.028610142
0002d0 37 fa 3f bd 2c 75 90 bd 78 0e 9f bd 42 2e 62 bc
       -0.046869483 -0.07053599 -0.077664316 -0.013804974
0002e0 17 7e ef bd bd f5 d1 3c df 45 02 bd a8 2f d6 3c
       -0.116939716 0.025629872 -0.031804916 0.026145771
0002f0 e5 b6 c1 3b 45 db c9 bc 89 4e a7 3b 84 26 81 3d
       0.0059116953 -0.024640689 0.0051057977 0.063061744
000300 d1 f6 c9 3c 70 80 c6 39 c5 5b 2f bd 1c af c8 3c
       0.024653824 0.00037861196 -0.042812128 0.024497561
000310 74 a8 fc 39 eb 7b 2d bd 06 5f 9b bd e7 ea 94 bd
       0.00048190693 -0.042354506 -0.07586484 -0.072713666
000320 51 74 2f b9 24 b3 d5 3b 24 ca 9b bd 32 49 11 3a
       -0.00016732632 0.0065215994 -0.07606915 0.0005542218
000330 57 19 e8 ba 55 ce 9b 3d df 77 24 3b 10 d1 a6 ba
       -0.0017707747 0.07607714 0.0025095863 -0.00127271
000340 93 ef 55 bc 0d 50 00 bd a3 2b c8 bc 55 22 84 bd
       -0.013057607 -0.031326342 -0.02443487 -0.06451861
000350 bd 00 f2 bc ee f5 67 bd 0f fb b1 3a 6b d7 d9 bc
       -0.029541368 -0.05663102 0.001357885 -0.026591977
000360 42 e3 e9 bb 0c 34 bb bd 2b 11 8e bc 7a d5 a7 3c
       -0.007137687 -0.091407865 -0.01734217 0.020487536
000370 89 de 77 bc 1e 64 8b 3d 12 74 3f 3c b6 b4 1d 3c
       -0.01512874 0.06806205 0.011685388 0.009625604
000380 d9 e1 01 3d 68 ac 43 bd 6b 39 84 bd 16 ca 95 ba
       0.031709526 -0.04777184 -0.06456264 -0.0011428024
000390 22 12 f0 3c 95 2d f9 bb 1b f7 e3 bc ae 36 f2 bb
       0.029305521 -0.0076043108 -0.02782779 -0.0073917722
0003a0 e3 5e 0c 3c 19 f1 99 3d 85 b8 1d bc 3b 74 13 3d
       0.008567545 0.07516689 -0.009626512 0.035999518
0003b0 9b c2 55 bd 61 dc 1a bc f2 1c f6 3c 94 60 92 3c
       -0.052187543 -0.0094519565 0.0300431 0.017868318
0003c0 c6 c5 3b 3d a0 8c a1 bd fd 0b 49 3c 28 e4 c3 bd
       0.04584291 -0.0788815 0.012270925 -0.09565002
0003d0 a2 ae 7c bd df 06 d6 3d 4f 1a c8 bc a1 d8 4a bd
       -0.06168998 0.10450529 -0.024426607 -0.049523
0003e0 2b 9d b3 bc 3b 70 17 3d 3b 98 87 bc 4d b2 42 bd
       -0.02192553 0.036972266 -0.016552081 -0.047533322
0003f0 e0 92 71 39 a2 72 0c bd 12 b6 e2 bc 74 99 f7 3c
       0.00023038266 -0.03428901 -0.027674709 0.03022454
