npcmake/onnx list/Walker-10999980.onnx (onnx, 293127 bytes, 13 tensors)

network_body.observation_encoder.processors.0.normalizer.running_mean f4 [35]
000000 59 dc 9f 3c 8b 6a 2e 3d 00 00 00 00 75 1a 70 3f
       0.01951425 0.042582076 0.0 0.9379037
000010 19 0b 7a 3f fa e1 4d 3d af 76 c2 37 00 00 00 00
       0.97673184 0.050264336 2.3181869e-05 0.0
000020 a1 20 73 3f c0 8e 7b 3f 38 8a 42 3d 4d 6d cf 37
       0.9497166 0.98264694 0.047495097 2.472722e-05
000030 00 00 00 00 ba d5 73 3f b8 f4 7b 3f c8 b8 ce 3d
       0.0 0.95247996 0.98420286 0.10093838
000040 cf 37 86 35 00 00 00 00 cf 28 66 3f 51 a5 75 3f
       1.000002e-06 0.0 0.8990602 0.9595538
000050 b0 b6 cd 3d cf 37 86 35 00 00 00 00 2c 49 66 3f
       0.100446105 1.000002e-06 0.0 0.899554
000060 74 3e 76 3f e6 21 3b 3e 1c 2f fd 36 00 00 00 00
       0.96189046 0.1827465 7.545472e-06 0.0
000070 04 37 51 3f e9 fb 6b 3f aa 95 36 3e e8 39 c3 33
       0.8172457 0.9218126 0.1783053 9.090928e-08
000080 00 00 00 00 9d 5a 52 3f b0 0c 6d 3f
       0.0 0.82169515 0.92597485

network_body.observation_encoder.processors.1.normalizer.running_mean f4 [225]
000000 68 02 06 40 10 cc 92 3a fa 32 a4 bb 1a 33 42 3b
       2.0938969 0.0011199731 -0.0050109597 0.002963251
000010 4b cb df ac 00 00 00 00 cb ad 02 40 11 eb 13 3d
       -6.3606113e-12 0.0 2.0418575 0.03611285
000020 6a 65 6a 3c 46 21 4e 3b ea 46 68 3f cf 46 2e bc
       0.014306406 0.0031452938 0.90733206 -0.010636999
000030 92 dc 6a 3d c0 02 c3 3b f8 9d 69 3f 27 af 13 ba
       0.05733926 0.0059512556 0.91256666 -0.0005633705
000040 90 1b 1c 40 76 c0 4e 42 3b d7 ff 3b 9d 81 3d 39
       2.4391823 51.68795 0.00780764 0.0001807273
000050 d5 ac 42 3c 6e 65 c4 3c 55 08 09 3c 1f 86 37 3e
       0.011882027 0.023974147 0.008363803 0.17922257
000060 66 bd 27 3d 49 b7 56 bc 80 60 08 29 00 00 00 00
       0.04095211 -0.013105222 3.0281767e-14 0.0
000070 85 eb 50 29 5c dc 9c ba c6 7c ea 3d aa 02 de 3b
       4.638956e-14 -0.0011967528 0.1144958 0.00677522
000080 db ee 0a 3d 7b 51 0c 36 76 b8 95 3a 0b 16 1e 3b
       0.033919197 2.0909054e-06 0.0011422771 0.0024122025
000090 f9 60 b5 bc 4d bc 24 3c 2c f8 6a be e1 75 8b 3d
       -0.022140967 0.01005466 -0.22946233 0.06809593
0000a0 7b a2 7e 3d 38 2e bc 39 74 50 24 3e 85 a5 5c 3b
       0.062166672 0.0003589259 0.16046315 0.0033667993
0000b0 59 33 d4 3c d2 89 e6 bc a8 4b e6 3b f1 34 7a 3f
       0.02590339 -0.02814189 0.007028062 0.9773703
0000c0 2e 57 02 3f 00 00 00 00 0b b4 f9 39 53 53 f6 bb
       0.50914276 0.0 0.00047627123 -0.0075172572
0000d0 8c 74 36 bd d6 7c be 3a a3 ef 0a 3e 76 97 4d bc
       -0.04454474 0.0014533054 0.13567977 -0.012548318
0000e0 43 e3 7d bd 98 93 41 bc 46 94 09 3f 9f 73 f6 bb
       -0.06198431 -0.011814974 0.5374187 -0.0075211073
0000f0 7e 8a 28 3d 0d fa b7 bc d4 78 6c bb ca 8b 7b 3f
       0.0411477 -0.0224581 -0.0036082761 0.98260176
000100 c5 aa 13 3f 8e c1 97 3c 17 75 6f 38 49 50 8a 3c
       0.5768245 0.018524911 5.709109e-05 0.016883986
000110 10 bf f1 bb f0 31 01 3d b6 c9 c0 3e cb 2e 1d 3e
       -0.0073775128 0.031541765 0.37653893 0.15349881
000120 4b 4e 3f be 1b fb bf bd 5d 0e f5 ba a6 cb 0d 3c
       -0.1868221 -0.093740664 -0.0018696297 0.008654511
000130 bd a0 6d 3f 5f 92 73 bd 65 ee 0c 3b 22 b1 9c 3e
       0.9282339 -0.059465762 0.00215044 0.30603892
000140 48 06 04 3f fd bc 8b 3d cf fe 96 37 e2 bd bc 3a
       0.51572084 0.06823156 1.8000048e-05 0.0014399851
000150 7a 3a 88 bc 71 02 36 bc ac 41 19 be f5 3b b4 3d
       -0.016629446 -0.0111089805 -0.14966458 0.088004984
000160 6b 76 12 be f6 8d fe bd 7f dc 4c be a8 c1 21 3e
       -0.14302985 -0.12429421 -0.20005988 0.1579653
000170 11 42 fc 3e e6 dc 35 bb ff 3f 9c 3b fb eb 5b 3f
       0.49269155 -0.0027750074 0.004768371 0.8590695
000180 b4 cc 13 3f 1b 61 54 3e 7f 08 27 3a fb 45 45 bc
       0.5773423 0.20740168 0.00063718105 -0.01204061
000190 05 fb ea bc d2 d4 44 3c e2 52 b3 3d f4 2b 80 bc
       -0.028684149 0.012013631 0.08756043 -0.015645958
0001a0 5d 55 91 3e 8a 57 31 be 05 45 05 bf dd cb 84 3d
       0.2838544 -0.1731855 -0.5205844 0.06484196
0001b0 64 e8 2e bf 0a 3a 09 3d 19 74 05 bd 8f 9d 32 3f
       -0.6832335 0.033502616 -0.032581422 0.69771665
0001c0 97 96 11 3f bf 4f c0 3c e7 80 ee 38 27 80 2a bc
       0.56870407 0.023475526 0.00011372734 -0.01040653
0001d0 4e 06 17 3c 30 56 ba 3c 63 d8 ed 3e 42 83 bd bd
       0.009217812 0.022746176 0.46454152 -0.09253551
0001e0 65 b9 04 bd 56 70 bf 3d c9 ea 92 ba 63 65 35 b9
       -0.03240337 0.09347598 -0.0011208887 -0.00017299275
0001f0 ba 16 71 3f 18 bc 46 3d 7c c6 e3 3a 1f 4a 88 3e
       0.94175303 0.048519224 0.0017377879 0.2661905
000200 f4 d4 07 3f f7 d4 78 3d 3e 9f d3 38 f9 3f c8 ba
       0.53059316 0.060749974 0.00010090925 -0.0015277854
000210 4f 47 f4 bc 71 d5 2e bb fb d9 77 be 93 c1 00 be
       -0.029819159 -0.0026677514 -0.24204247 -0.12573843
000220 01 76 c4 3c 51 85 01 3e ef 0b 5b be 60 9c 08 3e
       0.02398205 0.12648512 -0.21391271 0.13340902
000230 2a 28 fc 3e 6c fa 78 3a 64 d3 3c ba ff e3 5a 3f
       0.49249393 0.0009497765 -0.00072031305 0.85504144
000240 90 63 f3 3e 61 e4 41 3e b9 c2 c2 3a 36 70 70 3c
       0.47536898 0.18934776 0.0014859057 0.014675191
000250 79 39 28 bd ae dc 7f bb d8 54 1f be 7a e1 9e bc
       -0.041070435 -0.0039041447 -0.15559709 -0.019394625
000260 5f a2 5c bc 7e 40 24 3e 52 d8 04 bf a6 82 72 3c
       -0.013466447 0.16040227 -0.5189258 0.014801657
000270 ff 16 34 bf 07 f2 df bc 21 de f5 3c c1 70 2e 3f
       -0.7034759 -0.027337087 0.030013146 0.681408
000280 3e 12 d8 3e 06 1e 00 36 17 ba b6 3a 06 04 46 3c
       0.42201418 1.9090962e-06 0.0013940957 0.01208592
000290 fc a0 77 3b a8 75 f5 3b 6a df ea 3d c3 ca e0 bd
       0.0037785163 0.0074908324 0.11468394 -0.10976174
0002a0 14 2c 2e be bc f9 28 be 18 3f d2 3e 66 d1 1d bd
       -0.17009002 -0.16501516 0.41063762 -0.038529776
0002b0 71 4c 65 3f e7 08 b3 be ec 8f 3c bd 33 eb 8a 3d
       0.89569765 -0.3496773 -0.046035692 0.06783142
0002c0 2c f5 dd 3e 27 89 a2 3b 1f c6 e0 3b 12 e4 43 3c
       0.43351114 0.0049601975 0.0068595554 0.011956232
0002d0 a2 fb 19 3d b0 b1 b5 bc 60 7a 52 be 50 23 14 3e
       0.03759349 -0.022179455 -0.20554495 0.14466596
0002e0 cf ae 3d be b9 f1 87 be 09 11 8c 3e 1e d0 c4 bc
       -0.18523715 -0.26551607 0.27356747 -0.02402502
0002f0 b1 31 ae be 1f 3f eb bb 97 d4 e8 3b df 65 6c 3f
       -0.34022287 -0.0071791555 0.007105421 0.9234294
000300 c7 89 14 3f 28 a1 5b 35 a9 b0 01 3b ef e6 2b bc
       0.5802273 8.181837e-07 0.0019789136 -0.010492071
000310 ac 80 78 3b 07 93 80 3b f8 d5 14 3c 00 ea f8 bb
       0.0037918491 0.003923777 0.009084217 -0.0075962543
000320 62 bc 14 3e 82 50 1b 3e 35 1e d9 3e e1 c8 04 bd
       0.14524987 0.1516743 0.4240586 -0.032418136
000330 75 18 6f 3f fa cc 72 3e 4b 76 07 3d ed 68 80 3d
       0.93396693 0.23711005 0.033071797 0.06270013
000340 bc bd eb 3e 73 66 6c 3b f2 2c a9 3b fe 58 72 bc
       0.46043193 0.0036071807 0.0051628286 -0.014791725
000350 11 90 3f 3d 9b 54 9d bc 5b 7c c1 be e9 15 07 be
       0.04676825 -0.019205382 -0.37790188 -0.13191952
000360 f3 f4 c1 3d fb 45 68 3e 71 db 8a 3e 31 14 83 bb
       0.094705485 0.22682945 0.27120546 -0.0040002097
000370 db bc b8 be 3e e6 b0 3b e1 ec 06 bc 41 76 68 3f
       -0.36081585 0.0053985408 -0.008235187 0.9080544
000380 82 2e 04 3f
       0.51633465

network_body._body_endoder.seq_layers.0.weight f4 [128, 260]
000000 cb 4f 8e 3c 73 9b 6b bd 88 9a dd bc ac 09 1a be
       0.017372033 -0.057521295 -0.027051225 -0.15042752
000010 f1 84 24 bd f1 9a 44 bc b9 bc 69 bc d9 7a b5 bd
       -0.040165845 -0.011999832 -0.014266186 -0.08861322
000020 2f 94 27 bd 7b a3 54 3c 55 c3 97 3c 2d 78 36 3d
       -0.040912803 0.01297843 0.018525759 0.044548202
000030 07 85 01 3e ac c7 d2 3c 6f 8f 05 be 68 50 03 bd
       0.12648402 0.025729977 -0.13042997 -0.032059103
000040 a4 d6 5e 3d 2a 55 e3 3d ac 15 42 bd 9e 8f c9 bd
       0.054403916 0.11100228 -0.04738395 -0.09841846
000050 ff ee 02 3d ad 75 03 3e 17 46 ee 3a ec ce 06 be
       0.031966206 0.12837858 0.0018178847 -0.13164872
000060 ac a2 5c 3c 27 47 d0 3c 07 79 2c bc 64 63 9f 3d
       0.013466518 0.025424553 -0.010526902 0.07782629
000070 a0 21 6f 3d b4 40 81 3d 08 52 81 3d ed 62 05 bd
       0.058381677 0.06311169 0.06314474 -0.032565046
000080 43 a6 c3 bd 6b c3 c0 3d 23 ab 9f bd 17 bd 07 3a
       -0.09553196 0.09412273 -0.077963136 0.0005178018
000090 1d e6 b4 3c 80 a6 a2 3d e0 de 1b 3e 03 d5 8a bd
       0.022082383 0.079419136 0.15221739 -0.0677891
0000a0 51 65 97 3d b8 96 13 be b7 2a 0a be 70 6b 96 3d
       0.073923714 -0.14412963 -0.13492857 0.07344711
0000b0 e3 ef 87 bc bc c1 c1 3d d5 b3 2a bd 97 87 88 3d
       -0.01659388 0.0946078 -0.041675407 0.06666487
0000c0 c7 4e 39 bd e9 a8 9a 3b 19 3a bf bc b9 c4 e8 3c
       -0.045241144 0.0047198427 -0.023343133 0.028414117
0000d0 d0 ec 99 3d 7b 95 87 bd 0a d2 94 bd 26 79 05 bb
       0.075158715 -0.06620308 -0.07266624 -0.00203664
0000e0 72 e4 bf 3b ec 3f 1c 3e d6 d8 a2 3d 04 a8 f4 3d
       0.00585609 0.1525876 0.079515144 0.11946109
0000f0 a1 39 cf 3d 8d 90 e1 3c 0b dd a3 bb 80 46 b9 3d
       0.10118414 0.027534747 -0.0050007156 0.0904665
000100 bc c8 a4 3d dc 22 0c 3c 84 21 0c bd 54 88 71 3d
       0.080460995 0.008553233 -0.03421165 0.058967903
000110 4f bc 01 be cf 37 4d 3d 7d 01 0a be 28 9c b7 3c
       -0.1266949 0.05010205 -0.1347713 0.022413328
000120 38 15 40 3e c6 ce 7d 3d 42 dd 30 3d ca 37 79 3d
       0.18758094 0.061964773 0.043179758 0.06084422
000130 f9 cb 3f bd a0 e9 18 3c a5 37 ed 3d df ac 63 bd
       -0.046825383 0.009333044 0.11582879 -0.055584785
000140 e4 50 bf 3c f3 a6 43 3d 90 56 8a 3d 50 ca 94 3d
       0.023354001 0.047766637 0.06754792 0.072651505
000150 62 66 d6 3d e9 c7 45 bd 86 e0 37 3c 49 d8 43 3d
       0.10468747 -0.048286352 0.011222964 0.047813687
000160 35 78 96 3c 18 c7 a1 3c cb 23 e4 bd 50 3a 79 3d
       0.018367866 0.019748256 -0.111396395 0.060846627
000170 13 81 7b 3c bc dc 77 3d 17 7f bd 3c bc 78 77 bd
       0.015350598 0.060513243 0.02313189 -0.060417876
000180 6b 4f a4 3b 29 bb 9f 3d f3 cd 96 bc 59 7c 1c 3d
       0.00501435 0.0779937 -0.018408751 0.038204525
000190 4c 40 8e 3b 65 23 7d 3d 9a e7 06 be 6d 00 c2 3d
       0.004341161 0.061801333 -0.13174286 0.094727375
0001a0 84 be 14 3e a7 4d ce bd 77 e9 2d 3d f1 91 12 be
       0.14525801 -0.10073405 0.042458978 -0.14313485
0001b0 b6 8d d9 bd 1d 6f ab 3b b7 06 4c be 33 03 8f 3d
       -0.10622732 0.0052317516 -0.19924437 0.06983032
0001c0 ab e2 15 bc 67 d2 01 3e 05 6a 90 bb f1 f5 88 3d
       -0.00914828 0.12677918 -0.0044071698 0.066875346
0001d0 b9 7b 64 bc f1 de f1 3c f0 ba a6 3d 88 5c 9c bd
       -0.013945513 0.029525252 0.08141124 -0.076348364
0001e0 e9 5a 04 3e c4 fb 16 3d 11 ea da bc 9b f9 02 be
       0.12925304 0.036861196 -0.02672294 -0.1279053
0001f0 77 00 e7 3b 3d 57 07 be fe 8f 75 bd 37 74 84 bc
       0.007049616 -0.13216873 -0.059951775 -0.016168697
000200 07 48 ba bd e4 5d 31 bd 97 00 23 be 93 f0 c0 3c
       -0.090957694 -0.04330243 -0.15918194 0.023552215
000210 b6 8d 08 be a4 bc 30 bb 35 20 0e 3e 72 8c 5a bd
       -0.13335308 -0.0026967907 0.13879474 -0.053356595
000220 d8 5d 00 bd 32 76 ce bc f0 79 98 bd 9e 87 42 3d
       -0.031339496 -0.025202844 -0.07445133 0.047492616
000230 03 17 76 3e cc 9b ea 38 71 43 11 bd 4a 7c 18 bd
       0.24032216 0.00011187009 -0.035464708 -0.037227906
000240 9c 76 82 bd a1 a5 0f be 74 bd 16 3e 1c eb dc bc
       -0.06370279 -0.14028026 0.14720708 -0.026967578
000250 4d c8 98 3d c4 ba b9 bd c3 da 1b 3d bc 0a 97 3d
       0.07460079 -0.09068826 0.038050424 0.07375094
000260 d3 5b 5d 3d 04 84 07 3d 87 33 41 bd 45 6e 82 bd
       0.05404265 0.033084884 -0.04716828 -0.063686885
000270 d9 d6 10 bd a6 ce e4 3c 78 6a 08 3e e8 05 58 3d
       -0.035361145 0.027930569 0.13321865 0.052740008
000280 f4 bf db bc 5a 83 1e 3d 19 c7 f5 ba fe 38 89 3d
       -0.026824929 0.038699485 -0.0018751352 0.067003235
000290 40 77 46 3d 92 18 52 bd ce 96 fa 3d 7a b7 32 bb
       0.04845357 -0.051292963 0.12235795 -0.0027270005
0002a0 03 bb 28 bd dc c5 6d bd ff 1c 93 bd 9c 07 ae 3d
       -0.041193973 -0.05805002 -0.07183265 0.08497545
0002b0 be 42 da 3d 80 d2 1e be 90 40 f6 3d ef 6e 65 3c
       0.10657261 -0.15509987 0.12024033 0.014003499
0002c0 c2 42 30 bd 93 21 cb bd d9 a9 84 3c 1a 42 dd bd
       -0.043032415 -0.09918513 0.01619427 -0.108036235
0002d0 b3 d9 ed bd 7a 15 fa 3c 83 97 7d 3d 85 4d 8e 3d
       -0.116137885 0.030527819 0.06191207 0.069483794
0002e0 fd 3b c7 3c f2 e6 2b 3d e5 63 7b 3c 5f 58 1c bd
       0.024320597 0.041968293 0.015343641 -0.038170215
0002f0 5f d4 38 3d c3 da 5a b9 68 f3 de bd 81 20 97 3c
       0.045124408 -0.00020871595 -0.1088627 0.018448116
000300 95 35 86 3d f7 cb 29 be f2 ef 58 3d 0d 7a ff 3d
       0.06553189 -0.16581713 0.052963205 0.12474451
000310 02 b9 3e bc 91 25 8e 3a ab a1 9f 3d 40 86 8b 3d
       -0.011640789 0.0010844936 0.077945076 0.068127155
000320 be fe 78 3d cd f9 67 3d 4f 5e ea ba 85 88 1e bd
       0.060789816 0.056634713 -0.0017880889 -0.038704414
000330 c6 26 a5 bc 14 22 74 3d 45 7a 29 3d 59 46 86 bd
       -0.02016009 0.059602812 0.04137637 -0.065563865
000340 77 49 0e be a7 4a c3 3d 58 44 1c be e9 d3 f8 bd
       -0.13895212 0.09535723 -0.15260446 -0.12149794
000350 10 af 13 3e d8 80 02 bd da 68 a6 bd 24 b1 1c bd
       0.1442225 -0.031861156 -0.081254676 -0.038254872
000360 cb 44 e4 3d 09 9d 02 3d 8b cb 7b bc 16 93 9a 3d
       0.11145934 0.03188804 -0.015368353 0.07547586
000370 72 19 9b bd 66 ca 0c 3e 2b 0f 2e be be ea 8e 3d
       -0.07573213 0.13749084 -0.16997974 0.06978367
000380 58 5c e5 3c f3 66 be bd 1c 6c 16 be 3d 7c be bc
       0.027998134 -0.0929698 -0.14689678 -0.0232526
000390 3e e4 b9 3d 12 10 97 3c d5 74 de 3c ea 45 10 bc
       0.09076737 0.01844028 0.02715532 -0.008805731
0003a0 9b 28 c3 3d 4e 54 07 3d fa 9f 61 3c b5 e9 71 3d
       0.09529229 0.033039384 0.013771052 0.05906077
0003b0 eb f1 ff bb 04 62 0c 3e 5d 5d 16 3d c9 29 3b bb
       -0.0078108213 0.13709265 0.036710132 -0.0028558841
0003c0 d5 17 35 bb 1f f1 2a bd 7c 8e f1 3d 07 be b6 bd
       -0.0027632613 -0.041733857 0.11794755 -0.089229636
0003d0 62 53 5d be 9f 6b a1 3d 79 20 2c 3d 91 dd 2c 3e
       -0.2161384 0.07881855 0.042023156 0.16881396
0003e0 1a 7a b5 bd 85 45 12 3e ed 22 91 3d e4 75 d9 bb
       -0.0886118 0.14284332 0.0708674 -0.006636368
0003f0 49 9f ce bc 28 72 17 3d e2 29 42 3e 5f 36 fb bd
       -0.025222437 0.036974102 0.1896129 -0.1226623

network_body._body_endoder.seq_layers.0.bias f4 [128]
000000 d3 ae 09 3d 3a 4b 96 3d 89 00 c8 3c d2 f1 94 3d
       0.03361399 0.07338567 0.024414318 0.07272686
000010 73 10 b4 3d bc 3f 4a bc 3e 06 4a 3d 13 b1 93 3c
       0.087922 -0.012344297 0.04932236 0.018028772
000020 40 b3 85 3d 5f 64 28 3d 2d 90 74 3d e0 c0 53 3d
       0.0652833 0.041111346 0.05970781 0.05169761
000030 a4 32 96 3d dd 2e 22 bd ec eb ea 3b 05 c1 1e 3d
       0.07333878 -0.039595474 0.0071692374 0.038758297
000040 22 40 a7 3d 93 1e ae 3c e4 5e be 3d 40 9c b4 3d
       0.08166529 0.021254813 0.09295443 0.08818865
000050 37 0c 7a 3b c1 48 99 3d e8 55 3c 3d 55 df 6c 3d
       0.0038154253 0.0748458 0.045980364 0.057830174
000060 95 57 a8 3d c9 95 3f 3d 1a 8f f5 bc df d5 d9 3c
       0.0821983 0.046773706 -0.029975463 0.02659124
000070 e5 90 81 bc c9 48 8e 3c 1c 72 89 3d d4 0c df 3c
       -0.015816161 0.017368691 0.06711218 0.027227797
000080 12 88 0d 3d 3e ac 88 bc fd d0 f4 3d 0e 92 1a 3d
       0.034553595 -0.016683694 0.11953924 0.037736945
000090 fb 5a 25 3d 91 ac a7 3d 44 12 40 3e 6f 3c bb bd
       0.04036997 0.08187211 0.18756968 -0.09142386
0000a0 59 ea fe 3c 46 c2 38 3c 5f f1 4b 3d 0a 2f 82 3d
       0.031117605 0.011276787 0.049790736 0.06356628
0000b0 02 3c 32 3d 13 32 7f 3d 4c 10 93 3d 69 3d 2b 3c
       0.04351426 0.062303614 0.07180843 0.010451653
0000c0 67 b8 5e 3c d6 fb d6 bc d5 13 bc 3d 6d dd c8 3c
       0.01359377 -0.026243132 0.0918347 0.024519647
0000d0 04 4f 0f 3c 7a b0 86 3d c3 cf 3c 3d 49 83 ba 3d
       0.008746866 0.06576629 0.046096575 0.09107072
0000e0 30 d2 27 3d fa a3 c7 3c 7d 08 1e 3d 34 dd c4 3c
       0.040971935 0.024370182 0.038582314 0.02403126
0000f0 26 8f 4d 3d d7 54 99 3d 2b 02 4c 3d d3 6d 58 3c
       0.050185345 0.07486885 0.049806755 0.013209778
000100 5b 5c 72 3d 96 d9 81 3d 19 cb cb 3c 5d c0 30 bc
       0.05917011 0.06340329 0.024877118 -0.0107880505
000110 3d a1 58 3d 1a 0d ae 3d 6d 14 cc 3c 6b ed d1 3d
       0.052888144 0.08498593 0.024912084 0.10250362
000120 16 72 16 3d e3 6e cc 3b 81 ad 48 3d e8 f9 19 bb
       0.036729895 0.0062388047 0.04899359 -0.0023494903
000130 8d cc 00 3d cb f9 17 3d 42 64 a1 bb d7 1e 5f 3d
       0.031445075 0.037103456 -0.0049252817 0.05447277
000140 78 5b 82 3d 84 25 7a 3d 38 2c be 3d 59 04 76 3d
       0.063651025 0.061070934 0.09285778 0.06006274
000150 43 74 9b 3b ec fd bc 3c fa dc b1 3d e4 e4 21 bb
       0.004744084 0.023070298 0.08684726 -0.002470308
000160 c3 19 89 3c e2 c6 84 3d 01 da d9 3d 13 76 b6 bc
       0.016735917 0.064832464 0.10637284 -0.022273099
000170 56 17 72 3d e2 c5 00 bc c3 3c 3e 3d 41 36 b8 3d
       0.059104286 -0.007859679 0.046444666 0.08994723
000180 8e 70 de 3d 15 84 3c 3d 6b 0e 74 3d a2 79 38 3d
       0.10861312 0.0460244 0.059584063 0.045037873
000190 3d 68 08 3e 99 c0 69 3d 43 77 4f 3c 39 a5 c8 3d
       0.13321014 0.05706844 0.012662712 0.09797139
0001a0 f4 d3 75 3d 24 85 87 3d 0e cc 18 3d 89 fd e5 3d
       0.060016587 0.066171914 0.037303977 0.112299986
0001b0 a3 62 6c 3d d5 ad b6 3d 5b 55 78 3d 98 cb a0 3c
       0.057711255 0.089198746 0.060628276 0.019628331
0001c0 13 d8 84 3d 00 21 03 3d 84 97 42 3d 31 c9 1e 3d
       0.064865254 0.032013893 0.047507778 0.03876609
0001d0 57 35 79 3d 93 2a 23 3d ee 27 9f 3d b4 5c 70 3c
       0.060841884 0.039835524 0.07771288 0.01467054
0001e0 d2 f8 c2 3b 10 d7 93 3b 11 0e d1 3b 61 7c c3 3d
       0.005950072 0.0045117214 0.0063798507 0.09545208
0001f0 41 56 39 3c 19 e2 6c 3d 5f 38 3a bd 67 5b 15 3d
       0.011312068 0.05783281 -0.045463916 0.03646412

network_body._body_endoder.seq_layers.2.weight f4 [128, 128]
000000 a8 bf 9a 3d 6b 19 cc bc 6e 38 cc bd 82 e5 b9 bb
       0.07556087 -0.024914464 -0.099717006 -0.0056731114
000010 0f 1c 3c 3e 57 0b 08 3e 06 68 f4 bd b6 47 20 3b
       0.18370079 0.13285576 -0.119339034 0.0024456806
000020 5f 86 0f 3e 10 fe 5c 39 7d ab 4e 3e 46 62 eb bd
       0.14016102 0.0002107548 0.20182605 -0.114933535
000030 d7 21 99 3c 7e af c1 3c 96 67 2b bd 0d 77 e8 3c
       0.018692894 0.023643252 -0.041846834 0.02837708
000040 05 28 df bc 0e 0e e4 bd 19 eb 64 be 96 3d 53 3d
       -0.027240762 -0.11135493 -0.22355308 0.051572405
000050 f8 52 2e bc e0 8d 8a 3d 79 4e 4a 3e b3 9e c6 3c
       -0.0106398985 0.06765342 0.19756497 0.024245596
000060 e1 15 9b 3d 56 0c 7a 3d 1b bd b0 3c 24 68 06 3d
       0.075725324 0.06104692 0.021574548 0.03281416
000070 7e 12 4f be 1b 8e 70 be c6 82 0d 3d 94 2a c0 bd
       -0.20221898 -0.23491709 0.034548543 -0.09383121
000080 d9 89 0d 3d 3e a7 2a 3c c1 0e 85 3c 48 c5 af bc
       0.03455529 0.01041585 0.016242387 -0.021456376
000090 e3 84 db 3d 01 b6 58 3d 23 36 99 bd 21 19 9e 3c
       0.107187055 0.052907947 -0.07481029 0.019299092
0000a0 a3 00 a5 3d c3 77 9c bd ab bd 5e 3c b6 5d 5c 3e
       0.08056762 -0.0764003 0.013595025 0.21520123
0000b0 e6 69 08 3d 47 b2 f0 3c 06 fc df 3c fa 7e 94 3c
       0.033304118 0.029381884 0.027341854 0.018126953
0000c0 ef 5f c1 bc 81 9f 19 3d 66 7f 11 be a6 f3 af bb
       -0.023605315 0.03750563 -0.14208755 -0.0053696213
0000d0 16 5d 80 bd 57 97 3d 3c f2 da 3c 3e 5d 3d 06 be
       -0.06267755 0.011571727 0.18442896 -0.13109346
0000e0 a0 48 cf bb 72 27 58 bd 2f 70 7e 3d db 8a 46 be
       -0.0063257962 -0.052771993 0.062118705 -0.19388907
0000f0 7f 50 8b 3d 0b 1e ea 3c 4f 25 f6 bc 12 c7 9c bd
       0.06802463 0.028578779 -0.030047087 -0.07655157
000100 e5 14 d8 3d f2 4d 69 3c 39 87 74 3d 37 bd 7e 3d
       0.1055086 0.014239775 0.05969927 0.062192168
000110 22 3f ea bc f9 3e 77 bc 0a ad 8e 3d fe 50 3f bd
       -0.028594557 -0.015090697 0.06966598 -0.0467081
000120 dd c8 05 be 99 46 aa bd 7b 3b 29 be a5 83 34 bd
       -0.13064905 -0.08314247 -0.16526596 -0.04407086
000130 d4 71 69 bd 4c cb 9a bd 33 74 71 bd 9c 50 16 be
       -0.05699332 -0.07558307 -0.058948707 -0.14679188
000140 c8 48 a5 3d e4 f9 d6 bd e0 74 63 3e 2f 6a ba 3d
       0.080705225 -0.104968816 0.22212553 0.09102284
000150 43 53 28 3d 2d cb 3d bc 0b 41 e1 bd 48 7d 7d bd
       0.04109503 -0.011584085 -0.10998734 -0.061887056
000160 6e 07 06 3e 39 7c 76 3e 04 16 45 3c 80 d3 ef bc
       0.13088772 0.24070825 0.012029175 -0.029275656
000170 f0 ed b0 bc f1 8c 3c 3e 24 11 76 3e ac af ea bd
       -0.021597832 0.1841314 0.24029976 -0.11459288
000180 c1 56 58 3e 93 63 10 bd 33 51 88 3d 83 86 a1 3d
       0.21126844 -0.03525121 0.066561125 0.07886984
000190 65 a8 9a 3c 38 57 8f 3d b7 90 88 3b 31 e4 74 3e
       0.018879125 0.069990575 0.004167642 0.23915173
0001a0 41 90 9e 3d a8 7a 4c bd 30 1d 0c 3e a6 99 b4 bd
       0.07742358 -0.04992166 0.13683009 -0.088183686
0001b0 b4 bd ce 3d ef 9a b5 bd 23 ab 18 be b6 34 8c be
       0.10094777 -0.08867442 -0.14909033 -0.27383965
0001c0 29 3e 61 3e 30 11 83 bd 31 b8 14 3d 75 ed ff 3a
       0.21996368 -0.06399763 0.03630847 0.0019525724
0001d0 16 78 da bd 87 69 a7 bd 88 56 a9 bd c9 ec 30 be
       -0.10667436 -0.081744246 -0.08268458 -0.17277826
0001e0 b0 8f 7d 3b 59 56 02 be 24 ac 7b 3d bc 2d de 3d
       0.003869038 -0.12728252 0.061443463 0.10848567
0001f0 f5 45 f3 bc 19 af 92 3d 22 76 d7 bc 3f 1e 17 3e
       -0.029696444 0.071623035 -0.026301447 0.14757632
000200 f0 8d 29 be 4a 3a 01 be d2 6e 32 3c 37 28 81 bd
       -0.16558051 -0.12619892 0.010890679 -0.063064985
000210 7b 18 22 be 79 17 e9 bd ba 01 85 3d d3 46 2a 3d
       -0.15829651 -0.1138143 0.0649447 0.04157145
000220 f6 bd 74 bd 7b 9f bd bd ab 8d b2 3d 43 d6 73 3e
       -0.059751473 -0.09258934 0.08718427 0.23812203
000230 a9 f1 eb 3d 83 89 98 3d 60 8b c8 3d 3c 07 6c 3d
       0.115207024 0.07448103 0.09792209 0.057624087
000240 44 03 22 be 58 bd 9a 3d 01 ee 9b bd bc 43 8f 3d
       -0.15821558 0.07555646 -0.07613755 0.06995341
000250 cd 60 80 bd b2 5c 5e 3d 2c 1c cd bd 5f 87 98 bd
       -0.06268463 0.05428762 -0.10015139 -0.07447695
000260 ca 9a a3 3d bd a6 d8 bd 66 af 00 bd 52 13 5c 3d
       0.07988508 -0.10578678 -0.031417273 0.053729363
000270 ee 4c 06 be 26 a0 d8 3d 76 dd 07 bd 73 42 85 3d
       -0.13115284 0.10577421 -0.033170186 0.06506815
000280 55 22 3f 3d db c7 58 3c e9 bd 36 bc 18 ab 8a bd
       0.0466636 0.013231243 -0.011153677 -0.06770915
000290 38 3a 01 3d 35 7d 46 3e 25 61 3f 3d a6 f3 f1 3c
       0.031549662 0.193837 0.046723504 0.029535126
0002a0 ac 97 2c 3d ac 02 20 bd fa e5 a8 bd 78 00 25 3d
       0.042136833 -0.039065048 -0.082469895 0.04028365
0002b0 8c 65 91 3c 03 71 9c 3d a9 41 05 3e 33 d4 26 bd
       0.017748617 0.07638743 0.13013329 -0.040729713
0002c0 c9 5d 4d 3d 58 d1 4a bc 6c 6a 20 3e e9 0e 2b be
       0.05013827 -0.012379013 0.15665597 -0.16704907
0002d0 6c cf bf 3c 84 97 33 be 44 68 cf 3c 55 7e a7 3c
       0.023414336 -0.17538267 0.025318272 0.020445982
0002e0 5c 62 9d bd 9e 7b 4d 3c 21 73 c6 bc 2b a6 f7 bc
       -0.07684776 0.01254168 -0.02422482 -0.030230602
0002f0 b2 7c 1a 3e c5 c5 9a 3d da 10 53 3c 6f 3e ab bd
       0.1508663 0.07557253 0.012882436 -0.08361518
000300 60 3b f6 bc c5 2b 9a 3d 98 df 23 3e 38 ad 32 3d
       -0.03005761 0.075278796 0.16003263 0.043622226
000310 17 6f 9b 3d 26 6a 83 be f1 f9 b0 bd e4 b5 18 3c
       0.07589548 -0.25666922 -0.086414225 0.00932071
000320 65 0e 1c be 30 41 ea bc 32 36 08 3d 3a 6f 8e 3d
       -0.15239866 -0.028595537 0.03325481 0.069548085
000330 66 37 cb 3d 85 a0 b3 bd ab 61 e4 bd f8 83 dc bb
       0.09922676 -0.08770851 -0.11151441 -0.006729599
000340 48 8b 96 bd 55 42 40 3d a7 ca 65 3d 90 32 ad 3d
       -0.073507845 0.04693826 0.056101467 0.0845691
000350 ba 7e 65 3d 45 17 d9 3b 0d b3 2d 3d cc ee d6 3d
       0.05602906 0.0066250884 0.042407084 0.10494766
000360 fd 24 7a bb 5d 87 c1 bd 3a 64 43 be fe d5 64 3d
       -0.003816902 -0.094496466 -0.19081202 0.05586814
000370 23 54 83 3e 11 9c 23 3e 65 6a 88 3d 34 d8 26 bd
       0.2565013 0.15977503 0.06660918 -0.04073353
000380 7a f4 58 bd e6 32 83 bd c0 0e 3f 3d f4 4a 96 3d
       -0.052967526 -0.064061925 0.046644926 0.07338515
000390 cc 65 d8 3a 41 6f 74 3e 3b 1f f7 3d 5f 1f 39 3e
       0.001650983 0.23870565 0.120665036 0.18078373
0003a0 6b 4e 84 3c 81 07 e3 bd 43 2f 16 bd 62 da 0a bb
       0.016150674 -0.11085416 -0.036666166 -0.0021187295
0003b0 31 9c ff bc 73 b9 af bd 6e 1f 65 3e b9 0e ea 3d
       -0.031202408 -0.085802935 0.2237527 0.114285894
0003c0 7b 33 6c be 9e 51 f4 bd f6 c9 a2 3b 03 0d 4e bd
       -0.23066513 -0.1192963 0.0049679233 -0.050305378
0003d0 9b 56 08 3e ad 4a fe 3c 4c b3 7b 3b 89 ff b7 3d
       0.13314287 0.031041468 0.003840643 0.08984286
0003e0 eb 5d cf 3c ae 8d c5 bc 2f 90 6e 3d 25 71 6a bd
       0.025313338 -0.02411541 0.058242973 -0.05723681
0003f0 3d 39 37 3e dd 74 41 3e aa 56 0b bd 6c b9 2a 3d
       0.17892928 0.18892236 -0.034018196 0.04168074

network_body._body_endoder.seq_layers.2.bias f4 [128]
000000 66 c9 12 3d 85 e9 2b bc 6f 33 44 3d 55 ba e6 3c
       0.0358366 -0.010492687 0.047900613 0.028165022
000010 5c 5a b3 3d d4 2b 35 3d 7c 21 7c 3d a1 22 ad 3d
       0.08757469 0.04423125 0.06155537 0.084538706
000020 84 96 26 3d be 28 a2 3d 55 a8 12 3d 0a 81 2a bc
       0.040670887 0.07917927 0.035805065 -0.010406742
000030 d0 ee dd 3d 05 7c 66 3d 8b 56 71 3d a2 a3 8c ba
       0.108365655 0.056270618 0.058920424 -0.0010729919
000040 b8 25 a3 3d 2f d3 92 3d 75 d7 c3 3c 82 2c 23 3d
       0.07966179 0.07169186 0.023906449 0.039837368
000050 78 ec 4b 3d d8 90 49 3d 96 c4 04 3d 2b 91 7d 3d
       0.04978606 0.0492104 0.03241404 0.06190602
000060 a3 49 60 3d 14 12 c4 3c 18 ed 19 3d ad d9 9c bc
       0.054757725 0.023934402 0.037579626 -0.019146765
000070 65 cb a9 3d 45 ff 21 bb 38 e9 10 3d 37 81 3b 3d
       0.082907476 -0.0024718803 0.035378665 0.045777526
000080 9c 68 4c 3d 26 b5 07 3d 4d fa 76 3d 99 06 2b 3c
       0.04990445 0.03313174 0.0602973 0.010438585
000090 70 4e c0 3d bc 22 26 3d 55 15 8e 3d 93 98 f7 3c
       0.09389961 0.04056047 0.069376625 0.03022412
0000a0 9a 51 8e 3c 57 75 c0 3b 61 07 66 3d 52 21 91 3d
       0.017372895 0.005873363 0.05615938 0.070864335
0000b0 f3 2f 0e 3d 96 89 20 3d fe cc 10 3c 9f 8c b8 3a
       0.034713697 0.039193712 0.008837936 0.0014079994
0000c0 43 10 16 3b 1b 63 c5 3d 3b ae 1f 3d 51 5a f2 3c
       0.0022897876 0.096380435 0.03898452 0.029584082
0000d0 c8 e5 85 3c f7 43 e5 3c 7f 79 81 3d 41 90 c1 3c
       0.01634492 0.02798651 0.06322002 0.023628356
0000e0 c7 7e 47 3d 10 05 4e 3c 69 bc ac bb 18 ec 87 3d
       0.04870489 0.012574449 -0.0052714837 0.06636828
0000f0 b8 72 77 3b 21 85 1a bb b4 41 39 3c 41 29 8b bc
       0.0037757587 -0.0023577886 0.011307169 -0.016987445
000100 67 9a d8 3c a8 31 e2 3b a0 b0 89 3d 4c 57 8a bc
       0.026440812 0.006902892 0.06723142 -0.01688733
000110 63 f0 d7 3c af 16 2a 3c a4 71 21 3d 82 90 ce 3d
       0.026359743 0.010381385 0.039415017 0.100861564
000120 43 44 d3 3d b7 f1 81 3d c8 0d a8 bc f7 63 c9 3c
       0.10315754 0.063449316 -0.020514384 0.0245838
000130 f3 7e d4 3c 7b f8 2e 3c 64 40 0d 3c d2 77 f3 bc
       0.02593944 0.01067936 0.008621309 -0.02972022
000140 c0 56 12 3c 93 c4 24 3d e6 a1 8e 3c 59 f5 db 3c
       0.008931816 0.04022653 0.017411184 0.02685039
000150 df aa a3 3d 3d 62 67 3d e3 0c fe 3c 42 c8 0b 3d
       0.079915754 0.05649017 0.031012004 0.034126528
000160 3e cf fe 3c ff 59 3a 3d 42 36 73 3d bf e1 7d 3c
       0.03110468 0.045495983 0.059377916 0.015495717
000170 69 02 b6 3c 4a 78 4a 3d d4 30 07 3d f7 f6 04 3d
       0.022217946 0.049431123 0.03300555 0.032462087
000180 fe 07 1e 3d 58 ea 87 3d 5e f5 56 3c ee b4 a1 3d
       0.03858184 0.066364944 0.0131200235 0.07895838
000190 75 b6 56 3c 63 83 f6 3c 10 02 2c 3c f2 fd 88 3c
       0.013105025 0.030091947 0.010498539 0.016722653
0001a0 a7 1e 27 3c 78 2e 9f bc 10 48 13 bc fa 4e 02 3d
       0.010200179 -0.019431338 -0.008989349 0.0318136
0001b0 e2 be 81 3d 8e a0 15 3d 9f 24 32 3d 64 ac 30 3c
       0.06335236 0.03653007 0.043491956 0.010783289
0001c0 d4 69 2a 3d b7 a8 32 3d 85 48 81 3c 09 52 a9 bb
       0.04160483 0.04361793 0.01578165 -0.00516725
0001d0 09 9a 55 3d 03 c5 ca bb 76 25 f2 bc 8c 80 db 3c
       0.052148852 -0.0061880364 -0.029558878 0.026794694
0001e0 f5 88 b9 3c db b3 94 3d f1 60 d2 3c 0f f6 6a 3d
       0.022648314 0.07260867 0.02568099 0.057363566
0001f0 4d ed d3 3c 26 15 6c 3d f4 58 02 3c 75 18 1f bd
       0.02586999 0.057637356 0.007955778 -0.038841683

network_body._body_endoder.seq_layers.4.weight f4 [128, 128]
000000 8f 34 82 3d 17 43 8f 38 e7 e2 a3 bd 98 7a 49 be
       0.06357681 6.831268e-05 -0.080022626 -0.19675672
000010 99 76 78 3d 14 ad b9 b9 b2 2b 6d bb 91 91 e8 3d
       0.06065998 -0.00035414903 -0.0036189375 0.113558896
000020 64 4a 8d bd a5 c3 c7 3d cb 16 a5 3d e7 74 02 bd
       -0.068989545 0.09754113 0.08060988 -0.031849768
000030 03 76 e8 bd 54 fa 66 bd b2 d6 8a bc b0 ff 0f 3e
       -0.11350634 -0.056391075 -0.016948078 0.14062381
000040 b6 11 b0 3c 82 b1 55 bd 62 9b 2d bc d1 e8 94 bc
       0.02149282 -0.052171238 -0.010596128 -0.018177422
000050 92 52 93 3d db 1d ec 3d dd 18 20 3e a8 c7 ae 3d
       0.071934834 0.11529132 0.15634485 0.08534175
000060 46 87 79 3d 69 ba 00 bd 9f 6e 46 3b f4 d3 02 be
       0.060920022 -0.031427775 0.0030278338 -0.12776166
000070 cc 5a 11 be 4d 98 54 3d 60 ae 81 3e 71 e8 1d 3e
       -0.14194793 0.051903058 0.2532835 0.154207
000080 8e 15 8e bd 24 8c d1 3b 60 d0 38 3d d8 dc 70 be
       -0.06937705 0.00639488 0.045120597 -0.23521745
000090 a5 b5 ce 3d 39 7b 69 bc d2 6d a5 3d 1b 28 96 bd
       0.1009324 -0.01425057 0.08077587 -0.07331868
0000a0 c6 ab 5d bd d5 ef 0c be bd 54 22 be e6 7b e5 3d
       -0.054118894 -0.13763364 -0.15852638 0.112052724
0000b0 2c 21 f1 bd 7c 90 a2 3c 2c 43 d3 3d 61 bc fd bd
       -0.11773905 0.019844286 0.103155464 -0.12389446
0000c0 c7 b5 53 3c 3d 26 d8 3d b0 20 5f 3b 84 d1 8f 3c
       0.012921757 0.105541684 0.0034046583 0.01755596
0000d0 0b 6d 96 3b 74 b8 d2 bd 6b 36 57 bb e2 ec de bc
       0.0045906357 -0.10289088 -0.0032838832 -0.027212564
0000e0 15 ef 6d 3d d6 a0 1c 3e 65 9e 6e bd 6f 6f c5 bd
       0.058089335 0.15295729 -0.058256526 -0.09640395
0000f0 22 20 78 bc 85 1c 6a 3b a6 60 4b bd 30 50 47 bd
       -0.01514438 0.0035722565 -0.049652718 -0.048660457
000100 e6 ff 94 3d 9c fe d3 3c d2 01 de bd aa dc f6 bc
       0.07275371 0.025878243 -0.10840191 -0.030134518
000110 0c a0 74 bc 4a a2 25 3c 89 7c 2a be b1 a4 8f bd
       -0.014930736 0.0101094935 -0.16649069 -0.07013834
000120 48 01 b3 bd 6c 21 62 3c c4 5f a8 ba 32 a0 bf bd
       -0.08740479 0.013801914 -0.0012845923 -0.09356727
000130 d1 7f 6b bd c4 1c d1 be 7b d1 81 be d9 8d 2c 3e
       -0.057494942 -0.4084226 -0.25355133 0.16850986
000140 11 95 68 3d 8c 63 b8 3c f7 e9 8b bb e2 e9 96 bd
       0.056782786 0.022508405 -0.004269834 -0.07368828
000150 c4 37 22 3e 4d 1b d1 3d f6 57 89 bb 3e fb cf bd
       0.15841585 0.10210285 -0.004191394 -0.101553425
000160 d2 17 fc bc 8e 71 76 ba 06 71 c8 bd a9 2a 14 be
       -0.030773077 -0.0009401076 -0.097871825 -0.14469399
000170 6f 76 08 bd 54 76 1d be e9 e9 f9 bd db a6 9a 3e
       -0.033316072 -0.1537717 -0.12202818 0.30205426
000180 17 f3 47 bc ae 91 c0 bd 77 4e 06 3e 77 71 db bc
       -0.012203953 -0.09402786 0.1311587 -0.026787503
000190 8a cf 28 3e 26 38 a2 3c ac 67 1a bc 4e 4b 55 3e
       0.1648542 0.019802164 -0.009424131 0.20829508
0001a0 de a2 37 3d 96 6d 6a be 1c f2 c2 bd a3 1b c4 bd
       0.044833057 -0.22893366 -0.09518835 -0.09575584
0001b0 8c 5c 4b bd e5 2e 20 3d 6d 5c 3a 3c 32 df 3e 3e
       -0.049648806 0.039107222 0.011374575 0.1863983
0001c0 2c b5 c2 ba 08 a9 80 bd 22 c1 5b bc cd ba 65 bd
       -0.0014855019 -0.0628224 -0.013412746 -0.05608635
0001d0 dc 4f b0 3d ea bb bb bc 06 ca 05 bd 04 01 72 bd
       0.08608982 -0.022916753 -0.032663368 -0.059083
0001e0 f4 b8 96 bd 8f ba 4a bc a6 d6 a6 3d 17 50 d1 3d
       -0.07359496 -0.012373581 0.0814641 0.10220354
0001f0 4c f1 81 bd cd 79 99 be ea 1f c6 bd 9a 12 8b bc
       -0.06344852 -0.2997574 -0.09674056 -0.016976643
000200 16 d7 17 3e 63 9f 7e bd e5 ef 0a 3c 44 95 e0 bc
       0.14828143 -0.06216372 0.008480047 -0.027414925
000210 22 03 7b bc 87 91 90 3d 6b fa 51 bd b8 15 ef 3d
       -0.015320571 0.07059007 -0.051264208 0.116740644
000220 b8 7d 4a be ef 2c 07 be ef 4f 3f be 9b 01 92 3d
       -0.1977452 -0.13200735 -0.18682836 0.071292125
000230 b5 a1 95 bc a5 48 9a 3c f2 12 10 be a7 76 d4 3d
       -0.018265584 0.018833468 -0.14069727 0.10374194
000240 93 10 14 bd 9d 92 1d bd f4 0f d4 3d cf a9 5e bd
       -0.03614862 -0.0384699 0.10354605 -0.05436116
000250 49 c9 2a 3d e3 22 bb bc 16 ea 7c 3e 95 8a c2 bc
       0.041695867 -0.022843784 0.24698672 -0.023747722
000260 73 e1 74 3d 94 75 40 3d 7b c6 5a 3b 64 45 75 bd
       0.059785318 0.04698713 0.0033382464 -0.05988063
000270 e1 41 4a bd 2f f2 76 bd 06 fe e2 bd d9 2c 55 be
       -0.049379233 -0.060289558 -0.110836074 -0.2081789
000280 55 34 d1 bd 26 b3 72 3e d1 a0 04 bc 0f c8 49 bd
       -0.1021506 0.23701152 -0.008094982 -0.049263056
000290 65 59 21 3d 32 ee c9 3c 96 06 0d 3e c5 11 76 bc
       0.039391894 0.024649713 0.13772044 -0.015018885
0002a0 3b 19 2d 3e 0f 94 fe bd eb d8 92 3d 9b 8b 80 3d
       0.16904156 -0.12430584 0.0717028 0.06276628
0002b0 3c 34 b8 3d e6 37 04 3d 22 af 54 3d f5 bd cd 3d
       0.08994338 0.03227987 0.051924832 0.10045997
0002c0 70 0d 35 be 8f d1 a7 bd 61 ac be bd a0 26 32 3e
       -0.17680907 -0.08194267 -0.093102224 0.17397547
0002d0 2f 7b 4b bc 26 3a 88 be 6a ff 80 3d 2b 41 17 3d
       -0.012419506 -0.26606864 0.06298716 0.036927383
0002e0 f1 67 9f 3d 27 2e 06 3d 5c 18 67 be 69 53 61 3d
       0.07783497 0.032758858 -0.22567886 0.055011187
0002f0 f6 60 cc bc f7 b3 cb bc 3c ae 27 be 0b be 28 bc
       -0.024948578 -0.024866087 -0.16375059 -0.010299216
000300 d5 f6 58 3d f5 df ed bd b0 4c b0 3d b1 99 77 3d
       0.052969772 -0.11614982 0.08608377 0.060449306
000310 2e 60 b0 3d 33 64 83 3d 50 4f b5 3d 6e 4b 1b be
       0.08612095 0.06415596 0.08853018 -0.15165493
000320 22 12 df 3c e7 7c 8e 3d bb da 24 bd 58 03 7c 3b
       0.027230326 0.06957417 -0.04024766 0.0038454141
000330 c0 c6 38 3d 5b 47 a9 bd 77 44 7b 3c d0 05 d9 3d
       0.045111418 -0.08265563 0.0153361475 0.10596812
000340 09 09 ef 3d 14 4a 14 bd 02 2f 52 3c d4 ac dc 3c
       0.11671645 -0.03620346 0.01282859 0.02693788
000350 a4 bf 0a 3e 35 9d 57 be ac 9a b5 3d d1 1a 5e be
       0.13549668 -0.21056063 0.08867392 -0.21689917
000360 8a 31 1a bd ec 72 40 3c fc 2f e3 bd 83 93 1b 3e
       -0.0376449 0.0117461495 -0.11093137 0.1519299
000370 b0 13 f4 bc 6d 49 02 3e 5a af 20 bd e5 f0 dd 3d
       -0.029794544 0.12723322 -0.03922973 0.108369626
000380 03 68 65 be 9b 1e 11 be 70 89 51 bd fa db 03 bd
       -0.22402959 -0.14171831 -0.05115646 -0.032192208
000390 e4 31 5f 3d ed 4f 76 be 66 e4 81 3c 0a e7 bd 3c
       0.05449094 -0.24053927 0.01585598 0.023181457
0003a0 3a 64 bd 3c 42 8d 12 3c 9b 04 c6 bd d7 46 8b bd
       0.02311908 0.008944811 -0.09668847 -0.06800621
0003b0 b6 f5 b1 3c 9f e5 b7 bc 14 ab cf 3d 21 9d 15 be
       0.02172361 -0.022448359 0.101400524 -0.14610721
0003c0 99 c0 d9 3c 75 98 fe 3c 19 c0 96 3d b2 db 3d bd
       0.026581096 0.031078557 0.073608585 -0.046352096
0003d0 e0 7a 85 3d 6a aa e4 3d cb ab 33 3e e6 a4 2b be
       0.06517577 0.111653164 0.17546003 -0.16762123
0003e0 88 aa df bd 71 f1 b4 bd 96 9f ee 3c cb 0a cb 3b
       -0.10921198 -0.08835114 0.02912883 0.006196355
0003f0 8a 69 22 3e 4f ae 67 bd 8b f8 24 bd ae 5f 4f be
       0.15860572 -0.056562718 -0.04027609 -0.20251343

network_body._body_endoder.seq_layers.4.bias f4 [128]
000000 a3 09 e0 3b 82 eb bd 3c 48 da 04 3d 6a 1f 60 3d
       0.0068370863 0.023183588 0.03243473 0.05471746
000010 74 dc ea 3c 7e 7e 6c 3d 46 1c 1f 3d f3 20 48 3d
       0.028669573 0.05773782 0.038845323 0.048859548
000020 43 f7 12 3b 11 9c a1 3c a3 78 10 3d cb e3 a2 3c
       0.0022425212 0.019727739 0.0352713 0.01988401
000030 3f ac 5b 3c 20 7c 20 3c 94 16 06 bd fe 8a 55 3d
       0.013407766 0.009795219 -0.032736376 0.052134506
000040 d5 99 63 3d 40 25 8f 3d 1d 6d 74 3d 0b 1a 15 3d
       0.055566628 0.06989527 0.05967437 0.03640179
000050 d6 0e 0d 3d b6 97 cd 3c 15 5d 87 3c 87 01 ae 3d
       0.034437977 0.025096755 0.016523877 0.08496385
000060 84 49 6c 3c 0a 8a 02 3d 5a 97 06 3d cf ea b5 3c
       0.014421824 0.031869926 0.032859184 0.022206692
000070 c8 07 7c 3c f4 08 80 3c f3 31 51 3c bb 86 e4 3c
       0.015382715 0.01562927 0.0127682565 0.027896276
000080 25 8d 1d 3d ce ee 83 3d ba e3 20 3d 50 cc a2 3c
       0.038464684 0.06442033 0.039279677 0.019872814
000090 92 60 8d 3d 92 f6 94 3c 0e 96 be 3c 53 c0 67 3d
       0.06903185 0.01818398 0.023264911 0.0565799
0000a0 f5 ad 9a 3d a0 6c e2 3c fb 85 02 3d 55 33 98 3c
       0.07552711 0.027639687 0.031866055 0.018579165
0000b0 9c 0c 02 3d 90 a1 4d 3d bf 68 d5 3c 7d 88 88 3d
       0.031750306 0.050202906 0.026050923 0.06666658
0000c0 d3 f2 1b 3d 7b f1 ce 3b ce 7c e8 3c 92 91 11 3d
       0.038073372 0.006315408 0.028379824 0.035539217
0000d0 7c 12 0d 3d ee 43 36 bb 8c 39 ca ba 0e 8d a3 3b
       0.034441456 -0.0027811485 -0.0015428527 0.0049911803
0000e0 40 36 38 3d 8d 07 cf bc 78 dd 34 bd 99 50 bd 3d
       0.04497361 -0.025272155 -0.04415652 0.092438884
0000f0 44 0f 2d bc 93 3e 34 3d 8d ba 8e 3c 1a 75 32 3d
       -0.010562722 0.044004988 0.017422939 0.043568708
000100 fd 45 4f 3d 4a f3 77 3c b3 d7 9c 3c 87 b8 63 3d
       0.050603855 0.015133688 0.019145822 0.0555959
000110 2e 03 8a ba fa 32 4c 3d 70 e2 2b 3d 80 c1 80 3d
       -0.0010529512 0.049853303 0.041963995 0.06286907
000120 6e a7 45 bc d1 51 88 3b fd d0 73 3d 51 a8 1a 3d
       -0.012063844 0.004160144 0.05952548 0.037758175
000130 f8 40 7b 3d 12 82 bb bc 2c 21 b5 3c 35 bb c3 3c
       0.061341256 -0.02288917 0.022110544 0.023892978
000140 0b 8e ea 3c f6 b5 9d 3b b9 db 86 3d 6c b9 0e 3d
       0.028632184 0.004812951 0.065848775 0.0348448
000150 87 2b b8 3c 2b c5 d2 3c ea f8 10 3c 3c 4d 16 3c
       0.022481693 0.025728783 0.008848408 0.009173688
000160 6e 08 37 3d e1 d7 39 3c 06 1d a8 ba 59 76 3a 3c
       0.044685774 0.011342973 -0.0012826032 0.011380755
000170 65 60 ec bc 91 82 05 3d 67 59 eb 3c d3 f9 c8 3c
       -0.028854558 0.03259522 0.028729154 0.024533188
000180 0c 2d 11 3d 2d 35 a0 bb 42 5c bf 3c f3 99 9f 3c
       0.03544335 -0.0048891515 0.023359422 0.019482588
000190 c2 64 31 3d 74 4b 9c 3d 67 33 fe ba 78 c3 8d 3d
       0.04330898 0.07631579 -0.0019393981 0.06922048
0001a0 fa e3 08 3d c6 ed c1 bb 9b cc 55 3c 7c 22 b0 3c
       0.03342054 -0.0059182374 0.01304927 0.021500818
0001b0 92 91 42 3d 70 d2 7c 3d 1b 36 45 3d 47 32 6e 3b
       0.047502108 0.061724126 0.048147302 0.0036345886
0001c0 52 42 dd 3c 00 0d 4d 3c 2d 05 ac 3c 91 d6 b5 3c
       0.027009163 0.0125153065 0.020998562 0.02219704
0001d0 18 2f 80 bc 76 ce 32 3c 37 2b 17 3d 42 ee 89 bc
       -0.015647456 0.010913482 0.036906447 -0.016837243
0001e0 75 94 9c bb 3e bc ab 3b fa 70 92 3d a9 cf 78 3d
       -0.0047784396 0.005240946 0.07150455 0.060744915
0001f0 ed a5 5f 3b b0 26 65 3d 72 16 3d 3c 06 ee cf bb
       0.0034126 0.0559451 0.011540996 -0.0063455133

action_model._continuous_distribution.log_sigma f4 [1, 35]
000000 cc de f4 be 56 39 00 bf 80 7e 25 bf aa 3f 89 bf
       -0.4782623 -0.5008749 -0.6464615 -1.0722554
000010 60 c7 a1 be fd 5f 8d bf a7 ff b0 be 41 6a 5a bf
       -0.31597424 -1.1044918 -0.34570047 -0.8531838
000020 03 1e 60 bf e0 0d 7c ba 90 f3 6a 3e c1 b6 61 3e
       -0.87545794 -0.00096151046 0.22944474 0.22042371
000030 ea 85 53 3d 41 4b f7 3d a5 46 6d 3e 31 bd 26 bf
       0.051641382 0.120749004 0.2317148 -0.65132433
000040 63 87 52 be 7e b8 30 bf 9e b2 69 be 82 8d 33 be
       -0.20559458 -0.6903151 -0.22822043 -0.1753445
000050 71 77 e6 bd 08 2f 33 bc 51 85 e5 bd 56 a8 15 bd
       -0.112532504 -0.010936506 -0.11207069 -0.03653749
000060 74 bf 2f 3e b5 2d 38 3d 3c 4c 08 3e 24 57 d3 3d
       0.17162877 0.044965465 0.13310331 0.10319355
000070 5c 46 1b 3d 0d df 1b 3d ca a5 08 3e 77 d3 1a 3e
       0.037908897 0.038054515 0.13344494 0.1511973
000080 84 80 ab b8 20 c4 c3 3d 7d fc 1e 3e
       -8.177853e-05 0.09558892 0.15526004

action_model._continuous_distribution.mu.weight f4 [35, 128]
000000 77 9c 95 bc e3 06 24 3c 8c d1 1f 3b 80 fb c4 3c
       -0.018263085 0.010011408 0.0024386374 0.024045706
000010 5d cf 75 3d 39 85 e5 bc b1 6f 33 bd 3e 0f 97 bd
       0.06001221 -0.028017627 -0.04380769 -0.07375954
000020 7d 5c 2b 3c 2f 76 6f bd 15 cf 7f 3d 51 2a a6 3d
       0.010459063 -0.058462318 0.06245335 0.0811354
000030 54 fe 1c bc 67 38 94 bc 2c 14 7f bd 1c ec e7 bd
       -0.009582121 -0.018093301 -0.062275097 -0.11324331
000040 27 ab 3e bc ed e5 6c bd c1 3c b0 bd 33 b2 94 bc
       -0.011637486 -0.05783646 -0.08605338 -0.018151378
000050 0e f0 34 3d b1 fc 4d bd b0 16 bc 3c 75 5e 1a be
       0.044174246 -0.050289813 0.022960037 -0.15075095
000060 ee 06 2a bd 7c 98 62 3c e0 da 89 3d da b5 3d 3d
       -0.041510515 0.0138303 0.067312 0.046316005
000070 52 47 44 bd fa 3b 2b bd 09 73 15 bd 08 93 a3 3c
       -0.04791958 -0.041805245 -0.03648666 0.01996757
000080 1a 57 64 bd 34 e1 3f 3c 01 f9 21 bb 11 ca 81 bc
       -0.05574713 0.011711407 -0.0024715068 -0.015843423
000090 cb 50 d5 3b a5 ca 85 3c 3e a2 29 bc bb f7 f1 bc
       0.0065098754 0.01633198 -0.010353623 -0.029537072
0000a0 9b f3 5a bd 49 c9 3e 3c f7 8a 04 bd 73 79 a6 ba
       -0.053454977 0.01164467 -0.03235909 -0.001270099
0000b0 7a 33 48 bc c2 6f e1 bd 03 e7 b5 3d a5 80 3f bd
       -0.012219304 -0.11007644 0.088819526 -0.046753544
0000c0 8c d6 1d 3d 26 83 f1 bc ac 66 70 3d 51 95 5f 3d
       0.038534686 -0.029481482 0.058691666 0.05458576
0000d0 c5 c3 70 bb 39 82 e9 3b 27 c4 49 3d 74 01 ef bc
       -0.0036737781 0.0071261195 0.04925933 -0.029175498
0000e0 12 81 3b bd 57 e9 55 3d d8 97 af 3a d4 d1 99 bd
       -0.045777388 0.052224483 0.0013396693 -0.07510725
0000f0 87 ec 0c bc f7 88 d9 bd bb e9 a8 bc d8 61 de bc
       -0.008601314 -0.10621827 -0.020619264 -0.027146265
000100 b3 c1 97 bd f0 a0 43 3d 49 17 b8 bd 24 3a 9a bb
       -0.07409992 0.047760904 -0.08988816 -0.004706638
000110 92 70 a1 3d af ac 62 bd 8f 45 43 3d ea 24 dc 3c
       0.07882799 -0.055340465 0.047673758 0.02687307
000120 e1 a9 5f 3d f0 af 7e 3c 35 a1 c2 3b 3a e0 92 3d
       0.05460537 0.015544876 0.0059396275 0.07171674
000130 1f ac 6e 3d 14 22 9a 3c 54 23 35 bb c1 b5 90 bb
       0.058269616 0.018815078 -0.0027639465 -0.004416198
000140 64 80 24 bb aa 92 46 bd 70 a4 13 3d 7b fc 21 bd
       -0.002510094 -0.048479713 0.03604549 -0.039547425
000150 fc 7c 50 3c 01 c3 18 3d c5 e1 8f 3c 4d 5a f6 bc
       0.012725111 0.037295345 0.01756371 -0.030072356
000160 ff 39 0e bd c7 73 bc bd 59 69 d8 3c 15 cf eb bc
       -0.034723278 -0.0920177 0.026417421 -0.028785268
000170 ba 95 c3 bb f3 cf 2c 3d fb 2f da bc 3d 8f 81 3c
       -0.0059687765 0.042190503 -0.026634207 0.015815372
000180 19 7a 0c 3d 82 07 94 3b f6 4e 56 bd 0e 95 84 3b
       0.03429613 0.0045174966 -0.052321397 0.004046089
000190 0a 44 e8 3d aa 13 91 bd ea e7 c3 bc 01 91 87 3d
       0.113411024 -0.07083829 -0.023914296 0.06619454
0001a0 f0 15 a4 bd 1e 26 68 bd 5e 18 f4 3c a1 e4 b5 bd
       -0.08011997 -0.056676976 0.029796775 -0.08881498
0001b0 f1 53 18 bd f2 51 38 bc 9f a6 a3 3c 18 c2 9c 3c
       -0.037189428 -0.011250006 0.019976912 0.01913552
0001c0 96 76 12 bd b4 b7 44 3d f0 c6 cd bb 56 a8 dd 3d
       -0.035757624 0.048026755 -0.0062798187 0.10823123
0001d0 77 59 75 3d bd 12 7a 3d b0 67 8b 3c e3 32 7b bd
       0.059899773 0.061053026 0.017017215 -0.061327826
0001e0 f1 99 2a 3d c8 ff 79 bd f6 e7 ad bc 4a 6c c1 bd
       0.041650716 -0.061034948 -0.021228772 -0.094444826
0001f0 ac e6 aa 3d 01 41 9e 3c ab 1c eb 3c 23 06 55 bd
       0.083447784 0.019318106 0.028700193 -0.052007806
000200 60 71 1f 3d 62 82 9c 3d 3a 7b e9 bc f7 19 2a 3b
       0.038926482 0.07642056 -0.028501142 0.0025955418
000210 6d 8e 99 bb cb 5a 28 3c ec cc 21 3d b7 d5 04 bd
       -0.004686168 0.010275553 0.03950207 -0.032430377
000220 67 c2 f9 3c 5c f8 a5 3c 59 e2 26 bc 04 f1 68 3c
       0.030488206 0.020260029 -0.010185801 0.014217619
000230 24 78 1b 3d 91 58 95 3c d9 aa 66 bd 1d 91 b8 bd
       0.037956372 0.018230708 -0.056315277 -0.09012053
000240 81 07 c6 bd c5 dd 4c 3d 49 48 92 bc 55 c8 ba bd
       -0.096694 0.050016183 -0.017856734 -0.091202416
000250 ce f5 80 3d 2c bc d5 bc f4 16 48 3d 56 de 31 3c
       0.062968835 -0.026090704 0.048850015 0.010856232
000260 6f 5f 15 bd 3a f2 2d bc 96 d5 91 bd 05 0e 4b 3c
       -0.036467966 -0.010616833 -0.071208164 0.012393479
000270 51 62 98 bc 11 f4 24 bd b6 40 f7 bc ea 6a 92 bc
       -0.018601568 -0.040271822 -0.030182224 -0.017873246
000280 ad 2a 6e 3d 4a 9c cc 3d 6c d9 c3 3d 1a 34 86 3d
       0.058146168 0.09990747 0.09562954 0.06552906
000290 f1 0b 6a 3d 0a 31 b7 bd 3e aa bc bd 6d b9 5d bc
       0.057140294 -0.089449 -0.092121586 -0.0135329785
0002a0 7d f7 3e bd dc f8 61 3c 41 3f 3a 3d c3 a1 f8 bc
       -0.046622742 0.013792243 0.04547048 -0.030350571
0002b0 16 14 4c 3d 2e 9b c4 bd aa dc 28 bd 4d f9 f3 bc
       0.049823843 -0.09599911 -0.041226067 -0.029781962
0002c0 ee 59 e2 bc dd 69 1e bd 47 d2 81 bc 05 dc d8 3c
       -0.027630772 -0.038675178 -0.015847338 0.026472101
0002d0 3c 8a a7 3b 19 6e db bd 3e 67 f0 bb 2c bf cf 3c
       0.0051129144 -0.10714359 -0.007336526 0.025359713
0002e0 db fa 79 3d b8 e3 fe 3b 78 15 29 bd d9 04 4d bd
       0.06103025 0.007778611 -0.04128024 -0.05005345
0002f0 65 76 88 bc 14 57 df 3d 28 12 06 3e 2f 9c e4 bc
       -0.016658017 0.10905281 0.13092864 -0.027906505
000300 9f ac 7b 3d 10 f7 df 3b be 3c 92 bd 89 b6 25 3c
       0.06144392 0.006834872 -0.07140492 0.010114321
000310 40 e9 54 3d 0d d4 01 bd 33 a4 9f 3c 7b 3a cc 3d
       0.051980257 -0.031696368 0.019487476 0.09972092
000320 f7 07 08 3a 67 ad 3e bb 40 be e0 3d d2 32 84 3c
       0.0005189175 -0.0029095055 0.10973787 0.016137514
000330 d1 65 b5 3c 8d f3 ea 3a f8 49 1b 3a 26 92 c1 3d
       0.022143276 0.0017925367 0.0005923803 0.09451704
000340 ff 95 5c 3d 7f 0f 21 bd c1 78 e3 3c 5b b3 d0 bd
       0.053853985 -0.03932142 0.02776754 -0.10190459
000350 90 a6 5b bc f3 b2 b6 3d fd 03 98 bc 50 a5 86 bd
       -0.013406411 0.089208506 -0.01855659 -0.065744996
000360 85 0a c4 3c 73 56 dc bd 9c 86 59 3c dc b9 0e 3b
       0.023930797 -0.107586764 0.013276722 0.0021778261
000370 e8 96 6e bc 23 34 8d 3d 63 eb c7 bc 06 cc 3e bd
       -0.014562346 0.0689471 -0.024404233 -0.04658129
000380 3d 03 6b 3c bf df 84 bc 6b 9d 81 3d 4a c7 02 bd
       0.014344034 -0.016219972 0.06328853 -0.031928338
000390 ae d4 10 bd 0c 5e 43 bd fa 78 03 bd af 2c 77 bd
       -0.035359077 -0.047697112 -0.032097794 -0.060345348
0003a0 54 11 b6 bc de 69 1f be b9 d0 cf bc 86 2a 3a bc
       -0.02222506 -0.15567729 -0.025368081 -0.011362677
0003b0 10 84 c3 ba b7 d6 7a 3d 9f 55 16 3b 0a 60 fd 3a
       -0.0014916677 0.061239924 0.0022939218 0.001933099
0003c0 34 d5 86 3a 45 52 28 3d d6 6e 8c 3c 94 34 df bb
       0.0010286928 0.041094083 0.017142694 -0.0068116877
0003d0 85 3a ef 3b 7e 30 1e bc 34 b4 d9 bc 5e 51 28 3d
       0.0073006772 -0.009655116 -0.026575185 0.041093223
0003e0 78 8f 6c bd 62 d1 d9 bc 93 cb a4 3d f8 32 74 3d
       -0.05775401 -0.0265891 0.08046641 0.05961892
0003f0 47 73 f9 3b 62 98 d8 3c 5c 00 59 3d 9d d2 dd bc
       0.007612619 0.02643985 0.05297886 -0.027077967

action_model._continuous_distribution.mu.bias f4 [35]
000000 0e 7d ac bc 2d 1a 27 3c 56 a1 ef bb 60 d3 48 3c
       -0.021055724 0.010199112 -0.007312934 0.012257427
000010 e0 03 46 bd 80 69 72 bc 24 15 0a 3d 2f 34 1f bd
       -0.04834354 -0.014795661 0.033711568 -0.038868126
000020 00 a8 8c bd e0 93 16 3c 8b 2d b2 3c 3b bd 91 3c
       -0.06867981 0.00919053 0.021750232 0.017790427
000030 07 46 63 bb 1a ee 4f bc ec 50 51 bb 51 17 f7 bc
       -0.003467919 -0.012691045 -0.0031939102 -0.030162485
000040 90 3f 3d bd db 64 47 bc c5 03 1d bc b5 ae 01 bd
       -0.046203196 -0.012170042 -0.009583418 -0.031660754
000050 64 66 06 3d a0 ef 09 3c 15 7f 5b 3b 58 de 57 3c
       0.03281249 0.008418947 0.0033492495 0.0131755695
000060 70 89 17 3d d2 36 12 3c 41 b3 36 3b 22 28 76 3c
       0.036996305 0.008924203 0.002787784 0.015024217
000070 65 34 33 bc 83 cf 42 bc ac f3 ec bc 3b 9f 7b 3c
       -0.010937785 -0.011890295 -0.028924786 0.015357788
000080 f9 fc 9e bb 05 0b 06 bd 7a 56 d7 3c
       -0.004851934 -0.032725353 0.026286352

onnx::Div_66 f4 [35]
000000 a1 a4 0d 3e 66 c2 4e 3e 34 14 9e 39 fa 1f 77 3e
       0.13832332 0.20191345 0.0003015116 0.24133292
000010 30 32 d5 3d f5 bb 5f 3e d0 12 9e 3b 34 14 9e 39
       0.10409963 0.21849044 0.00482402 0.0003015116
000020 8f c8 5f 3e c1 f1 af 3d 9b cc 59 3e c2 3c a3 3b
       0.21853851 0.08591033 0.21269457 0.004981608
000030 34 14 9e 39 7c da 59 3e 25 d5 a7 3d 02 3d 9a 3e
       0.0003015116 0.21274751 0.08194951 0.3012467
000040 73 e6 88 3a 34 14 9e 39 2e 3d 9a 3e 91 b6 08 3e
       0.0010444656 0.0003015116 0.301248 0.13350894
000050 6c e7 99 3e 73 e6 88 3a 34 14 9e 39 a0 e7 99 3e
       0.30059373 0.0010444656 0.0003015116 0.30059528
000060 a2 cb 02 3e f7 dd c5 3e ea 19 35 3b 34 14 9e 39
       0.12772992 0.38645908 0.0027633854 0.0003015116
000070 c6 de c5 3e ed 1f 3a 3e 6d fa c3 3e ad 8e df 39
       0.38646525 0.18176241 0.38276997 0.00042640176
000080 34 14 9e 39 74 fa c3 3e ea fe 34 3e
       0.0003015116 0.38277018 0.17675367
