npcmake/onnx list/Walker-94999000.onnx (onnx, 838919 bytes, 13 tensors)

network_body.observation_encoder.processors.0.normalizer.running_mean f4 [35]
00000000: acb3 023c d1d2 ee3d 0000 0000 b913 603f
00000010: 67fa 723f e3e1 2f3d 6cca 0638 0000 0000
00000020: 0502 753f 155f 7d3f 7eba 1d3d 37ff 0a38
00000030: 0000 0000 0519 763f e1b3 7d3f 02d2 ad3d
00000040: 4d10 a135 0000 0000 5744 6a3f 2412 793f
00000050: 9a0c 963d 604d a535 0000 0000 0a3d 6d3f
00000060: eec3 793f ea61 093e 8ba1 0734 0000 0000
00000070: 90a7 5d3f f249 733f 46af f23d 30a9 f833
00000080: 0000 0000 b3a9 613f 2999 743f
0.007977407 0.11661304 0.0 0.87530094 0.94913334 0.04294003 3.213661e-05 0.0
0.95706207 0.9897321 0.03850793 3.313945e-05 0.0 0.96131927 0.991026 0.084873214
1.2000179e-06 0.0 0.9151053 0.97293305 0.07326622 1.2315977e-06 0.0 0.92671263
0.9756459 0.13416258 1.2631624e-07 0.0 0.86583805 0.95034707 0.11849837 1.1579175e-07
0.0 0.88149565 0.95546204

network_body.observation_encoder.processors.1.normalizer.running_mean f4 [225]
00000000: 9eeb 0140 b5e6 d23b 3862 30bc 0e2f 6a3d
00000010: 1d62 16ae 0000 0000 05ae 0340 8ddd 053d
00000020: e0c6 e23c 1a74 6e3b 8075 753f 7d43 d5ba
00000030: c360 b43b c26e 5d3a 2058 763f 9f2c 9eba
00000040: 19d6 f83f fada 2542 ba0b 2e3b 7474 fc37
00000050: 37e3 6f3c f689 423d a693 463d b555 a23e
00000060: 3637 98bc d969 c1bd 126d 292c 9e72 4ba7
00000070: 2f34 042c 0055 3d3a c1b5 a93d 2c00 7a3b
00000080: 7cdb efbb 55ab 3735 02d0 5a39 257d 803c
00000090: 6810 0cbd 54ed 7c3d 93a3 a7be 504d d5bd
000000a0: 4eda 9dbd 8cba 52bb 5f83 223e 626d 7b3b
000000b0: 12cb 333d a9b2 e93c c0bd 41bc 8083 793f
000000c0: 30df 163f 0000 0000 5bf7 d738 8e12 11bc
000000d0: d310 8cbd 8aca 223d 0f1a d93d cf56 f6bd
000000e0: 7567 16be 91be 23bc b2b8 033f 320a 21ba
000000f0: 0a52 183c 02d2 21bb 9125 cdbb a931 793f
00000100: 8628 083f d30e a23b df82 8237 7d7a 0d3d
00000110: 413f 20bc 4a75 f23d c334 c83e 0866 1e3d
00000120: ce14 81be 387c e1bd 0555 e6bb 4de8 8c3b
00000130: 386e 713f c856 82bd e0d3 f33b c290 8b3e
00000140: b75e 0f3f bca6 933c ba93 0c37 9b2f 313a
00000150: 3167 44bd 97a6 8b3c 5a99 b4be b31c 413e
00000160: 4967 6fbe b624 1bbe 5865 57be 6600 1c3e
00000170: d009 0c3f 1563 05bc cb98 1b3c 4041 533f
00000180: c59f 153f c7b4 0a3e 6448 1e39 b5f5 95bb
00000190: 4dca 19bd 39ee 843d 1d3e eebd 6eef 86bd
000001a0: 0d02 0b3e 9375 3dbe cd66 00bf 2543 89bc
000001b0: 5f48 33bf 3a9d 143d 4fd8 abbc f69e 2d3f
000001c0: 9f2f 053f 8051 e43b d0be a837 fb51 a73b
000001d0: 271d c43c 9442 dc3d 0568 a73e 2436 febd
000001e0: 8553 e8bd b888 e03d d5f8 9bb8 54bb 1a3c
000001f0: 3449 713f 83e9 573d 73db 413c b39a 8f3e
00000200: 581e 143f cc0e 943c f081 cc37 f814 c53b
00000210: 3784 04bd fde6 203d b97d 4cbe c42f a1be
00000220: 418f 6bbe 9f6a 0a3e cac6 51be 10da 2c3e
00000230: bf5d f03e e735 a03c f924 86bb 454e 5d3f
00000240: ba58 0d3f cca1 253e bf1f 7439 6a56 063d
00000250: 9be5 6abd 6542 6a3d d221 3fbe 9709 073b
00000260: 45ec 82bd 78c1 4f3e d40f 05bf 52ce 893d
00000270: 2401 39bf 7ed0 bb3a ced5 303d 6fe4 293f
00000280: 12b4 0c3f b4d7 3434 3fb9 053a 44ba 283c
00000290: e710 c13b b607 3d3d 75cc c03d 7e00 72bd
000002a0: 8d4f 7abe 2f83 44be 4305 d23e 79ac 06bd
000002b0: 4396 6a3f 59a8 7abe 47dd 20bd 8fda 523d
000002c0: 2ab5 1c3f 61b4 b73a 4542 033b f8a4 0c3b
000002d0: 9f9a 0c3d 9f0e e83c 4ec1 34be 5e2c bb3c
000002e0: db65 f9bd 9718 8cbe 3f16 803e 33f4 60bc
000002f0: 0deb a1be f01e 88bb 135e 1b3c 3b0b 6e3f
00000300: 4d9e dc3e e072 cb34 fd13 2f3a d19c 00bc
00000310: 86e6 923a cdbc 8f3d 70d2 a2bd 26c6 5abd
00000320: 835e 993d 8a42 313e c310 cc3e d474 0ebd
00000330: af59 653f 235d 823e 59e4 403c e130 c63c
00000340: 135f 283f 08fd a13a 4782 273b c2e2 8abc
00000350: 35b2 0e3d f645 353d e289 6abe bd5e 7abe
00000360: cd3e 883e 5e73 783e 2931 6c3e 5e45 ddbc
00000370: 163f b2be cfea 443b 262d 5bbc 33e5 683f
00000380: e51a 093f
2.030006 0.006436194 -0.010765605 0.05717378 -3.4193193e-11 0.0 2.0574963 0.03268199
0.027682722 0.003638512 0.95882416 -0.0016270723 0.005504699 0.0008446985 0.9622822 -0.0012067741
1.9440337 41.463844 0.0026557283 3.0094969e-05 0.014641575 0.04749485 0.048480652 0.31706014
-0.018581014 -0.09444017 2.407689e-12 -2.8234043e-15 1.8787296e-12 0.0007222444 0.0828662 0.0038147075
-0.0073198657 6.8422133e-07 0.00020867589 0.015684674 -0.034195334 0.06174977 -0.32741985 -0.10415137
-0.07707654 -0.0032154648 0.15870427 0.0038364758 0.043894835 0.028527575 -0.011825025 0.9746628
0.5893431 0.0 0.000102980724 -0.008854521 -0.068391465 0.039743938 0.106006734 -0.12028276
-0.14687903 -0.009994165 0.514537 -0.0006143182 0.009296903 -0.0024691825 -0.006260582 0.973414
0.53186834 0.004945615 1.555815e-05 0.034540642 -0.009780706 0.11838777 0.39102754 0.038671523
-0.25211185 -0.11010021 -0.007029178 0.0043001533 0.94308805 -0.063642085 0.007441029 0.2725888
0.560039 0.018023841 8.3790455e-06 0.0006759108 -0.047949973 0.01704721 -0.35273248 0.18858604
-0.23379244 -0.15150723 -0.21034753 0.15234527 0.5470247 -0.008141299 0.009496878 0.8252144
0.58446914 0.13545524 0.00015095022 -0.0045764097 -0.037546445 0.0649075 -0.11632941 -0.06588636
0.13575001 -0.18501882 -0.5015686 -0.01675565 -0.70032305 0.036282755 -0.020977167 0.6782068
0.5202579 0.0069677234 2.0116015e-05 0.0051062084 0.023939682 0.10754886 0.32696548 -0.1241267
-0.11344055 0.10963577 -7.4373245e-05 0.009444077 0.94252324 0.05271293 0.011832106 0.28047714
0.578588 0.018073462 2.4379202e-05 0.0060144626 -0.032352652 0.039282788 -0.19969834 -0.31481755
-0.23003866 0.13517235 -0.20485988 0.16880059 0.46946523 0.019556953 -0.004093763 0.86447555
0.5521351 0.16175002 0.0002328148 0.032797255 -0.057347875 0.057192225 -0.18665245 0.0020605081
-0.06392721 0.20288646 -0.51977277 0.067288056 -0.72267365 0.0014329103 0.04317265 0.66364187
0.54962265 1.6842279e-07 0.0005101151 0.010298315 0.0058919075 0.04614993 0.09413997 -0.0590825
-0.24444409 -0.19190668 0.4101964 -0.032879326 0.9163553 -0.24478282 -0.039273527 0.051477965
0.61213934 0.0014015549 0.0020028513 0.0021460634 0.034327146 0.028327284 -0.17651865 0.022848304
-0.121776305 -0.2736251 0.25016972 -0.013730097 -0.31624642 -0.0041540787 0.009482878 0.92985886
0.43089524 3.789528e-07 0.00066786987 -0.007849888 0.0011207617 0.07018433 -0.07950294 -0.053411625
0.0748873 0.17310539 0.39856538 -0.034779385 0.8958997 0.25461683 0.011773192 0.02419323
0.6577007 0.0012358734 0.002555983 -0.01695383 0.03483792 0.044256173 -0.2290416 -0.24450202
0.26610413 0.24262759 0.23065628 -0.027010616 -0.34813756 0.0030047183 -0.013377463 0.9097473
0.5355666

network_body._body_endoder.seq_layers.0.weight f4 [256, 260]
00000000: a2dc b33d 7851 96bd 67ad 743d 8fe2 8c3c
00000010: 8d5f c93c 453f 683d 182d 0d3d 4909 cc3c
00000020: e52f 22bc e50c 9dbd 0a46 debc 6193 b7bc
00000030: fcd3 9abd 05d1 8bbd 1b84 f5bc a2bf 1a3d
00000040: 70e0 bb3d 4ec1 213b e4c7 943d 335d b8bc
00000050: b5b8 023d 2dec fa3d a7ce 4d3b 6f13 f4bc
00000060: d007 9abb 7f6e 503d 361b 6f3d 01ad b13d
00000070: 08c3 d03c 8f78 b6bd 736b 31bd f635 3c3c
00000080: 818f f3bd 96d1 953d 832f 543d 79b6 0d3e
00000090: 04f2 7a3c b8ee 0ebe 134b 97bd 558b 213c
000000a0: 0148 d83d e716 82bc fca7 343c 2365 30bd
000000b0: 6e16 25bd 5784 ec3d 02e4 083e cd27 84bd
000000c0: 3da8 a7bc e08d 46bd 063c 6d3d ad54 00bd
000000d0: a6bb b7bd 7448 b7bd b104 f33c bc7e 8bbd
000000e0: 4dc4 30be d8be 04be 631c a53d 617f 893c
000000f0: cebf 9dbd dfe0 b8bd 87a6 883d 9684 eb3b
00000100: 9a69 cdbd 5be4 c83d c6f0 3a3d cbe9 193b
00000110: 57ad 743c d1b8 123e 5468 c4bb eef3 15bd
00000120: d33a a9bd 77a9 4a3d e742 863d 598d e2bd
00000130: 7ed4 7fbd e7c4 30bc acb0 ae3d 3ec7 acbd
00000140: b785 dfbb c003 d7bd c9c7 0c3e 285c 1abe
00000150: ae78 213e 6474 19bd 56ec 6cbc 6423 c7bd
00000160: 1660 31be fe02 bcbc 7516 4d3e 8d5d 263d
00000170: 8767 493b a8ef ad3d f5ed 4dbb 4620 50bd
00000180: 8d9e 043d 8717 febd a256 963c a7b0 413e
00000190: 70dd af3d 8e1e 61bd 3492 09be 85d9 7b3d
000001a0: 915b 0ebe 1d0c 083c b7e7 413d 87ba f13c
000001b0: 860b 97bc f572 973d e96e ab3d f537 cb3b
000001c0: 6c9f 86bd a48b f9bb d54f c8bd 77de 25be
000001d0: 6219 683c 75bf 063e 43e1 cdbc 8b62 213d
000001e0: e73b 933d 4f43 63bc 8ff9 79bd baf2 28be
000001f0: fe80 1bbd d4f5 10bd abf8 4e3e 9f4c 13be
00000200: f3f7 1dbd a6e4 e73c b89b afbd 34bd 4e3e
00000210: a2c2 4fbe 2e48 bf3c ad1e 703e db42 ae3c
00000220: 319b 3c3d d36c c83d 1610 2b3d 3941 aa3c
00000230: b3e1 08bd b652 123e e108 443e dd95 f0bb
00000240: 7796 d9bd acec 093e 39dd 583c e67e 3dbc
00000250: 4a2c a8bd 326d 62bd 126b c03d 8194 48be
00000260: c71d 0dbe 479c 153c 1bdf 9b3d 9d4f 943d
00000270: 80e5 acbd 4801 d83c d685 f43c 3ed3 063d
00000280: 5a77 e6bd 4b21 82bd 0267 3bbd 94f6 093e
00000290: 9d83 7c3c a6c3 df3d 28e9 803d e87c bfbd
000002a0: a93f 013c 9c53 35bd 3d6b c13c 9017 f8bc
000002b0: 95e8 fe3d 8d22 90bd 66aa 24bd ca80 58bc
000002c0: b351 9ebd c00e 3abe f66c 263c 5c2c debc
000002d0: 63af 2abe 2958 863d a83c 67bd 71eb 723e
000002e0: 55b2 243e e567 b9bb 1b07 c73d 800c 90bd
000002f0: 415c 94bc 6836 1d3d f06e 67bd 4b1f 6abe
00000300: 49dd 64be b67a bbbb f71a 3dbe c856 eebd
00000310: 2eb2 7b3d c315 8dbd b55b 97bd 71b8 46bc
00000320: 781c 98bb 4ce0 613c c3b8 323e 047f 5fbe
00000330: fd77 34bd e838 a03d ba9b f43d d5d9 8b3e
00000340: b76a a83e 58ce d4bd 8d9d 96bd a00c 26bb
00000350: 9c9d 863d 4a3e 443c 2dc6 93bd 8ec3 63be
00000360: dc29 633d e25b 7dbd 3cba a83c 957d 79bd
00000370: 68c3 873d 4c9c f33c fa24 933d 0107 ecbb
00000380: bde0 a0bd 9e0f 0dbe 0989 d13d 8e94 16bd
00000390: 695f c0ba ca6e 11bd f56e a93d 8541 7cbb
000003a0: 2ee3 07bd cf79 39be 3f3a 773d 6e21 853d
000003b0: 5bf7 6e3d 3e02 10bd dd82 f0bd 3d3a 69bc
000003c0: e90c 08be 2ede bf3d 0385 d23d 3b02 7ebc
000003d0: 6d85 c03d 18a9 eabd f056 04bc 4335 a53c
000003e0: 794a c43d b952 38be 5d13 553d f50c 723c
000003f0: 4396 993d 2ace 2d3c eb9c 8b3c 9b62 223d
0.08782317 -0.07339758 0.05973568 0.017197875 0.024581695 0.056700964 0.034466833 0.024906771
-0.009899114 -0.07668475 -0.027133007 -0.022409143 -0.07559964 -0.06826977 -0.02997022 0.03778041
0.091736674 0.002468187 0.072646886 -0.022505378 0.03191443 0.12252078 0.0031403692 -0.029794423
-0.0047006384 0.050886627 0.05837556 0.08675576 0.025483623 -0.089097135 -0.043315362 0.011487475
-0.118926056 0.07315366 0.051803123 0.13839139 0.01531649 -0.13958251 -0.07387366 0.0098598795
0.10560609 -0.015880061 0.011026379 -0.0430652 -0.040304594 0.11548679 0.13368228 -0.06452904
-0.020465964 -0.048475146 0.05791857 -0.031330753 -0.08971338 -0.08949366 0.029665323 -0.06811282
-0.17262383 -0.12963426 0.08062055 0.016784372 -0.077025995 -0.09027266 0.066723876 0.0071874363
-0.100299075 0.0980918 0.045639776 0.0023485299 0.014933906 0.14328314 -0.005993882 -0.036609583
-0.08263173 0.04947802 0.06555729 -0.11062116 -0.062458508 -0.010789133 0.08529791 -0.0843644
-0.00682136 -0.10498762 0.13748087 -0.15074217 0.15768692 -0.037464514 -0.014460644 -0.09723547
-0.1732181 -0.022950646 0.20028098 0.04061656 0.0030731873 0.084929764 -0.003142235 -0.05081203
0.03237777 -0.12406831 0.018351857 0.18915044 0.08587158 -0.05496078 -0.13434678 0.06148674
-0.13902117 0.008303669 0.04734012 0.029507888 -0.018438112 0.07394973 0.08370764 0.006201739
-0.06573376 -0.0076155234 -0.09780852 -0.16198145 0.014166208 0.13158973 -0.025131827 0.03940062
0.0718916 -0.013871028 -0.061029013 -0.16498843 -0.037964813 -0.03539069 0.20212047 -0.14384697
-0.03856654 0.02830727 -0.08574623 0.20189363 -0.2028909 0.023349848 0.23449202 0.021272114
0.04604644 0.097863816 0.041763388 0.020783054 -0.03341837 0.14289364 0.19144012 -0.007342084
-0.10624402 0.1346919 0.013236337 -0.0115658995 -0.082115725 -0.055279918 0.09395422 -0.195879
-0.1378089 0.009131498 0.07610913 0.072417475 -0.08442211 0.026367798 0.029848974 0.0329163
-0.11253233 -0.063540064 -0.045752533 0.13472968 0.015412238 0.10925989 0.06294471 -0.09349996
0.007888713 -0.04426919 0.023610706 -0.030284673 0.12446705 -0.0703784 -0.040201567 -0.013214299
-0.07730427 -0.18169689 0.010157814 -0.027120762 -0.16668467 0.06559784 -0.05645433 0.23722626
0.16083653 -0.005658137 0.09718152 -0.07033634 -0.018110396 0.038381964 -0.056502283 -0.228635
-0.22350039 -0.0057214154 -0.18467318 -0.11637646 0.061449222 -0.06888916 -0.073905386 -0.012128935
-0.0046420656 0.013786387 0.17453294 -0.21825796 -0.044059742 0.07823354 0.11943765 0.2731463
0.32893917 -0.103909194 -0.07354269 -0.0025337115 0.0657303 0.0119777415 -0.072155334 -0.22242567
0.055459842 -0.061855204 0.020596616 -0.06091078 0.06629068 0.029737614 0.07184787 -0.0072029834
-0.078553654 -0.13775489 0.102312155 -0.036762767 -0.0014676872 -0.035506047 0.082731165 -0.00384912
-0.03317564 -0.18112873 0.060358282 0.06500517 0.058341365 -0.03515839 -0.1174371 -0.0142350765
-0.13286175 0.09368549 0.10279276 -0.0155034615 0.09400449 -0.11458033 -0.008077368 0.020166999
0.09584517 -0.18000306 0.05202042 0.014773597 0.07499363 0.010608235 0.017042598 0.03964482

network_body._body_endoder.seq_layers.0.bias f4 [256]
00000000: 6e32 9fbd ede8 debc 8609 f43d 056d 8b3c
00000010: 7c9e 4dbd 80df 12be 97a4 0ebe d575 eabb
00000020: 3c4a 56bd eee6 d43c c30a 883d b1b2 0b3e
00000030: 9053 e8bd 060f f2bd 4c26 fdbc ca98 04be
00000040: ba0c 09be f11b 36be dd3e 82bd ffea ec3d
00000050: 9968 0cbe efc7 7a3d e033 debd 2ac4 98bd
00000060: cd85 05be 26e3 a63c 4d56 dcbd cd7a a8bd
00000070: 83c1 e9bd db6e 4abd 0d31 37be 9c9c e9bc
00000080: e52d 913d 01b9 b5bd 6ef3 39be b3de 3ebe
00000090: f2a0 18be 5e43 dd3d 06d5 b0bd e244 30be
000000a0: 9a21 413e 6cc8 29bd e995 34bd 1577 2a3c
000000b0: 9d42 893d 59ea 0fbe 59cf 2cbe ab1c 19be
000000c0: f79e a9bd de2f fabd 009b 32be b4b6 efbd
000000d0: 8999 d7bc 7a2c fdbd ed4e 43bd e16c 35be
000000e0: 03f6 783d 982f 1abe d9bd adbc 1247 05be
000000f0: 4bae 30be 41cd 44be 35db 01bd 81cb ffbd
00000100: 403d 11be 81ef 52bd a73f ccbc 2f28 abbd
00000110: a9bc d13d 5b87 91bc 18ff 0abe e867 2a3e
00000120: 52dd 313c 40ae 0bbd 1835 26be 10c8 02bc
00000130: 9fc1 95bb f901 37bd 3d32 f4bd 5d34 95bd
00000140: 3443 52be c828 13bd 8865 47bd 23db 68bd
00000150: 3a64 513d 9b4b 00be 541c b5bd f5d3 243e
00000160: cd78 b6bd e410 12bc 0419 80bd 35eb b4bd
00000170: c755 4d3e 26d6 2abe 07dd 553d 0293 53be
00000180: c29d 5bbc c163 bebd 76f7 adbd 1c37 24be
00000190: fb5d b9bc 76e7 dbbd ce1a 40be 7a7e ee3c
000001a0: 7ebd 14be d386 9b3c fe24 35bc b188 13bd
000001b0: c37a e9bd 62ef 0fbe c46a 86bd b8bd d6bd
000001c0: c998 8abd 0f44 2fbe 6e2c ebbd 5c7d 1f3d
000001d0: eb10 3ebe fa7a 0bbe 1fe5 6ebd 23f9 fabd
000001e0: f76f 3bbe 1df2 993d 7e49 3a3e 5591 8bbd
000001f0: 57ae cdbd b494 f9bd c2ae fdbd 7e84 33be
00000200: 5aa0 7a3d e6c8 8dbd dfb8 d83c 1252 92bd
00000210: 60d9 75be 8b1e efbd f328 7a3b b861 bdbd
00000220: 618e e93b 492d b0bd 86e6 62bd 8c3b afbd
00000230: edfa 34be f1df 97bd bd7a e63b c6ed 89bd
00000240: f0b0 3c3c 5b8b 89bd 79c4 733c e78d 98bd
00000250: 4461 963b c3ff 4dbe 36ff 36be a50b 3dbe
00000260: 1151 d73d ba65 44be dba2 93bd f2ef 9dbc
00000270: 2044 16be 2c67 25be f9f3 f6bd 12de 17bd
00000280: a102 4abd 39bf a2bb 86f0 36bb 16a3 05bd
00000290: 15e9 fb3d c747 84bc bf07 54be 36de c3bd
000002a0: ada5 02be 54da 40be 4eb8 82bd dc87 3cbc
000002b0: e8ff 1cbe 38d5 9ebb f5ad e8bd 2b05 0cbe
000002c0: b135 4dbe b5f9 32bd 46fd 60be 5d8b 28bd
000002d0: 0586 5e3d 9be3 08bd 8bea a0bd 1750 74bd
000002e0: 46d6 39be f994 0f3e 07d3 2abe a2d9 bebd
000002f0: 4d5c 14be 85a0 e3bd 8aa9 99bd d359 eabc
00000300: 2d1b 2ebd a59d 28bd e98b 41be 302e c2bd
00000310: f786 33be 2f3e 803d 829c 113d 5153 a5bd
00000320: 4531 5ebe 95aa 3bbe 1f67 31be 9dd2 27bd
00000330: 5de2 33bd ce25 c8bd be75 87bd 4c92 94bd
00000340: 396a 433d 7d7a 5fbc 455d ea38 4d3b 05be
00000350: cbbc a0bd dbf5 22bc 9e8a d83c 4411 e8bd
00000360: 1af3 e2bd 1201 2e3e 4111 35be d222 0fbe
00000370: ae1b f8bd efb1 ce3d 1c65 20be 5595 eabd
00000380: 57a5 d0bd 010a 213c 8241 67bd 1b7b 2a3c
00000390: 0a67 dcbd 9f03 39be d3dc ddbc 28a2 98bd
000003a0: 81b3 2dbe 8358 b43b 3703 c4bd f4a6 36be
000003b0: 6dbc 20be 2836 e2bd 00cf 833d 3ec2 8dbc
000003c0: f07a e8bd 39ee c93d 5152 b43d 400b 04be
000003d0: 40af 45be 636b edbc e201 edbd 13bd 483d
000003e0: 9275 ce3d a3b7 37be 8c5c 2ebe 00ca 4e3d
000003f0: 5683 a6bd 647e 26be 9682 b43c b0e3 9abd
-0.077732906 -0.027210677 0.11915879 0.017019758 -0.05019997 -0.14343071 -0.13929974 -0.00715516
-0.05231689 0.025989022 0.06642678 0.13642384 -0.11344063 -0.11819272 -0.03090205 -0.1294891
-0.13383761 -0.17784096 -0.063596465 0.115682594 -0.13711776 0.061225828 -0.10849738 -0.0745929
-0.13039322 0.020371985 -0.10758648 -0.082265474 -0.114138626 -0.049422126 -0.17889805 -0.02851706
0.07088832 -0.08873177 -0.18159267 -0.1863964 -0.14905146 0.10803865 -0.08634381 -0.17213777
0.18860474 -0.041450903 -0.044088278 0.010404368 0.067021586 -0.1405424 -0.16875972 -0.14952342
-0.08282273 -0.12216161 -0.1744194 -0.1170477 -0.026318328 -0.12361999 -0.04768269 -0.17717315
0.06078149 -0.15057218 -0.02120869 -0.13015392 -0.17253987 -0.19218923 -0.031703193 -0.12489987
-0.14183521 -0.05149794 -0.024932696 -0.08357274 0.10241062 -0.017764738 -0.13573873 0.166412
0.0108559895 -0.034101725 -0.16231191 -0.007982269 -0.0045702006 -0.044679616 -0.11923645 -0.07285378
-0.20533448 -0.035927564 -0.048680812 -0.05684961 0.051120974 -0.12528841 -0.08843294 0.1609648
-0.0890976 -0.00891516 -0.06254771 -0.08833925 0.20052253 -0.16683254 0.05221274 -0.20661548
-0.013404312 -0.0929637 -0.08494465 -0.16036648 -0.022627821 -0.10737507 -0.18760225 0.029113043
-0.1452541 0.018985188 -0.011056183 -0.03601903 -0.11400368 -0.14056161 -0.06563333 -0.10485405
-0.06767423 -0.17115806 -0.11483084 0.03893791 -0.18561141 -0.1362113 -0.058323976 -0.1225455
-0.1830443 0.075168826 0.18192098 -0.06814829 -0.10043018 -0.12186566 -0.12386848 -0.1753101
0.06118808 -0.06923084 0.02645534 -0.0714456 -0.24008703 -0.116757475 0.003817138 -0.09247154
0.0071275686 -0.086023875 -0.055395626 -0.085562795 -0.17673846 -0.0741576 0.0070336745 -0.06734805
0.011516795 -0.06716033 0.014878386 -0.07448941 0.0045892317 -0.20117097 -0.17870793 -0.18461473
0.10513509 -0.1917943 -0.072087966 -0.019279454 -0.14674425 -0.16152638 -0.12058253 -0.037077017
-0.049318913 -0.004966643 -0.002791436 -0.032626234 0.12300316 -0.016147507 -0.2070608 -0.09563868
-0.12758513 -0.18833286 -0.063828096 -0.011507001 -0.15331995 -0.004847195 -0.11361305 -0.13673846
-0.20040013 -0.04369517 -0.21971616 -0.041148532 0.05432703 -0.033420186 -0.078572355 -0.059646692
-0.18148145 0.14021672 -0.16682063 -0.09318854 -0.14488335 -0.11114601 -0.0750304 -0.028607285
-0.042506386 -0.041165967 -0.18901028 -0.09481466 -0.17531954 0.062618606 0.035549648 -0.08072532
-0.21698482 -0.1832679 -0.17324494 -0.04097234 -0.04391705 -0.09772836 -0.066142544 -0.072544664
0.047708724 -0.013640043 0.00011175362 -0.13010903 -0.078485094 -0.009946312 0.026433285 -0.11331418
-0.11081524 0.16992596 -0.17682363 -0.13978127 -0.121146545 0.10092532 -0.1566357 -0.11454264
-0.10187786 0.009829045 -0.056458957 0.010405327 -0.10761841 -0.18067788 -0.027082836 -0.07452804
-0.16963007 0.0055037155 -0.09570926 -0.17837125 -0.15696879 -0.11045486 0.064359665 -0.017304536
-0.113515735 0.098598905 0.08804763 -0.12894917 -0.19305134 -0.02898187 -0.11572625 0.04900844
0.100810185 -0.17941146 -0.17027491 0.05048561 -0.08130519 -0.16259152 0.022034924 -0.07562959

network_body._body_endoder.seq_layers.2.weight f4 [256, 256]
00000000: 92e5 03be 84f9 0f3d 58e3 783c 19b9 43bc
00000010: 6546 e03d c287 44be 86ef 243e ed94 7e3d
00000020: 6d46 fdbd 4fb6 a4bd c84e 84bd 5d7d 41bd
00000030: 5ec5 44be d81a 6fbd b47e e3bd 5771 8c3d
00000040: 44ce c03d 63f6 f93d 3472 51be ad31 d63d
00000050: ace8 5ebc 4d0b d93a 478d f5bd f2ad 6a3d
00000060: 2631 403e 7146 05be ac3b 95bd 240e ad3d
00000070: 8fbb f6bd c5da 323d 6d79 d3b9 7e53 503d
00000080: 27c8 6ebc bd91 d1bd 14e5 053c 311c 513e
00000090: 7fef 4bbd 66a4 55be ce13 c93d 94fd 573d
000000a0: 8e76 f6bd 26ee bdbd dfe6 fdbd 1441 e03d
000000b0: c319 25bd 9f87 abb9 380b 283d ed4a 7b3c
000000c0: 62b6 62bd 12a5 693d 2cad 6e3d 3596 2ebe
000000d0: fef4 0c3e a258 6abb 5181 69bd 469b 7e3d
000000e0: 7c74 b2bc 3529 153d 457c 533d b17c 0b3d
000000f0: a57e c43d cb05 45bd b767 ff3d 9588 b33c
00000100: 1760 1b3d d345 9abc 2086 59be cbbd d9bd
00000110: de3c 633e fa06 28be a54d 48bd 5caf f2bb
00000120: 6d31 57bd 92e1 d5bc dc0e c43c b8e1 38be
00000130: 2507 2abe 9dda 1ebc 1f71 03be 20a5 913c
00000140: a1b9 abbd b41a 1a3d 30fb a1bd 3173 73bb
00000150: d298 913d 51d0 83bd 4e78 a03b 1cc6 81be
00000160: e635 9abc bd17 2cbe 8f83 38bc 9b4d edbc
00000170: 905d 62be 3e1c f53c 1799 15be 5a9d f53d
00000180: e3c9 c9bc 0741 3dbe b53f 35be bb66 bb3d
00000190: 5d3d a3bd 79b7 cdbc aa3c b03d 23b0 7dbd
000001a0: 73e8 8a3d 681a e0bd 53b7 4ebe da6b f1bd
000001b0: 1a3d e63d 439b b8bd ecc2 473e 94c1 763c
000001c0: 63aa 19be 0024 403e 6d2f 193d 80ad 103d
000001d0: 6e0f e13b 833e 9fbb 1221 0d3e b034 c53c
000001e0: 80d7 83bb 2e3f f1bd c797 13be 7007 09bd
000001f0: c269 20bc b51a e9bd 17b9 2abc 72c5 b83d
00000200: f84c 1dbe 3455 f7bd 974b 1e3e b2cc 81bb
00000210: 7d58 2bbd 85bf e1bd 34ff 223e 81f8 c8bc
00000220: 99d5 bbbd 2795 eb3d 4da8 fabd 04eb 32be
00000230: 012f b1bd f372 9cbc 7e9d bb3d 4698 afbd
00000240: 3acd 69bd 24f2 b3bd cc50 c8bd d27c 833d
00000250: 45d5 033e eac4 cf3d 630e 4a3e 27fb 66bd
00000260: a7c2 883d 62a4 68bc b7fc 813c 546b 113e
00000270: 5fa6 78be 4bf8 16be 916d 0ebe b667 d2bd
00000280: 0e0c 173e 96ba 603d 09ba 3cbd 6cf6 83bd
00000290: b0aa aebd 48cc a5bd 213c 08bd e1ac 10bd
000002a0: 1449 4d3b 7c39 34bb 1fa4 cbba aa30 3e3d
000002b0: 76ab 5f3e c785 a6bd 185e d03d eba1 0cbd
000002c0: 8a4a ae3d 3e8f 3c3e 3d9e 32bd f414 443c
000002d0: 1b55 25bd b8d4 033e 62df 01be 7d13 94bd
000002e0: e10d 33bd e0b2 c73d 4855 31bd bfcf 1f3e
000002f0: bc92 3f3d a272 a13b 4deb c6bc 0497 993d
00000300: a262 25bc 4366 69bd 6236 bd3c a267 71bd
00000310: 7c49 cb3d 2f0a c8bd 4e05 5f3c bbe6 4a3d
00000320: da9d 8c3e 1f0e 9bbd e675 853d 0fc0 0cbd
00000330: 1006 9d3d 6384 f43c 6de1 03be b4a8 8cbd
00000340: 5a17 ad3d 93d4 7ebc 8f95 873d 3c55 4b3d
00000350: 289f cb3d 9fd8 b83d ca2f a6bc b55a 51be
00000360: 925a d03d 2828 0cbe 1d9a af3a 53e4 69bd
00000370: 7c30 64bd f0e0 6d3c 28e5 043d 7474 08be
00000380: 43f5 1c3d c277 d3bc cce3 7fbc 8587 ecbc
00000390: e88c 55be 26a8 81bd 1008 0c3e 8824 e1bd
000003a0: eb9a a43d 54e5 5abd 902f 93be 4298 c83d
000003b0: f9ff 983d c0aa 23bd 75d6 f53b 7a9c 6e3d
000003c0: 7d64 a6bc ccdc 60bd f5cb d0bd 5abb 193d
000003d0: e65f 283d fd5f 793c 91c2 603b 6167 16bc
000003e0: 1823 19bd a0e0 b9bd 9320 d2bd b56d 76be
000003f0: c1fa a33d d5b0 fa3d a0a3 d3bd 1b3f a3bd
-0.12880543 0.035150066 0.015190922 -0.011945986 0.10950927 -0.19192412 0.16106996 0.062153745
-0.12366948 -0.08042585 -0.06460339 -0.047238696 -0.19215915 -0.05837521 -0.11108151 0.06857555
0.09414342 0.12205198 -0.20453721 0.10458694 -0.013605278 0.0016559154 -0.11989837 0.057294793
0.18768749 -0.13015153 -0.07286772 0.08449963 -0.12047493 0.043665666 -0.00040335525 0.050860874
-0.014574087 -0.102328755 0.008172292 0.2042091 -0.04978895 -0.20863494 0.098182306 0.052732065
-0.12034331 -0.09273939 -0.12397551 0.10949913 -0.04030777 -0.00032716707 0.041026324 0.015337688
-0.055349715 0.05704219 0.05827062 -0.17049487 0.13765332 -0.0035758396 -0.05700809 0.0621598
-0.02178406 0.03641625 0.051632185 0.034054462 0.09594468 -0.048101228 0.12470954 0.021915713
0.037933435 -0.018832123 -0.21242571 -0.10631903 0.22191188 -0.16408911 -0.048902173 -0.0074061584
-0.05253737 -0.026108537 0.023932867 -0.18054855 -0.16604288 -0.009695676 -0.12836121 0.017778933
-0.08385015 0.037623122 -0.07909238 -0.0037147517 0.07109226 -0.064362176 0.004897154 -0.25346458
-0.018824529 -0.1680593 -0.011261835 -0.02896767 -0.22106004 0.029920693 -0.1460918 0.11992903
-0.0246324 -0.18481837 -0.17700084 0.09150454 -0.079706885 -0.0251119 0.08605321 -0.061935555
0.067826174 -0.109425366 -0.2018712 -0.11788149 0.11242123 -0.09013989 0.1950795 0.015060801
-0.15006404 0.18763733 0.037398744 0.035321712 0.0068682944 -0.004859747 0.13782147 0.024072975
-0.0040234923 -0.11779629 -0.14413367 -0.03345436 -0.00979084 -0.11382047 -0.010420105 0.09022035
-0.15361392 -0.12076798 0.15458523 -0.003961169 -0.041832436 -0.110228576 0.15917665 -0.024532558
-0.091716 0.11503058 -0.12239132 -0.17472464 -0.086515434 -0.01909778 0.091608986 -0.08573966
-0.057080485 -0.08786419 -0.09781036 0.06420292 0.12874325 0.1014498 0.1973205 -0.05639186
0.06677752 -0.014199348 0.015867574 0.14201099 -0.24282216 -0.14743154 -0.13908984 -0.102736875
0.14750692 0.054865442 -0.046075854 -0.064434856 -0.0852865 -0.08095604 -0.03326047 -0.03532112
0.0031324076 -0.0027500084 -0.0015536583 0.04643313 0.21842751 -0.08130985 0.10174197 -0.034334105
0.08510311 0.18414018 -0.04360794 0.011967886 -0.040364366 0.12874115 -0.1268287 -0.072302796
-0.043714408 0.097509146 -0.04329422 0.15606593 0.046770796 0.0049269954 -0.024282122 0.07499507
-0.010094317 -0.05698229 0.02309722 -0.058936723 0.099261254 -0.09767567 0.013612105 0.049536448
0.2746418 -0.07571053 0.06516628 -0.03436285 0.07667172 0.029848283 -0.12878962 -0.06868115
0.084517196 -0.015553611 0.06620323 0.049641833 0.09942466 0.09025692 -0.02028646 -0.20444758
0.10173525 -0.13687193 0.001339737 -0.057102513 -0.0557103 0.014518961 0.032445103 -0.13325673
0.038319837 -0.02581394 -0.015618276 -0.028873214 -0.20854533 -0.063309 0.1367495 -0.10993296
0.08037361 -0.05344136 -0.28747225 0.09794666 0.07470698 -0.03995776 0.007502372 0.058254696
-0.020311588 -0.05489807 -0.10195152 0.037532188 0.04110708 0.015220639 0.0034295658 -0.009179921
-0.037386984 -0.09076047 -0.10260119 -0.24065287 0.08006812 0.12240759 -0.10333943 -0.07971021

network_body._body_endoder.seq_layers.2.bias f4 [256]
00000000: db2b 93bd 841e 5dbd 1c26 303d 8a4d 14bd
00000010: b0cc 47bd 7b87 64bd 6486 a53b c8b7 023d
00000020: 49bf 80bd d9cb 133d 2aa0 80bd 0bd1 55bd
00000030: 909c 693d d08a 08bd f291 41bd 00cd 043d
00000040: 475a ae3d 6d76 683d 1981 bcbd 5d26 f9bc
00000050: e610 173c 512a 653b 60eb 633c 32dd bebd
00000060: b0a1 22bd af38 a9bc 411a a03c 70c1 1c3d
00000070: d326 20be 9f06 0dbd 892b 44bd 5f06 5abd
00000080: d970 1bbd 1f7f 2f3d 1b30 033e 58f1 37bd
00000090: 6dc7 cdbd c363 dabb cd75 4f3c 4832 9bbd
000000a0: d604 ad3c 3413 7bbc b52b 71bd e9b9 fdba
000000b0: f350 21bd b823 0ebd fd96 bebd bdb4 09bd
000000c0: 0cee 40bd b717 41bd da17 95bd d33b 02bd
000000d0: f19d 5f3d 0ee9 ebbd e887 5fbc 610a 993b
000000e0: b360 5d3d 0a4d 0fbd 2b45 5c3d 076c 873a
000000f0: e9d5 1ebd 22b8 a1bc 5f5e 95bd 941c fc3b
00000100: f0b6 d9bc b037 8ebd a345 773c a7a8 d43d
00000110: 7375 f4bc 9f6e 1fbd 4f98 15bd 4fc0 b83b
00000120: f981 12bd 1e7c db3d 22a6 44bd c152 09bd
00000130: efbe bfbd ea9b 14be 1cc0 7b3b 9b64 23bd
00000140: 5ae3 59bd 9a0d 74bd b6b0 a03d f25b 84bd
00000150: 19d1 26bd 3a84 fabc faa6 cabd 374a 1abd
00000160: 7dff 7f3c 67ae 07be d7a5 f4ba bde1 3abd
00000170: daad 0ebe ce67 90bc bc6a 00bb 0497 82bc
00000180: 7ea5 4f3c 2abb bbbd 1a9d 8abc 7e7d 07bd
00000190: cc38 81bd 256f c4bb eab7 0bbd ce91 52bd
000001a0: 01ec a8bc d8ce fdbc 74ab f5bb 37bc b13a
000001b0: 87f4 d4ba 8ead 5fbd 9585 3b36 a3aa 0fbe
000001c0: 8d71 633d 944c 893c aa15 503b 62f2 a33c
000001d0: 8c5b 0c3c a608 75bd e91c 1a3c 4182 8b3c
000001e0: e52d b23c 8901 8b3a 3739 0dbd c4e2 bd3c
000001f0: 1fa0 613c 6807 c73c 10bc a2bb 4099 6bbd
00000200: 4640 17bd e8bb 16bb 3923 473c b00e 48bd
00000210: 0100 42bd 7ea2 51bd 6643 83bc 9d35 c7bb
00000220: 21cf c8bd 7087 26bd 894e 80bd e11e 95bd
00000230: 64e1 88bd 94a2 933d 81ae 83ba a190 2abd
00000240: 007e 37bc 7dbf 37bd c317 553c 328d ecbc
00000250: 4a22 96bc d2b4 d63d b661 a9bc e580 93bd
00000260: 64c3 e2bd 2e36 30bd ebf9 843d 25d7 caba
00000270: 38d9 6fbd 079d b1bd f873 2cbd f837 6abd
00000280: 0e82 69bc 2447 5ebd d2c7 cebc 5a52 67bd
00000290: 79bf dabd e845 c33d c907 c8bc 02ea cd3a
000002a0: e9ae cd3c 9637 ebbc e37d 36bd bb3b 81bc
000002b0: c04f 873d 7f71 1bbd b5a6 23bd 17bc 153d
000002c0: 3da2 83bd 6353 38bd 09be 27bd dd0d db3c
000002d0: e90f 863d 288f 803c 9a05 65bd f573 5fbc
000002e0: 1c55 fc3d 7079 9d3d 2363 21bd e951 04bd
000002f0: 05b5 e0bc 47ad f3bc 856e 82bc 9950 c63c
00000300: a3c2 8abd dc8b 4dbd 0e73 143d 34e9 653d
00000310: c9a3 4a3d 6c94 063d e589 78bd f163 b0bc
00000320: 2b2e 44bc 088a 463d b544 bf3c 6d34 cc3c
00000330: b7e3 8f3d 904b 6fbd 5ef4 69bd 97e1 7abc
00000340: dae6 93bc ca79 a1bc fcb2 91bd 81ae a4bc
00000350: 5ad8 89bd 559c 0fbd ceb6 093c bd7a 1cbc
00000360: 0f9e 82bc 0b11 edbb 1459 c63b f0f9 06bc
00000370: dd5f 733d cc73 abbc aef8 9dbd ba29 7ebd
00000380: 76c5 fdbc db7e c7ba 3761 0fbc 4fda d6bc
00000390: 5f49 b8bc 1f7e 46bb 4b2d eabc 8be0 73bc
000003a0: 1b41 943d 8673 4d3d 93c9 d63b 574d 15bd
000003b0: 4828 3c3c 086a 263d 5dbf 533d 3844 72bd
000003c0: 1411 e13c 26a5 8f3d f28b 243b 42ed 38bd
000003d0: 7faa 7fbd 713f 34bd ec44 87bd 0c58 a23d
000003e0: 2980 94bc 5633 02bd d5bd 113d 4798 98bc
000003f0: f050 a8bd 5c1b 82bd 9e89 343e fe23 7abc
-0.07186099 -0.05398418 0.043005094 -0.03620676 -0.04877919 -0.055793267 0.005051421 0.03191355
-0.06286485 0.036083076 -0.06280549 -0.052201312 0.057034075 -0.033335507 -0.047258325 0.032422066
0.08513313 0.056753565 -0.09204311 -0.0304138 0.0092203375 0.003496785 0.013911098 -0.093195334
-0.03970498 -0.020656912 0.019543769 0.038270414 -0.1563981 -0.034430142 -0.04789308 -0.053228732
-0.037949417 0.04284584 0.1281132 -0.044907898 -0.10047803 -0.0066647246 0.012662363 -0.0757795
0.02112047 -0.015324403 -0.058879573 -0.0019357774 -0.03938384 -0.034702033 -0.093061425 -0.03361963
-0.04710202 -0.047141757 -0.0727994 -0.031795334 0.054593984 -0.11519061 -0.013643242 0.0046704267
0.054047298 -0.03498558 0.0537769 0.0010331877 -0.03877822 -0.019741122 -0.072933905 0.0076938365
-0.02657649 -0.06944215 0.015092286 0.103837304 -0.02984116 -0.038923856 -0.036522206 0.0056381593
-0.035768483 0.10717033 -0.04801 -0.033526186 -0.093625896 -0.14512601 0.0038414067 -0.039890867
-0.053195335 -0.059583284 0.07846205 -0.0646285 -0.040726755 -0.030580629 -0.098951295 -0.037668433
0.015624878 -0.13250123 -0.0018665147 -0.045625437 -0.13933507 -0.017627623 -0.0019594869 -0.01594115
0.012673734 -0.09166558 -0.016920615 -0.033078663 -0.06309661 -0.005994695 -0.03411094 -0.05140858
-0.020620348 -0.03098242 -0.0074972454 0.0013560121 -0.0016247191 -0.054608874 2.7942926e-06 -0.14029936
0.055528212 0.016760148 0.0031751194 0.020013038 0.008566748 -0.0598227 0.009406307 0.017029883
0.0217504 0.0010605316 -0.034478392 0.02317942 0.013771086 0.024295524 -0.0049662665 -0.057519197
-0.03692653 -0.0023000184 0.012154394 -0.048842132 -0.047363285 -0.051180355 -0.016023349 -0.0060793892
-0.09805132 -0.040656507 -0.062649794 -0.0728128 -0.06683615 0.07208744 -0.0010046513 -0.041641835
-0.011199474 -0.04486035 0.0130061535 -0.02887592 -0.018326897 0.104837075 -0.020676475 -0.07202319
-0.11072424 -0.04302042 0.064929806 -0.0015475495 -0.058556765 -0.08672529 -0.042102784 -0.057182282
-0.014252199 -0.054267064 -0.025241766 -0.05647502 -0.10681052 0.09534818 -0.024417775 0.0015709999
0.025107818 -0.028713029 -0.04455365 -0.015775552 0.06607008 -0.037950035 -0.039953906 0.03655633
-0.06427429 -0.0450014 -0.040952716 0.026740009 0.06546003 0.015693262 -0.055913545 -0.013638486
0.12320921 0.07689178 -0.039401185 -0.032304678 -0.027430067 -0.029745711 -0.01592184 0.024208354
-0.06775405 -0.05018221 0.036242537 0.056130603 0.049472604 0.03285639 -0.06067838 -0.02153203
-0.011973898 0.04847148 0.023348192 0.024927342 0.07025855 -0.05842167 -0.057117812 -0.015312574
-0.018054415 -0.019711394 -0.07114217 -0.020102741 -0.06730719 -0.0350612 0.0084054 -0.009550747
-0.015944509 -0.0072346977 0.0060530994 -0.008238301 0.059417594 -0.02092924 -0.077134475 -0.062051512
-0.030977946 -0.0015220301 -0.008751205 -0.026227145 -0.022495924 -0.0030287576 -0.02858605 -0.014885078
0.072389804 0.050159 0.0065547912 -0.03645071 0.011484213 0.040628463 0.05169617 -0.05914709
0.027473964 0.070139214 0.0025107828 -0.04514814 -0.062418457 -0.044005815 -0.06604943 0.0792695
-0.018127518 -0.03178724 0.03558143 -0.018627299 -0.082185626 -0.06352875 0.17630622 -0.01526737

network_body._body_endoder.seq_layers.4.weight f4 [256, 256]
00000000: be1f 063c 629d 873d 2394 e13d 4af9 fa3c
00000010: 95d1 4bbd d489 b5bc bcad 4e3e ad48 a6bc
00000020: 7c6e 51bc f257 f23c 8c28 9ebc 40ab e73d
00000030: 2c30 1ebd 0a2e bf3b e050 6cbd 3b9f 8d3c
00000040: b375 643d c13b a2bd f674 0f3e 8ccc f7bc
00000050: 44e7 6dbc 9b51 b73d 0f24 503c 607d 9d3d
00000060: 6449 5d3e dbb4 e2bc 2d30 e93c 2988 47bb
00000070: 19b1 103e 56f5 2cbe 7f3d 93bd 64af f63d
00000080: cf72 bb3b 536d 47be 69f6 e93c ff49 28be
00000090: 5377 75bd 588b 6ebb 131c 9dbd fd0d 7e3d
000000a0: f2da 903d ea21 68bd 573a cabc 8d4a 133e
000000b0: 598d 44be 3de9 ebbd c8e7 883c 0c34 b3bc
000000c0: c8d2 233c 995c c8bd b2ea ef3d 3ad6 40bd
000000d0: 5487 20bc 7c42 153d e9fe d7bc c9d9 05be
000000e0: 879e 86bd ffe8 cf3d aab6 0dbc 5e5d 8fbe
000000f0: 4d90 54be d56f 093d 88c2 10be ab93 743e
00000100: 6d7e a8bd ec45 083e cf85 c53b 42f9 153e
00000110: 8a47 18be 2d86 863d 795b 3abd 6c23 183e
00000120: 1792 b73c 780f 16be e214 043c 61b7 8ebd
00000130: a572 21be 2202 2bbe b63e 633d e52b c3bc
00000140: 22be e3bc 74cb 43bd b638 5c3d 54e3 073e
00000150: 1be2 88be 3723 3d3b 38ec 7ebd ea89 b5bd
00000160: ab5d 8e3d 26e6 f33c 50d2 233e 1e77 d33d
00000170: 0e57 943c eaab 92bd c454 653d 2a3d 173e
00000180: 5fd2 a73d 349a 273a cdf1 db3d 6b41 683d
00000190: e324 21be 6802 80bc 2c27 263b 786b e93c
000001a0: 173f c9bd 3c40 8c3c 4889 e9bd 7eff 2e3d
000001b0: fc1f d1bd de67 a03d 4d77 86bc ce4a 3cbc
000001c0: 5986 f4bc d3e5 0abd f161 b73d cc95 de3c
000001d0: f2cb 7d3d b199 27be a4db bb3d a75b f3bd
000001e0: 2b68 99bc 0dd3 bd3c 6f17 8c3d 5f08 db3d
000001f0: f777 103c da9c 73bd 17e8 7c3d 1ffb 9e3d
00000200: 4ee5 f43d fb67 17be 243d 3fbe 674a d13d
00000210: 736a 623c be46 163e 563d 1b3e ba75 aabd
00000220: 4ee2 21be fa37 c33d 56ed 7abd 1cd2 10bd
00000230: 8fb5 0a3e 1e24 ecbd 7f28 7ebd 6a73 c23d
00000240: e7b8 65bd c249 d6bd 9dfa 3b3c 538a 46be
00000250: 5ff3 babd 8b40 94bd 520e 2f3e 125c ce3d
00000260: 73d6 e3bd 660a b93d 424e 7b3d 41af 793e
00000270: 09ea 8cbd 084d 97bc e638 553d 50a5 9dbd
00000280: 91b2 d3bd f8b8 18bd 2772 473e 22ed 393e
00000290: 95d6 ffbc 82e7 0bbe a8f5 adbc f8a8 7ebe
000002a0: ceb5 823d 6cc7 0dbe a8fa 0ebe 39cd 4bbd
000002b0: 981e c8bd f43e 47bd 356a ac3d 3cf1 043e
000002c0: 6da2 acbd 7f97 633d 830e c1bd 7ef2 a3bd
000002d0: d939 863b 3f7f 0c3c 7124 e8bd e90d 58be
000002e0: e2d0 8fbd afa1 123d 1e66 723d 850c 47be
000002f0: 5290 c83d a3e6 85be 9d7b ba3b 9ce4 d43c
00000300: eb26 c9bd 92ac 79bc e011 bdbc d4f9 b3bc
00000310: c826 54be 3eed 303e 19d9 a1bd bd6a cbbc
00000320: 53cd 1e3c 3a42 bebd 690a 603d 1d38 27bd
00000330: 728f 7dbe ae69 cc3d 62fc 52be 9c00 20be
00000340: 0389 b8bd 3d63 3a3d 2b61 af3d 078e 773a
00000350: fe76 cbbc 7f1f 20bd 472d 2a3d 9373 ca3c
00000360: 852b 8dbb aba5 4cbd fc0a 203e 63c5 aebd
00000370: e425 8b3d a0ba 193d b1d3 e33d 40cf c93d
00000380: 7a91 c33d 3661 9e3d 350b 2c3e b8d2 37be
00000390: 8252 a63c e986 6c3c c794 32be 3a07 e83d
000003a0: c162 61bd dbba 37bc 4b67 c7bd eb4b 433d
000003b0: 0af5 edbb 94ce 3c3c 9bc4 6abd 04dc 0cbd
000003c0: 9945 503c 3324 7e3d a0d6 aa3c c76b 16bd
000003d0: 5d8f 013d 2e00 8f3d c035 a2bd c9d1 5dbe
000003e0: 8236 fcbd c112 b43c 377e 9bbc cf79 89bd
000003f0: b3ae 1b3e 44b2 073e be1c 923d 620a 95bc
0.008186279 0.06621815 0.11014583 0.030636448 -0.04976042 -0.022160448 0.20183462 -0.020298326
-0.012782689 0.029582951 -0.019306444 0.1131196 -0.03862016 0.0058343457 -0.057694316 0.017287841
0.05577631 -0.079215534 0.14009461 -0.030248903 -0.01452047 0.08951112 0.01270391 0.07689929
0.21610028 -0.02767413 0.028465355 -0.0030446148 0.14130057 -0.16890463 -0.07189464 0.12045172
0.0057204734 -0.19475298 0.02855988 -0.16434477 -0.05992825 -0.0036398973 -0.0767137 0.06202506
0.070730105 -0.056672968 -0.024686022 0.14383908 -0.19194545 -0.11519096 0.016712084 -0.021875404
0.009998985 -0.097832866 0.117146865 -0.047079302 -0.00979789 0.036440358 -0.026366668 -0.1307136
-0.065732054 0.10151862 -0.008649508 -0.2800092 -0.20758171 0.033553917 -0.14136708 0.23884456
-0.08227239 0.13307923 0.006027914 0.14645866 -0.1487104 0.06568561 -0.04549739 0.14857262
0.022408528 -0.14654338 0.0080616195 -0.069685705 -0.1576639 -0.16700032 0.055479728 -0.023824641
-0.027800623 -0.04780145 0.05376502 0.13270313 -0.26735005 0.00288601 -0.062236995 -0.08864196
0.069514595 0.02977283 0.15998197 0.10325454 0.018107917 -0.07161696 0.055989042 0.14769426
0.08194422 0.00063935225 0.10739479 0.056703012 -0.15736727 -0.015626147 0.0025352938 0.028493628
-0.098264866 0.017120473 -0.114031374 0.042724125 -0.10211179 0.07832311 -0.016414309 -0.011492444
-0.029849218 -0.033910584 0.08954228 0.027171038 0.061962076 -0.16367222 0.091727525 -0.11882716
-0.018726429 0.023171926 0.06840407 0.10694956 0.008817664 -0.059475757 0.061744776 0.07762741
0.11957799 -0.14785759 -0.18675667 0.10219269 0.013819325 0.14675424 0.15160117 -0.08323236
-0.15808985 0.09532161 -0.061261497 -0.035356626 0.13545822 -0.11530326 -0.06205034 0.0949467
-0.05608454 -0.10463287 0.011473325 -0.19388704 -0.091284506 -0.07238873 0.17095307 0.10076155
-0.11124887 0.090351865 0.06135393 0.2438326 -0.06880576 -0.018469349 0.052056216 -0.076975465
-0.10336793 -0.037285775 0.1947714 0.18156865 -0.03123025 -0.13662532 -0.021235302 -0.24869144
0.06382333 -0.13845605 -0.13962805 -0.049756262 -0.0977146 -0.04864402 0.08418695 0.12982649
-0.08429418 0.0555644 -0.09426596 -0.08005236 0.0040962514 0.00857526 -0.11335076 -0.21099056
-0.07022263 0.035798725 0.059179418 -0.1943837 0.09793152 -0.26152524 0.0056910054 0.025987916
-0.09821876 -0.015238898 -0.023079813 -0.021969713 -0.20717919 0.17278 -0.07902736 -0.02483117
0.009692508 -0.092899755 0.054697428 -0.040825 -0.24761751 0.09981094 -0.20604089 -0.15625232
-0.09010508 0.045504797 0.08563455 0.0009443466 -0.024837013 -0.039092537 0.041547086 0.024713313
-0.0043081664 -0.04996268 0.1562919 -0.08533742 0.067943364 0.037531495 0.11124361 0.09853983
0.09549232 0.07733385 0.1680115 -0.17951477 0.020303015 0.014436462 -0.17439567 0.11329503
-0.05502582 -0.011213983 -0.097364984 0.047679823 -0.007261877 0.011523861 -0.057316404 -0.03438951
0.012711906 0.06204624 0.020854294 -0.03672388 0.031630863 0.06982456 -0.07920408 -0.21662058
-0.12315084 0.021981599 -0.018981082 -0.06712686 0.15203361 0.13251597 0.071343884 -0.018193427

network_body._body_endoder.seq_layers.4.bias f4 [256]
00000000: 4ae2 b9bd b6fc ae3c df47 bcbd e77d e83c
00000010: 3ea5 a03d e82d 91bc b7bc 713d 2d68 e43b
00000020: c1ac 10bc fd21 babd c869 8abd e1a7 403d
00000030: ad07 e2bb d419 1c3d 65cd 613d d4fe dabb
00000040: 8152 5ebc 341b f23d 5bb6 1c3c 28b1 a93c
00000050: 1a09 613c 453a 02be 9b9e 1f3c b88e 0ebb
00000060: 4162 c2bc 17b6 2c3d 72de 9e3d d10c 4bbd
00000070: dbff adbc 2594 29bd 71e3 3b3d 0571 c53c
00000080: c406 afbb a351 babb dae7 34bd 9d23 4c3d
00000090: bef3 943d 8c52 00bd a854 e83c c6fe 1ebd
000000a0: 7066 443d e0d3 11bc e925 58bd cb8e be3c
000000b0: 7519 93bd 054a 80bd 8f8a bebb 6f27 e6bc
000000c0: 2575 9c3d d978 063c 1038 1cbd 97d4 c43c
000000d0: b644 1dbd e68a 36bd 6fc4 78bc 3024 a2bc
000000e0: 3c36 393d e88d 1f3e d058 e0bc 8fec c53b
000000f0: c72f 803c 322e 81bc e254 ef3b 0c7a cebc
00000100: 652d 813d 9671 9dbd e353 e5bc 7628 2fbd
00000110: b438 0d3d d528 8ebc c4e9 6dbd 354f 113e
00000120: 6d13 313d 943c 22bd 5bbd 2bbd 1d54 28bc
00000130: 8c3a 0fbd faef ccba 1ce3 a53c cc2d b73d
00000140: 8c1c e4bc dc99 113c bb2a 763d 15e7 633d
00000150: b868 bc3d 93e3 db3c 494c 9bbc c95d fdbc
00000160: 6b54 c9bb c991 b0bc 8f97 5fbd 2e12 14bc
00000170: d183 2fbd 9931 8d3c ce3f bf3d 861f 7d3c
00000180: 21b8 0cbd 858b 423e 05bf 69bd d8d5 60bd
00000190: 2d66 2b3d 5ee2 5dbc af52 5b3c 39ab 6c3b
000001a0: a290 97bd bd3a 14bd b063 093d eba0 0f3e
000001b0: 2abc d13c d930 cc3a 9b61 0b3e 8d12 123e
000001c0: 78bd f4bc a0b2 92bc 61b6 a2bb 2736 c0bc
000001d0: 84eb 9cbd a142 bd3c ae06 d1bb d150 bf3d
000001e0: 9f9a e7bc 51a1 56bd d776 6bbd cf6f 41bd
000001f0: 438e 8dbd a4b9 d2bc cd02 53bd 954b 5a3d
00000200: 9b52 ba3d 5e36 c0bc d8d4 76bd 83c2 60bb
00000210: feb3 fe3a e169 073d a404 203d 4d01 ea3d
00000220: 9a11 aabc fa7d 6c3c 7551 623d 2eab 723c
00000230: 28b9 cdbb ba60 243d ef23 113e 5393 b93b
00000240: 2ba0 a33d b2a3 0ebd d911 063d 5d38 8ebd
00000250: d199 24bd 1d40 7c3d af05 1b3d 0360 a0bd
00000260: 7d6d 883c 2964 8e3c 0a9f b43d ea33 a6bc
00000270: 93e4 723d 4ba1 e4bb 0534 44bd ebbf 303d
00000280: 2c56 d4bc 6b88 1bbd 84b4 67bc 0163 6fbc
00000290: 4707 843d e069 213d 7fbd 0b3d 15a1 82bd
000002a0: c2a8 2abd dcb5 813c 390c c7bb 3305 24bd
000002b0: 340e 1cbd cce5 c2bb bd3b 13bd 1d05 17bd
000002c0: 675f 7abd c62e 68bb bc4f df3d 1d15 e5bc
000002d0: 39e9 3fbd 26a0 8fbd 64cc 9fbd cc62 7cbc
000002e0: 836d f0bd 93ab d23c c583 08bd 1550 d33c
000002f0: 7ce9 b53b ea45 c7bc 830c 833b 20af 7e3d
00000300: 4799 bf3c dc71 a6b8 10bf 31bd 4152 cb3c
00000310: 3e59 9a3a 297b 2bbd d7a6 9bbd fc09 95bd
00000320: 8ad0 b339 1416 c03b 61bd 99bd 84fd f7b9
00000330: b6d3 5239 6129 9d3d 6fa7 013b c11d ddba
00000340: 0d8b 67bc 097d ffbc 9d72 cebc 34aa 80bd
00000350: 1209 f6bc 97fe 63bd b41f cd3a 1afc e0bc
00000360: f137 d4bb 7336 bcbd f230 93bc df7a a83c
00000370: 9268 7abc 45ef 893d c2f2 3e3c 8cfd 203c
00000380: ac4a fc3c 19ba 47bd 504a 83bd bc69 d6ba
00000390: 8ba7 e83c 428d f8bb 0b16 e2bc bd4d 05bc
000003a0: 09a0 103c ecc2 9b3d 39d8 2cbc 6763 143d
000003b0: d939 59bd 2ca1 21bc 0e4b f63c fb8b 863c
000003c0: a2d5 373d 43e7 a0bd 56bd 3f3c 083b c3bd
000003d0: e29c 7cbd 5761 d53d 4d2c ccbc ba18 4ebd
000003e0: e040 b1bc a230 1d3d 7e7d 8ebc 467f 44bd
000003f0: 8500 aa39 a3bd 0dbd 4a14 ebbc 8721 ec3c
-0.09076364 0.021360736 -0.09193396 0.028380347 0.078440174 -0.017722085 0.059017863 0.0069704265
-0.00883025 -0.09088514 -0.067584574 0.0470351 -0.0068978877 0.03811057 0.05512752 -0.00668321
-0.013569475 0.11821595 0.009564961 0.020714357 0.01373508 -0.1271754 0.009742404 -0.0021752547
-0.023728492 0.042165842 0.07757272 -0.04957277 -0.021240165 -0.041401047 0.045871202 0.024101743
-0.0053413827 -0.0056860014 -0.044166423 0.04983865 0.07273053 -0.031328723 0.02836068 -0.03881719
0.047949255 -0.008900613 -0.05277053 0.023261448 -0.0718259 -0.06264118 -0.0058148573 -0.028094975
0.07639531 0.008207523 -0.038139403 0.024027152 -0.038395606 -0.044566058 -0.015183552 -0.019792646
0.045217738 0.15581477 -0.0273861 0.006040163 0.015647782 -0.015769098 0.00730382 -0.02520468
0.063074864 -0.076876804 -0.027994102 -0.042763196 0.034477904 -0.017353455 -0.058084264 0.14190371
0.043231416 -0.039608553 -0.04192863 -0.01027396 -0.034967944 -0.0015635483 0.020249896 0.08944282
-0.027845643 0.008886781 0.060099345 0.0556403 0.09199661 0.026841914 -0.018957274 -0.03092851
-0.0061440966 -0.02155389 -0.054587897 -0.0090375375 -0.04285032 0.017235564 0.09338342 0.01544941
-0.034355287 0.18998535 -0.057066936 -0.054891437 0.04184549 -0.01354274 0.0133864125 0.00361128
-0.074006334 -0.03618883 0.033542335 0.14026229 0.025602419 0.0015578523 0.13611452 0.14264889
-0.029875502 -0.01790744 -0.004965589 -0.023463322 -0.076621085 0.02310306 -0.00637897 0.093415864
-0.028271971 -0.052399937 -0.05748638 -0.04722577 -0.069119 -0.025723286 -0.051516343 0.053294737
0.09097787 -0.023463424 -0.060261577 -0.0034295626 0.0019432304 0.03305996 0.039066926 0.11426029
-0.020760346 0.014434332 0.055253465 0.01481132 -0.006278176 0.04013131 0.14173864 0.0056633144
0.07989534 -0.03482408 0.032731865 -0.06944344 -0.040185753 0.06158458 0.037847217 -0.07830813
0.01665377 0.017381744 0.08819397 -0.020288426 0.059300017 -0.0069772354 -0.047901172 0.043151777
-0.025919996 -0.037971895 -0.014142159 -0.014611007 0.064467005 0.03940761 0.034116264 -0.0637838
-0.041664846 0.015833788 -0.006074455 -0.04004402 -0.038099483 -0.005947804 -0.035945643 -0.03687011
-0.06112614 -0.003542827 0.1090388 -0.02796417 -0.046853278 -0.07012968 -0.07802656 -0.015404414
-0.11739638 0.025716579 -0.03332879 0.025795022 0.005551515 -0.02432533 0.0039992942 0.06217873
0.023388518 -7.936705e-05 -0.043395102 0.024819495 0.0011775864 -0.0418655 -0.076001815 -0.07277295
0.00034296914 0.005862007 -0.07506824 -0.00047300395 0.00020106029 0.07673908 0.0019783636 -0.0016869829
-0.014132273 -0.031187551 -0.025201136 -0.06282464 -0.030033622 -0.055662718 0.0015649707 -0.027463961
-0.0064763953 -0.09190073 -0.017967675 0.020566402 -0.015283721 0.0673509 0.011654558 0.009826075
0.030797325 -0.04876146 -0.06410658 -0.0016358416 0.028400203 -0.0075851986 -0.027598402 -0.00813621
0.008827218 0.07605538 -0.010549598 0.03622761 -0.053033683 -0.0098650865 0.030065086 0.01642417
0.04488147 -0.0785661 0.011702856 -0.09532744 -0.061673053 0.10418957 -0.024923468 -0.05031655
-0.02163738 0.038376458 -0.017393824 -0.04797294 0.00032425314 -0.03460468 -0.028696198 0.02882458

action_model._continuous_distribution.log_sigma f4 [1, 35]
00000000: 6998 91bf 235d 55bf 1824 95bf fe37 d4bf
00000010: 96b9 1ebf 97b5 debf c998 2ebf e52b a9bf
00000020: df7f b8bf fdb7 81bd 2870 303f 809c 2a3f
00000030: 8260 6abb 6f74 6d3f 4391 5e3f aec3 92bf
00000040: a150 16bf 9c5f 88bf 76bf 11bf 6870 a3be
00000050: 5a3f 8ebe ce8d 59bd 2125 8bbc c6aa a33d
00000060: 7c3f e93e 667d 81bc 9705 293e 186d fe3e
00000070: dfb2 253d f4c3 423d f216 c63e 5d02 113f
00000080: e290 063f e375 073f 14f1 fd3e
-1.1374637 -0.8334524 -1.165164 -1.6579587 -0.6200193 -1.7399167 -0.6820188 -1.321652
-1.4414023 -0.06333921 0.68921137 0.6664505 -0.003576309 0.9275579 0.869404 -1.1465967
-0.5871678 -1.0654178 -0.5693277 -0.31921697 -0.27782708 -0.05311375 -0.016985478 0.07991557
0.45556247 -0.015806865 0.16506039 0.49692607 0.040453788 0.047550157 0.3868938 0.5664423
0.52564824 0.52914256 0.4959799
