npcmake/onnx list/Walker 2.onnx (onnx, 293127 bytes, 13 tensors)

network_body.observation_encoder.processors.0.normalizer.running_mean f4 [35]
00000000: 7daf cb3d 8326 003e 0000 0000 6180 463f
00000010: b067 653f 4098 1e3e f52d a539 0000 0000
00000020: 8944 583f ec61 6f3f 2953 033e e751 9c39
00000030: 0000 0000 4418 5f3f 90f0 723f 8fed 3a3e
00000040: f646 2f37 0000 0000 d543 513f 5e1c 6c3f
00000050: b697 113e d998 ee36 0000 0000 2799 5b3f
00000060: e749 713f 4ad3 493e c25b 4237 0000 0000
00000070: 608a 4d3f 861a 6b3f 0d0d 233e 67f4 ca35
00000080: 0000 0000 833c 573f 9584 6f3f
0.09945581 0.12514691 0.0 0.7753964 0.8961134 0.15487766 0.00031505493 0.0
0.84479576 0.9350879 0.12824692 0.0002981566 0.0 0.871464 0.9489832 0.18254684
1.0447335e-05 0.0 0.8174413 0.92230785 0.1421803 7.1107465e-06 0.0 0.85780567
0.9425339 0.19709507 1.1584665e-05 0.0 0.8028927 0.91837347 0.15922947 1.5121303e-06
0.0 0.8407671 0.9356168

network_body.observation_encoder.processors.1.normalizer.running_mean f4 [225]
00000000: 2271 f13f f344 f03c 2b97 02bc 3d16 4c3e
00000010: c2d2 faad 0000 0000 3735 0340 4adf c93c
00000020: 3706 bb3c 0c88 913b 590b 743f d464 01bb
00000030: e22c 8a3c f3d3 3e3b d882 773f 578b b3bb
00000040: bcc8 2b40 265b 1542 6ea9 8d3a fb72 5239
00000050: 3685 193d 341f 5f3d 9115 583e af90 4b3e
00000060: b789 90bc 053e 84bd 2260 8aab e8b1 5627
00000070: f0b4 9bab 8b05 b2ba 9f64 813d 1d35 a83b
00000080: 1b76 2b3d 8a70 ae34 dd94 3e3b 42cb f73c
00000090: ae76 eebc cf94 4b3e cabb d1be 9cb6 473e
000000a0: e427 983c 6274 1538 7a49 203e efdb 853b
000000b0: d23a 213c 9a74 47bd 71cd c43c cc00 783f
000000c0: 8cc6 3e3f 7c05 2133 ef83 a838 d718 593c
000000d0: 54fc 65bd 50fc 333e 057f d7bc 1aab cc3d
000000e0: afb2 b4bd da60 9fbc 0b07 033f eb78 9ebc
000000f0: 1422 0c3d 738d 093d 2fd9 973a cc64 773f
00000100: 695e 513f a7d2 2b3b 9636 593b a07b 093d
00000110: c366 d1bc 2516 733e 3531 b53e fef6 19bc
00000120: 57bf 33be 4353 e1bd 4948 02bb 335d 553b
00000130: b4ff 6a3f 4ed7 d2bd 27f6 903c e69f a23e
00000140: c8b2 3f3f d206 7c3c 7640 d538 1fd6 b83c
00000150: 8ad2 1cbc a4ca 2b3e 0c61 34bd 499c 81bd
00000160: 6264 5bbe f742 3bbe 9087 4abe 095a 333e
00000170: 5ccc 0a3f 19a7 bbbb c260 3f3c 2be9 533f
00000180: c679 4f3f 45da 6b3e 74f4 bc3a 3ca2 243c
00000190: a3be f5bc bbbe 483e 48b6 193d f8f3 cdbc
000001a0: 65a5 613e 2725 76be 7319 05bf 2f41 0c3d
000001b0: 4d42 38bf e7fd 803d 0de0 40bd 8deb 283f
000001c0: 3894 1c3f efad 623b a086 e83a cc26 c93c
000001d0: dc89 373b de35 733e fd01 1f3f 0c00 16be
000001e0: 9dd4 f73b b75e e13d 7e1b 96bb 4eaa f33b
000001f0: af80 713f 382f 943d c0a2 d4bb 8a05 8c3e
00000200: fd08 423f 4ef6 693c 7323 083a ddc1 fb3c
00000210: e760 cdbc f0bf 353e 0a77 68be 6742 a9be
00000220: bfd7 69be 55d2 153e cd7e 55be ed63 253e
00000230: 3da7 013f 83b7 7a3c 437f 153c 6b93 583f
00000240: 1290 423f 169a 9f3e 64b6 023b fd6b 3c3d
00000250: ff64 13bd 8c03 403e 6777 36be 0c1f 69be
00000260: a220 853e 976d 433e c039 05bf 1836 dc3c
00000270: ddce 38bf d82b e83c 5a80 6c3d 44bf 283f
00000280: c173 173f 62a1 4c35 24ab c73a b7f0 233d
00000290: 01f0 573b 18d9 513e e941 9cbe 25fa 5fbd
000002a0: 64d7 a5be 0aae 3fbe 972c c63e bf18 83bd
000002b0: db98 5d3f e10a c0be 35a8 08bd 4d77 f33c
000002c0: 8e2c 313f 0ef5 563a 643d 583c 46f4 0d3d
000002d0: a897 943c cce9 363e 5c34 40be fdcb 0abd
000002e0: 6942 60be 1542 96be b38f 7c3e 2761 7ebd
000002f0: 86aa 50be 5b1f b0ba ff4b 393c 04ac 713f
00000300: eba5 1c3f 659a 9334 72ac 003b 2141 0c3d
00000310: 3a9c 8d3b cfb4 5a3e 6fd3 20be d745 29be
00000320: 9bb5 463e b3c7 303e 8702 d33e 5c45 e9bc
00000330: 2e52 6a3f 9b61 3a3e d224 f5bc 4d28 ffbb
00000340: 7cf3 343f 0fe2 0d3a 268e 793c 2df6 c33c
00000350: 5c24 cb3c 1c6f 513e dee1 7abe c077 f1bd
00000360: 629e 2d3d 52c8 6e3e 3d37 7d3e 3a73 77bb
00000370: 42d9 a2be a7ac 4737 28ee 62bc a9e5 663f
00000380: 9bce 143f
1.886265 0.029329753 -0.007970612 0.19930358 -2.8515305e-11 0.0 2.050123 0.024642605
0.022830112 0.004441267 0.95329815 -0.0019743936 0.016867105 0.002911803 0.96684027 -0.005479257
2.6841269 37.339012 0.001080794 0.00020069994 0.037480555 0.054473117 0.21101977 0.19879411
-0.017643793 -0.06457142 -9.832172e-13 2.979491e-15 -1.1063633e-12 -0.0013581974 0.0631802 0.0051332847
0.04186068 3.2491909e-07 0.0029080429 0.030248288 -0.029109325 0.19880985 -0.40963584 0.19503254
0.018573709 3.563276e-05 0.15653029 0.004085056 0.009840684 -0.048695184 0.024023743 0.96876216
0.7452171 3.749072e-08 8.035439e-05 0.013250551 -0.056148842 0.17576718 -0.026305685 0.099935725
-0.08823144 -0.019455362 0.5118262 -0.019344768 0.034212187 0.033582162 0.0011585111 0.9663818
0.81784683 0.0026218088 0.0033144108 0.033565164 -0.025561696 0.23738916 0.35389104 -0.009397266
-0.17553459 -0.11002209 -0.001987951 0.0032556772 0.9179642 -0.10294972 0.0176955 0.31762618
0.74882174 0.015382485 0.00010168638 0.022563038 -0.009571681 0.1677652 -0.044037864 -0.06328637
-0.21425012 -0.18287264 -0.19778275 0.17514814 0.5421808 -0.0057267067 0.011680784 0.8277766
0.81045187 0.23032482 0.0014416114 0.010048445 -0.02999813 0.19604008 0.037527353 -0.025140747
0.2203575 -0.2403761 -0.5199196 0.03424185 -0.71976167 0.06298428 -0.04708867 0.6598442
0.61163664 0.0034588536 0.0017740317 0.024554633 0.0028005755 0.23751017 0.6211241 -0.14648455
0.0075631873 0.110043935 -0.004580914 0.0074360734 0.9433698 0.07235569 -0.006489128 0.27347976
0.75794965 0.014279915 0.00051932706 0.03073209 -0.02507062 0.17749 -0.2270166 -0.33058473
-0.22836207 0.14631017 -0.20849152 0.161514 0.5064581 0.015302542 0.00912458 0.8459994
0.76001084 0.31172246 0.001994514 0.046001423 -0.03598499 0.18751353 -0.17818986 -0.2276575
0.2600146 0.19084774 -0.52041245 0.026881263 -0.7219065 0.028341219 0.057739593 0.6591685
0.59161 7.6230765e-07 0.0015233499 0.040024485 0.003294945 0.20492971 -0.30519035 -0.054681916
-0.32390893 -0.18718734 0.38705894 -0.06401204 0.86561364 -0.375083 -0.03336354 0.029719973
0.6920861 0.0008199968 0.01319823 0.034656785 0.018138722 0.17862624 -0.18769974 -0.033885945
-0.21900333 -0.29347292 0.24664192 -0.06210437 -0.2037755 -0.0013437079 0.011309623 0.944031
0.6119067 2.749322e-07 0.0019634035 0.0342418 0.004321602 0.21358036 -0.15705656 -0.16530548
0.19405214 0.17263679 0.41212866 -0.028475456 0.91531646 0.18201296 -0.029924784 -0.0077867866
0.7068403 0.00054124085 0.015231645 0.023921097 0.024797611 0.20452541 -0.24500224 -0.117904186
0.042387374 0.23318604 0.24728103 -0.003775789 -0.3180638 1.1901523e-05 -0.013850726 0.90194184
0.58127755

network_body._body_endoder.seq_layers.0.weight f4 [128, 260]
00000000: d03a 8b3c c83e b0bd 889a ddbc 66cb 00be
00000010: fa2b 7abd 524b a63a f9a9 233d d97a b5bd
00000020: c0d7 80bd ce7f 043c abec 823c 81b2 9e3d
00000030: 0785 013e 498d be3c c116 1abe 592a aabd
00000040: c7db 953d 2a55 e33d c227 2b3b 7233 2bbd
00000050: 7f02 ea3b 2d7b 163e 1746 ee3a f275 debd
00000060: 653c ce3c 4822 063d fec7 533d 6463 9f3d
00000070: fde6 4b3d 398d 733d fdc9 93bc 705e bfba
00000080: 43a6 c3bd 69a6 333e f601 54bd 86f2 5d3d
00000090: c7cf b3bd c90e 3f3e 6edb 2e3e 7c39 59bc
000000a0: 5165 973d 6e11 c3bd 1449 11be 626e 963c
000000b0: 1447 89bb db83 de3d b27a 56bd 0c3c 763d
000000c0: 5dae 29bd 4735 d03c 7454 dabc 63a9 a83c
000000d0: 093b 793d 3c22 13bc 3f32 a0bc e33a 02bd
000000e0: 301a 213d 4029 273e 113e 0c3e bb6d 053e
000000f0: 9885 bd3d a39f 8ebd 4c3a a4bb d941 7d3d
00000100: 8baa c23d 779a cdbb 9841 1cbe a138 fe3d
00000110: 53a4 ffbd a508 943d 5cf2 56be 3e9a b43d
00000120: 55ef 663e 88e5 e63d b575 833d 7e13 473d
00000130: d009 17be d5dd 7abc b9a7 6f3e 228b 9abd
00000140: b93a febc 8039 3f3c 9273 843d c2b6 183d
00000150: b0c0 ce3d 5f4a 60bd 9ce7 49bd 54e6 253e
00000160: 74b4 993d aed5 493e f99a 0bbe 906b cd3c
00000170: 9deb d5bb c844 e43d b7e9 c23d 0ac0 b4bd
00000180: eb01 87bd 3b21 a93d 845e febc a792 983d
00000190: ac04 073d bde1 473c fb76 a7bd ffd1 ce3d
000001a0: 4b51 123e 25d6 28be c757 363d 9a09 003c
000001b0: 0821 e8bd 3889 26bd 2615 54be 8f24 273c
000001c0: b1a2 45bd 5ec8 493e 200b b83c b35c 21bc
000001d0: a9fe 85bc a61e 08bd dbd9 2a3e c0be 71bd
000001e0: f606 a33d a357 233d 3c88 23bd 3b5d b0bd
000001f0: 6717 0c3d 4c68 53be 6ffd abbd d4fb 1e3c
00000200: 1de8 31be 9962 ee3d 9b5e 33be 66c4 80bc
00000210: d1ca efbd 0f2d 5bbd 6208 6f3e ffe4 603d
00000220: 5d6f 96bd afaf 93bc c6dc 6cbd 3aa2 bc3d
00000230: 6adc 413e 8fc6 a83a ac30 e9bd a794 27bd
00000240: 9575 0dbd 69e8 b8bd befd 063e 8b56 163c
00000250: 44b3 113d 9c7e b1bb 3246 d0bc 10b4 b43d
00000260: 0403 763d 0924 603d dee6 5fbd b379 eabc
00000270: 8773 a2bc f250 e13d efc8 de3d a0c7 243d
00000280: 087a 98bd 929f 093e 3746 273d 3a41 bf3c
00000290: 3977 1b3c 371b 43bd 814b 9b3d c39b 2d3d
000002a0: c9a9 41bd 9ae4 97bc 527f a3bd dcee 903d
000002b0: efcd 293e a7a5 2fbe 13e6 b93d ec50 d6bc
000002c0: c4c4 9abd ed76 bbbd de51 7e3d ddc4 32bd
000002d0: 012d e7bb 81ab d83d ed74 453d 4e59 d63d
000002e0: 8c9f 403d ddae 3fbd 0e65 c23d 1021 723d
000002f0: 1949 a93d 57fd e8bc 0638 14be d2b6 093d
00000300: 768d 933d 3651 8cbd 54eb 453d 3a6c 183e
00000310: 97b3 d7bb fed8 403d f7ad 853c 6e34 4d3e
00000320: c0f5 a53d e03a ac3d ccd3 243d 30cc b7bd
00000330: d59b 80bd 26b5 e63d 22dc 023e 182a 8bbd
00000340: 2389 bdbd 9eef 0d3d 83ad d9bd baee 22be
00000350: 540e 4e3e 2605 8c3c 7f39 4fbe 2252 b7bc
00000360: 6c1a 0a3e 3eed d236 1cfd 0c3d 27d6 1d3d
00000370: f4b2 70bd 62bd f03d e721 a3bd bb34 393d
00000380: 5e98 8abc fc4d dabd 0f26 00be f2ee 0fbd
00000390: d533 873d 6c4a a0bd 83d8 6dbd 0e9b 9d3d
000003a0: 0d78 0b3e 6a1f 4d3c e34a a13c 9649 da3c
000003b0: af62 d0bc 8031 373e 27b9 c23d a5ba bc3c
000003c0: a45e b7bb 5ded 673c cc41 d83d b5b2 2a3b
000003d0: 4e43 5ebe de08 0c3d 4923 38bd 7e4b 433e
000003e0: 7ff8 c3bd 3421 df3d 1fa5 dd3c 5026 98bd
000003f0: 1b18 1ebd bbb4 7e3d df54 5f3e 2a8a 1abe
0.016995817 -0.086057246 -0.027051225 -0.1257759 -0.061077096 0.0012687242 0.03995702 -0.08861322
-0.06291151 0.008087112 0.015981993 0.07748891 0.12648402 0.02326073 -0.15047742 -0.083088584
0.0731731 0.11100228 0.0026116227 -0.04179711 0.007141411 0.14695425 0.0018178847 -0.1086234
0.025175283 0.032747537 0.0517044 0.07782629 0.049780834 0.059460852 -0.018040651 -0.0014600288
-0.09553196 0.17543949 -0.051759683 0.054186366 -0.08779865 0.18657984 0.17075893 -0.013258334
0.073923714 -0.09524809 -0.14188033 0.018363182 -0.0041893814 0.10864993 -0.052363105 0.06011586
-0.04142605 0.02541603 -0.026651599 0.020588582 0.060847316 -0.00898033 -0.01955521 -0.03179444
0.039331615 0.1632433 0.13695551 0.1303014 0.092539966 -0.06964042 -0.0050118323 0.061830375
0.09505185 -0.006274517 -0.15259397 0.12413145 -0.12482514 0.07228211 -0.2099089 0.08818482
0.22552235 0.11274248 0.06418935 0.048602574 -0.14749837 -0.015311678 0.23403825 -0.07546069
-0.03103386 0.011671424 0.06467356 0.037283666 0.10095346 -0.054758426 -0.049293146 0.16201144
0.07505122 0.19710419 -0.13633336 0.025075704 -0.0065283314 0.111459315 0.09517234 -0.08825691
-0.06592163 0.08258291 -0.031050928 0.07449847 0.03296344 0.012199816 -0.081769906 0.10098647
0.14288823 -0.1648794 0.044517305 0.007814789 -0.11334425 -0.040658206 -0.20711192 0.010201587
-0.048250858 0.1970534 0.022466242 -0.009848761 -0.016356783 -0.033232354 0.16684668 -0.059019804
0.07960312 0.0398785 -0.039924845 -0.08611532 0.034202006 -0.20645255 -0.08397948 0.009703595
-0.173737 0.116399 -0.17516558 -0.01571865 -0.11708606 -0.053509768 0.23343042 0.054905888
-0.073454596 -0.018028108 -0.057827733 0.0921063 0.18931738 0.0012876558 -0.113862365 -0.04091325
-0.034535963 -0.09028704 0.13182732 0.009175907 0.03557135 -0.0054167043 -0.025424097 0.08823407
0.06006147 0.054721866 -0.05466353 -0.028622484 -0.019830478 0.11001767 0.10878169 0.04022944
-0.074451506 0.13439777 0.040838446 0.023346532 0.009488874 -0.047633376 0.075827606 0.042384874
-0.04728106 -0.018541623 -0.07983269 0.07076809 0.16582464 -0.17153035 0.09077086 -0.026161633
-0.07557061 -0.09153543 0.062089793 -0.043644775 -0.0070549254 0.10579587 0.048207212 0.10466252
0.047027156 -0.046797622 0.09491931 0.059113562 0.082658954 -0.028441114 -0.14474496 0.033621617
0.07204716 -0.06851427 0.04832013 0.14885035 -0.006582688 0.04708194 0.016318304 0.20039532
0.08103514 0.08409667 0.040241048 -0.089744925 -0.062797226 0.1126502 0.12779287 -0.06795138
-0.092546724 0.034652345 -0.10628798 -0.1591138 0.20122653 0.017092299 -0.20236777 -0.022378031
0.13486642 6.2861063e-06 0.03442107 0.03853431 -0.058764413 0.11754872 -0.07965451 0.045216303
-0.016918357 -0.106594056 -0.12514518 -0.035139985 0.06601683 -0.07826695 -0.05806781 0.0769559
0.13620014 0.012519697 0.01968903 0.026646417 -0.025437681 0.17889977 0.09507971 0.023038218
-0.005595999 0.014155713 0.10559425 0.002604646 -0.21705362 0.034188144 -0.044955526 0.19071767
-0.09568881 0.10895005 0.027056275 -0.074291825 -0.038597208 0.062184077 0.2180972 -0.15091768

network_body._body_endoder.seq_layers.0.bias f4 [128]
00000000: 6caf a83c 6777 eb3d 8636 c93b 8510 a43d
00000010: ca2a 6a3d 9fe6 acbd 4be6 2fbd f0c4 23bd
00000020: 0ea0 c73d a19f c03d cada 833d beb2 a93c
00000030: dbef 383e 5a9a c1bd 3504 96bc 016d a33d
00000040: 69fa fa3d 70dd 1f3d b3ed 6a3d ea42 063e
00000050: b3f0 81bd ad98 ae3d 7fa8 463d 7b33 983d
00000060: 258a b03d ab49 833d 69e7 d6bc 68a8 093d
00000070: fb99 83bd 851d 6abd 593c 89bb 4686 923d
00000080: f6f5 233c 4e20 983c a455 303e b822 8a3d
00000090: 146f c33b dc0d f93c 8e65 8b3e 725b c13b
000000a0: 1c6d 353c 61b1 b43a 3b3e b13d b420 7f3d
000000b0: c80b d3bc 37f5 293e 614a cbbc a4ef 43bb
000000c0: d9ad 80bd aebd e1bd 1805 863d 267c 9f3b
000000d0: 12bd 3abd 9d53 633c 8c90 433d c7b3 333e
000000e0: a9b4 9d3c 39b3 f03c 8507 ac3d 8600 a53c
000000f0: 8344 a83d ce64 353d d292 5f3c 4379 beba
00000100: faa5 d33d 3948 cb3d 5ab0 a73b 3e55 09be
00000110: ab86 003e ec8a 9b3d c4db 81bd ef9a 8a3d
00000120: 9bed c53d 8eae eb3b c771 5d3d 26e7 5fbd
00000130: 64e9 263d 4ddb 32bb 0c1f f5bd 62ef ea3c
00000140: 9d39 443c ad66 6c3d 18cc a73d 250d 5c3d
00000150: 18ca 13bd 100f 7ebb 398d 173e d2f9 2cbc
00000160: f2ad 90bd 6e5f 203d 7c00 343e 6068 07be
00000170: d6ae 4d3c 54ae eebc 9b59 e83c 2859 c43d
00000180: 9776 0e3e 5b72 7c3d 7288 90ba f473 953c
00000190: 4dc4 6a3e 8a53 a63c 4c19 42bd 2865 9a3d
000001a0: d415 903d c185 b53d ab02 073e b5db 173e
000001b0: 9934 933d 717c 0e3e 5df3 6e3d bef2 abbd
000001c0: 01b4 7a3c 1b9e 373c 64fe 72bc 225f 753c
000001d0: f3ca 9a3d 6115 43bb 4ffb cb3d d3fd 17bd
000001e0: 4fd7 78bc ef5f 0cbc 0b56 aebd 6e48 0f3e
000001f0: cde2 80bd b1fb 4639 be89 63bd 4165 8fbc
0.02059146 0.114973836 0.006140533 0.08010963 0.057169713 -0.08442425 -0.042944234 -0.039982736
0.09747325 0.09405447 0.06438215 0.020715114 0.18060248 -0.09453268 -0.018312553 0.07979775
0.12254793 0.03902954 0.057355594 0.13111463 -0.06344738 0.08525214 0.048500534 0.07431694
0.08620099 0.064105354 -0.026233392 0.03360787 -0.06425854 -0.05715706 -0.004188102 0.07154517
0.010007372 0.018570092 0.1722017 0.06744903 0.0059641693 0.030402116 0.27225918 0.0059007937
0.011073377 0.0013785773 0.08654448 0.062287048 -0.025762454 0.16597448 -0.02481574 -0.0029897476
-0.06283159 -0.11022507 0.0654394 0.0048670946 -0.045590468 0.013874915 0.047745273 0.17549048
0.019251185 0.029382335 0.08399872 0.020141851 0.082161926 0.044285588 0.0136458445 -0.0014531988
0.10334392 0.09925885 0.0051174583 -0.13411424 0.12551372 0.075948566 -0.06340745 0.067678325
0.0966446 0.0071924394 0.054063585 -0.0546638 0.040749922 -0.0027291358 -0.11968812 0.0286786
0.011976627 0.057715107 0.08193225 0.053723473 -0.036081403 -0.0038766302 0.14799966 -0.010557609
-0.070644274 0.03915351 0.1757831 -0.1322341 0.012553891 -0.02913586 0.02836304 0.09587318
0.13912426 0.061632495 -0.0011026992 0.018243767 0.22926445 0.020303506 -0.047387406 0.07538825
0.070354134 0.08863402 0.13184611 0.14829905 0.071877666 0.13914658 0.058337558 -0.08395909
0.015301705 0.011207129 -0.014831159 0.014976295 0.07558241 -0.0029767381 0.09960043 -0.0371073
-0.015188052 -0.008567794 -0.08512505 0.13992473 -0.06293259 0.00018976514 -0.055551283 -0.017504336

network_body._body_endoder.seq_layers.2.weight f4 [128, 128]
00000000: e08f 1a3e 948f 823b ed61 05be 187b 2b3c
00000010: a0db 483e 0d6f c13d a9cb ffbd 8ad5 b83c
00000020: 0ba0 6a3e c013 373c be86 2f3e 1669 f3bd
00000030: d695 aa3c a39a c33c a96d 6ebd 159a d03c
00000040: 5252 c6bc b67c 02be 6a1b 89be 35d5 8c3d
00000050: ff8a 69bd 6292 b33d c932 193e 05e0 843d
00000060: dd40 9a3d 6269 e33c a392 b3bd 10a5 19bd
00000070: d072 3bbe 1293 67be 948a 263d 77cb 5d3d
00000080: ddf1 fa3c 92e4 2ebd 9e73 ce3c a536 81bd
00000090: 4604 233e 581f 7f3d 1a47 f1bd ab7f 51bc
000000a0: 4091 a03d efc4 a6bd 8214 d43c d549 0c3e
000000b0: 44cc 9f3d ea81 ff3c 2788 3f3c 4696 003d
000000c0: b04a 19bc b2c5 963d 14cf 3abe 124c babc
000000d0: 414e 09be 5f67 963b 5b68 403e 4f5e 00be
000000e0: adcd d4bd 8623 19bd 0934 ee39 8f0d 47be
000000f0: 340d 143d 22ef c03d c88d 66bd 81f8 9abd
00000100: 1941 cb3d 7f58 a53c 2cee 753d 5321 383d
00000110: 65dc e7bb e722 7abd f788 483d 2617 67bd
00000120: 7ff1 d7bd 8909 b9bd 8fad 72be 9a35 afbd
00000130: 61a9 11be 2ca6 b0bd 9b32 c1bd 66d3 f2bd
00000140: fff7 ce3d 0ab6 67bd 33d0 6e3e fd98 ba3d
00000150: 521f 1cbd d979 103c afdb 0bbe b150 f7bc
00000160: e1a7 e63d dce7 7a3e 5442 1bbc b97b efbc
00000170: be98 c638 4eee 843e c93a ad3e abb1 71be
00000180: 69c4 703e 5876 c4bd 0cca a43c 8028 b83d
00000190: 2fde 883c 9630 da3d ddcb 893b c805 613e
000001a0: 1b76 7a3d d6e0 10be 7066 013e 585c 1abe
000001b0: 7469 a03d 8464 41bd f792 27be 27b1 6bbe
000001c0: f4f5 2a3e f75c 05be e0e6 9b3b 3529 423d
000001d0: ee18 a3bd c6bc f0bd 2835 cfbd 9851 79be
000001e0: fd69 e9bb 3949 60be 258c c13d 3726 f93d
000001f0: 412d e3bd d247 a03d e3ac 3dbd bb58 0e3e
00000200: 466d 5cbe 3441 0cbe 69d2 d53b b457 60be
00000210: da54 64be cfbf b3bd ddd2 853d f706 f63b
00000220: 39c6 13be 9b2b ddbd 59d7 c33d 5351 4b3e
00000230: 3d13 d03d afa6 ce3c 63e7 603d 3315 333d
00000240: 2cdd 99bd 1931 b33c d5fc c33b 6878 cd3c
00000250: 7e24 06be 6021 dd3c ce5c 63be 7588 54bd
00000260: 970c 9e3d 1a80 6dbd 1161 8cbd f77a 5abc
00000270: 0840 e3bd e888 0f3e e3b7 f5bc 86b2 683d
00000280: eb13 02bc d06b 0fbd a02a 6a3b 7d40 b1bd
00000290: 2baa 7f3d 5b60 4a3e 7469 aabd e2d2 a73c
000002a0: d5f3 993d 5d26 84bd a0ac 7fbd 6cb0 053d
000002b0: 24c4 243d a183 ab3d 83a8 133e 6216 a5bc
000002c0: c345 1f3d ae8b 9e3b 4cf2 1d3e f79b eebd
000002d0: 355e a93d f48c 5bbe 4b94 8dbd baee f5bc
000002e0: d1f3 9abd 36d5 063c a592 81bc dda9 343b
000002f0: 5a46 9f3d 0259 973d 1323 103c 13ad c0bd
00000300: 155f f4bc cb9f 9d3d 28c2 1c3e f70b 413d
00000310: e069 233d ae66 83be 3f63 07be 5701 cebc
00000320: f4a3 1ebe 6565 3ebd 4379 c93b d9e0 8f3d
00000330: e1ed 353e eb5e 5abd fb97 19be e72e 04bd
00000340: 0387 16be 6825 903d f41d eebb da65 d73d
00000350: acfb d73c 5300 b9bd 1297 b03d 78f3 7a3d
00000360: e067 63bc 8b20 21be 93fd 80be 5f96 4f3d
00000370: a3cf 8b3e d4fa 3d3e 3d4d b63d 0aef d0bd
00000380: cb4c 4ebd 2ae6 b4bd 4d17 8c3d acc2 623d
00000390: dee0 70bd c4a7 873e c1b0 023e a66d 5d3e
000003a0: 4ca9 a73c 56ee 62bd 3ea1 0bbe e7a7 19bd
000003b0: ef2a 90bd 645f e0bd 3160 6a3e 6b1e f43d
000003c0: 0719 a1be a6d0 24be 7970 31bc 8901 d3bc
000003d0: 554b 7c3d 1bd1 1c3c a99e 193c 32d4 e63d
000003e0: e09a 8d3d 2711 063c 1d37 db3d ef26 25be
000003f0: ab7f 4f3e 53e5 0e3e 913c d6bb e190 4b3c
0.15093946 0.003984401 -0.13025637 0.01046636 0.1961503 0.094450094 -0.12490017 0.02256276
0.22912614 0.011174142 0.17141244 -0.11885278 0.0208234 0.023877447 -0.05821005 0.025464097
-0.024209175 -0.12742886 -0.26778728 0.068766035 -0.057017323 0.08768155 0.14960779 0.06488041
0.07531903 0.027760211 -0.08768203 -0.03751093 -0.18305516 -0.22614697 0.040659502 0.054149117
0.030632908 -0.04269845 0.025201615 -0.06309251 0.15919599 0.06228575 -0.1178114 -0.012786786
0.07840204 -0.08143031 0.025888685 0.1370004 0.078026325 0.031189878 0.011690176 0.031393312
-0.009356186 0.07361926 -0.18243057 -0.022741351 -0.13408758 0.0045899595 0.18789808 -0.12535976
-0.10390792 -0.037387393 0.00045433667 -0.19438766 0.036145404 0.09420611 -0.056287557 -0.075669296
0.09924526 0.0201838 0.06004159 0.044953655 -0.0070758336 -0.06106844 0.048958745 -0.05641856
-0.105441086 -0.09035022 -0.2369902 -0.085551456 -0.14224769 -0.08625445 -0.0943348 -0.11856727
0.10105895 -0.05657009 0.23321609 0.091112114 -0.038115807 0.008818113 -0.13658021 -0.030189844
0.11262489 0.2450251 -0.009476263 -0.0292338 9.469826e-05 0.25963062 0.33833912 -0.23602931
0.23512425 -0.09592885 0.020115875 0.089921 0.016707508 0.10653798 0.0042052106 0.21974862
0.06114779 -0.14148268 0.12636733 -0.15074289 0.078326136 -0.047215 -0.16364656 -0.23016797
0.16695386 -0.13023745 0.004757747 0.04740258 -0.07963739 -0.11754756 -0.101175606 -0.24347532
-0.0071232305 -0.21902932 0.094505586 0.12165492 -0.11092616 0.07826199 -0.046307456 0.13901035
-0.2152606 -0.13696748 0.006525327 -0.21908456 -0.22297993 -0.08776819 0.065343596 0.0075081545
-0.14431085 -0.10799333 0.09562559 0.19855241 0.101599194 0.025225965 0.054908168 0.04372139
-0.07512888 0.021873998 0.0059810677 0.025081828 -0.13099858 0.026993454 -0.22203371 -0.051887948
0.07717245 -0.057983495 -0.068544514 -0.013334981 -0.11096197 0.1401707 -0.02999491 0.05681088
-0.007939319 -0.035014927 0.0035730973 -0.08654878 0.062418144 0.19763319 -0.08320895 0.020486299
0.075172104 -0.0645263 -0.062420487 0.032638952 0.040226117 0.083747156 0.14419751 -0.020152275
0.03888489 0.0048384285 0.1542446 -0.11650842 0.08269922 -0.21440488 -0.0691305 -0.03002106
-0.075660355 0.008229544 -0.015816996 0.0027567067 0.0777709 0.07390024 0.008797425 -0.09408011
-0.029830495 0.07696494 0.1530844 0.04713055 0.039895892 -0.25664276 -0.13221453 -0.025147123
-0.1549223 -0.046483416 0.0061484887 0.07025308 0.17766525 -0.053313177 -0.14999382 -0.032271292
-0.1469994 0.07038385 -0.0072667543 0.105174735 0.026365124 -0.09033265 0.086225644 0.061267346
-0.013879746 -0.1573507 -0.25193462 0.050680514 0.27306852 0.18552715 0.08901451 -0.10201843
-0.050366204 -0.08832963 0.06840382 0.055361435 -0.0588082 0.26495183 0.12762739 0.21623859
0.02046647 -0.055403076 -0.13635728 -0.03751364 -0.07039439 -0.10955694 0.22888257 0.11919864
-0.31464407 -0.16095218 -0.010830038 -0.025757568 0.06159528 0.009571339 0.009376206 0.11270942
0.06914306 0.0081828 0.107038714 -0.16128133 0.20263545 0.13954668 -0.006537982 0.012424679

network_body._body_endoder.seq_layers.2.bias f4 [128]
00000000: 53a1 0b3d 22e1 3bbd 010f 223d bafa 293d
00000010: f16b ff3d 0486 3e3d d25c 313d 5c4c f93d
00000020: a646 67bb e029 d53d b731 013d fc9c eebc
00000030: 3473 1f3e dddf 1a3d 76b2 053e 827c 5cbd
00000040: 5450 8f3c 34a1 bf3d a1d1 273d 5871 3d3d
00000050: e5be fb3d 75d4 593d a7c1 543d 9628 7e3d
00000060: d8ee 413c bea6 b33c 45d0 1f3d f772 f9bc
00000070: 5aa9 f23d 210e 23bd 85a1 e13c e368 543d
00000080: 768b a1bc 8738 373d 9b10 b93d a922 683c
00000090: a85d c73d 2f44 143d c728 c93d 8ef8 3f3d
000000a0: 000d 363b df99 eabc 74a3 583a 45c7 9a3d
000000b0: 96e8 27bc 2512 673d c309 0abc c4bd 97bd
000000c0: d419 77bc a793 d53d b515 583d 938a 4a3c
000000d0: 113d 80bc 9a61 c53c 5587 ab3d df7d b73d
000000e0: 767e ac3d 9f98 a63b 7c7d 66bb a5c5 073e
000000f0: 42aa abbd 74a3 00bc 76ba 09bd 3119 63bd
00000100: 147a 483d 0008 c33b 8d0d 9c3d a698 28bb
00000110: 7418 953d 3d63 4b3c 7088 033c 8ef3 003e
00000120: fb3f 933d 0657 f23d b969 96bd 9d14 a03d
00000130: 7e20 103d f1b6 1dbd 6ec2 d8bb fce4 d6bd
00000140: ddcb cb3c ab7b 273d a876 663c e177 0b3b
00000150: 5817 573d 07ac d73d e148 a23b 7902 333d
00000160: aef6 563d 0643 983d ba1d 943d 010b 293b
00000170: 27f3 593c 7254 3e3d 4c41 6b3d dbe2 a33b
00000180: cd43 733c acfc d13d 7875 a03d ae17 803d
00000190: 0807 8abc 5fcd 883d 43b8 38bc 0bf3 393c
000001a0: b12e a83c b397 4c3b c91a 95bd 1fc1 f83b
000001b0: 5765 953d 8703 9d3c 505f 7f3c fc5e 433d
000001c0: 1407 b1bc 9ae0 e13c 41d5 213d b60d c1bc
000001d0: e429 f43c b45a 1dbc 9fd8 89bd eca2 373d
000001e0: 3580 043d 76ef 123e e86b 513d f1bf 693d
000001f0: 8842 c7ba 3807 993d 2d6a 03bd 10a5 92bd
0.034089398 -0.045869 0.03956509 0.041498877 0.1247176 0.046514526 0.04330141 0.121727675
-0.0035289912 0.10408378 0.031541552 -0.02912759 0.1557129 0.03781115 0.13056359 -0.053829677
0.017494358 0.09356919 0.040971402 0.04625067 0.122922696 0.05318113 0.051942494 0.062050425
0.01183673 0.021930095 0.03901698 -0.030450327 0.118487075 -0.039808396 0.027542839 0.05185784
-0.01971982 0.044731643 0.0903637 0.01416842 0.097346604 0.036197837 0.09822231 0.0468679
0.0027778745 -0.028637825 0.00082641025 0.07557539 -0.010248324 0.05641379 -0.008425179 -0.07409242
-0.0150818415 0.10428553 0.052755076 0.01236214 -0.015654119 0.024094392 0.08375422 0.08959555
0.08422558 0.005084112 -0.003517001 0.13258989 -0.083820835 -0.00785147 -0.03362509 -0.055443946
0.048944548 0.0059518814 0.07619772 -0.0025725751 0.07280055 0.012413797 0.008028135 0.12592909
0.07189938 0.11833005 -0.07344384 0.07816432 0.035187237 -0.038504545 -0.0066149747 -0.10492894
0.024877483 0.040889423 0.014066376 0.002128117 0.052512497 0.105308585 0.0049525355 0.04370353
0.052481346 0.07434659 0.072322324 0.0025793912 0.013302601 0.046467252 0.05743532 0.0050014085
0.014847708 0.102532715 0.078349054 0.062545165 -0.016849056 0.066797964 -0.0112744 0.01134945
0.020530077 0.003121835 -0.072804995 0.007591381 0.0729472 0.019166721 0.015586689 0.047698006
-0.02160982 0.027572919 0.039510015 -0.023566108 0.029805131 -0.009604145 -0.0673077 0.04483311
0.03234883 0.1434916 0.051128298 0.057067815 -0.0015202323 0.0747208 -0.03208368 -0.071603894

network_body._body_endoder.seq_layers.4.weight f4 [128, 128]
00000000: 7b6b 9ebd 7e83 923c 86e0 30be 48cc 3abe
00000010: c25f 8b3d e3a2 a33d dbfd 03bd a93d 223e
00000020: d565 41be 58fd 4f3d 803a b93d 82e2 27bd
00000030: c46f 26be 0b0b 78bc e7b7 7d3d 61c0 113d
00000040: 196a 18bc e9d4 6bbd edec 81bd 1032 9abd
00000050: f585 053e 5114 b03d 24b4 523e da3b 4a3d
00000060: 2861 d43d bf3b 3b3c bbab e93c fa7d a9bc
00000070: 10b2 3ebe 16db 8b3d 35fd 573e 5b36 203e
00000080: fe2c b5bd d4c6 aa3d 9a84 903d b855 86be
00000090: ea53 fc3d 7160 92bc 3f14 a3bb f2a7 f13c
000000a0: cd74 d6bc c902 0ebe ef4c 3ebd e762 223d
000000b0: 1dea 76be 9fdf 2abc 1a19 1f3e 78b1 d8bd
000000c0: 8ab3 723d afc8 d63b 8662 17bc c4d8 46bd
000000d0: c6e6 323d fdc0 a2bd f6e0 263c 0cb4 99bd
000000e0: be61 533d 0e6c e33d 0c06 e4bd a997 efbd
000000f0: 5cd7 993c 2dd2 893d 05a2 003d 82b7 76bc
00000100: 4721 d73d 6398 283d 65c0 26bd 7e02 81bd
00000110: 8e55 4f3c ba9d 9ebc b4a8 4dbe 9ce4 0ebe
00000120: 8320 6abd e2de 25bd e037 babc 7afa dbbd
00000130: d5d4 23ba ea74 d2be efc3 a3be c759 053e
00000140: 0a3b f5bb 38fa c63c 7553 b9bd 699a 6dbd
00000150: 4009 523e 5076 113e f50d a6bd 46b4 8bbe
00000160: d621 f1bd ac4b 5a3d 3d2f dbbd ae9e 70be
00000170: 7f26 803c 848b 53be d0e7 26bd 6c1e 9d3e
00000180: 05a8 7cbd df47 a6bd 6260 863d 2471 fe3c
00000190: f3fd 333e b4f8 02bd 4ee3 23bc d5bf 413e
000001a0: 7bb8 9a3d cb1e 85be aea6 20be 0a73 e4bc
000001b0: e643 8cbd 268a ab3d 7a81 363d 09d8 0a3e
000001c0: 689c 49bd b2de 453d 9102 d93c 6b3a 0ebe
000001d0: da10 053e d2e4 a1bc 391b b1bb c4c7 00bd
000001e0: 326d b5bd c5f6 343d 9732 163d dd64 b13d
000001f0: bafa 43bd dc94 b0be e0f4 d9bd c405 f23a
00000200: 76d4 e83d 01f7 08be 2f15 9a3d 07cb ea3c
00000210: de58 fdbc 426a b13d d384 6dbd c7f6 f63d
00000220: ebd6 60be 725a 18be ca12 50be 329f d73d
00000230: 8d3c 59bd 783a 993b edc5 15be da04 3c3e
00000240: ca38 a7bd 9a4e bbbc f8e6 d63d cc1b 53bd
00000250: 4071 b13d 3e58 4d3c f7c2 9d3e 6dfb 2f3c
00000260: 4905 cf3d fa44 413d 5c7b 8bbb 842a 3fbd
00000270: f472 79bd 816b 64bd d858 8fbd 622c 78be
00000280: 753d abbc fce7 423e d3f8 30bc 57bb 9fbd
00000290: fc16 e03c 39ae 133c a916 343e f70d ec3b
000002a0: 27ff 663e 26c6 b1bd 0659 ec3c 5220 313d
000002b0: 8e11 893d c850 093d 8df4 9d3d 0294 a83d
000002c0: 8be1 52be 46c1 01be 445e 58bd 8371 2e3e
000002d0: b3c6 a3ba 8c08 8dbe deaf 6b3d d9d4 603d
000002e0: 415d 9e3d 4d55 183d b86b 74be dd27 d33c
000002f0: 75c4 c1bc 64f4 27bc 9a72 06be b37c 6738
00000300: 9710 9e3c d31d b9bd 023d 073e 9c3f d63d
00000310: 337c 633e fd41 4b3d 8e18 223e 5a9f f7bd
00000320: 6916 59bc d99f 813d 87f7 6d3d c787 763d
00000330: f369 583d e4cb 90bc 6d31 5f3d 841f c13d
00000340: 4d60 d33d a7a0 d13c c19c eabc 9872 e2bc
00000350: 7540 023e d3ff 99be dbeb 913d e9e9 69be
00000360: 0eef e0bd f298 353c 4f8f 00be 2fbf 2c3e
00000370: 3ba6 6b3c a45e 3d3e 5ca0 8fbd c53b df3d
00000380: 1f0d a1be 713c e3bd 533f d0bc 963d 693c
00000390: d98b aebc a662 90be 09e2 613d adf6 fdba
000003a0: 54c3 413d 1d18 c0bc 2233 d7bd 6826 adbd
000003b0: 5bc5 babc 9e10 3d3c 9643 e53d 810f 1dbe
000003c0: 0d17 a93d d0ec 883d 5754 323d ff28 28bd
000003d0: b086 103d 6104 033e 1f3b 713e ac4f 95bd
000003e0: 3a8e 2dbe 5fbd 95bd a4ec c23a 5746 02bc
000003f0: ff5f 023e 3f6a 68bd b167 efbc a23d 3dbe
-0.07735344 0.017884966 -0.17273149 -0.1824199 0.06805374 0.079900526 -0.032224517 0.15843834
-0.18886502 0.050778717 0.09044361 -0.0409875 -0.16253573 -0.015139352 0.06194296 0.035583857
-0.009302639 -0.057576094 -0.06344018 -0.0752908 0.13039382 0.08597625 0.2057653 0.049373485
0.103700936 0.011427819 0.02852427 -0.020689953 -0.18622613 0.06828897 0.21092685 0.15645735
-0.08846472 0.08338705 0.07056542 -0.26237273 0.12320693 -0.017868252 -0.0049767788 0.029499028
-0.026178742 -0.1386825 -0.04646009 0.039645102 -0.24112745 -0.010429292 0.15536919 -0.105807245
0.059253253 0.006554685 -0.009239798 -0.048546568 0.043677114 -0.07946966 0.010185471 -0.07505044
0.051606886 0.11104594 -0.11133966 -0.11698849 0.01877945 0.06729541 0.031404514 -0.0150584
0.10504394 0.041160952 -0.040710825 -0.062993035 0.012654675 -0.01936232 -0.20083886 -0.13954395
-0.05715991 -0.04049576 -0.022731721 -0.10741134 -0.0006249671 -0.41104823 -0.31985423 0.13022529
-0.0074838446 0.024289235 -0.09049121 -0.058008585 0.20511341 0.14205289 -0.08108131 -0.27285975
-0.11774032 0.053294823 -0.10702369 -0.23498031 0.015643356 -0.2065869 -0.040748417 0.30687273
-0.061683673 -0.08119177 0.06561352 0.031059809 0.17577343 -0.031975463 -0.010002924 0.18920834
0.07554718 -0.26000056 -0.15688583 -0.027886886 -0.06848888 0.08375959 0.044557072 0.13558973
-0.049221426 0.048308082 0.026490482 -0.13889472 0.1299471 -0.01976243 -0.0054048565 -0.03144051
-0.08858718 0.04418065 0.03666934 0.08661816 -0.047846533 -0.3448857 -0.10642409 0.0018464853
0.11368649 -0.13375475 0.07523572 0.028661264 -0.030926164 0.08662845 -0.057988 0.12058788
-0.21956985 -0.14878252 -0.20319667 0.10528411 -0.05303626 0.0046761595 -0.14626284 0.18361226
-0.081651285 -0.022864629 0.104932725 -0.05154018 0.08664179 0.012533246 0.3081281 0.010741097
0.1010843 0.04718492 -0.004256649 -0.046671405 -0.060900643 -0.055766586 -0.069993675 -0.2423568
-0.020903328 0.19033808 -0.010801512 -0.07799404 0.02735471 0.009013706 0.17586769 0.007203813
0.2255827 -0.08680372 0.028851043 0.043243714 0.066928014 0.033524305 0.0771266 0.08231355
-0.2059385 -0.12671384 -0.052824274 0.17035489 -0.001249513 -0.27545583 0.057540767 0.054890487
0.077326305 0.037190724 -0.23869216 0.025775844 -0.023653248 -0.010251138 -0.13129655 5.5190827e-05
0.01929502 -0.09038892 0.13206866 0.10461351 0.22215347 0.04962348 0.1582968 -0.12090941
-0.013249972 0.06329317 0.05809739 0.06018808 0.052835416 -0.017675348 0.054490495 0.09429839
0.10321102 0.0255893 -0.0286392 -0.027642533 0.12719901 -0.3007799 0.07125064 -0.22843136
-0.10983096 0.011083828 -0.12554668 0.16869806 0.014382894 0.18493134 -0.07013008 0.10900072
-0.31455323 -0.11095513 -0.02542082 0.014235875 -0.021306919 -0.28200263 0.055147205 -0.0019375883
0.04730542 -0.023448998 -0.105078 -0.08454591 -0.022799185 0.011539606 0.111945316 -0.15337946
0.0825635 0.066857934 0.043537464 -0.041054722 0.035284698 0.12794639 0.23557709 -0.07290587
-0.16948786 -0.0731151 0.001487155 -0.007951341 0.12731932 -0.05674195 -0.029224249 -0.18480542

network_body._body_endoder.seq_layers.4.bias f4 [128]
00000000: 70a6 843c 6e16 053d 7ed1 7b3d 3bea 163e
00000010: c9fa 913d 6193 f03d 20e6 d43d e9d0 e93d
00000020: 8f83 abbb 0857 97ba 1462 6d3d 7db0 2c3d
00000030: b3b9 a93c 7f61 023c ccd0 75bc c5f3 bd3d
00000040: 0567 273d 50c9 b03d 4501 b93d b857 3e3d
00000050: 0401 413d 762f 2f3d 9fad d53c ecbd 923d
00000060: 0afe 9f3d 0d54 5c3d cbc5 a23d fff6 1b3d
00000070: 4da2 f63b b782 993c 4a00 cf3c 9e8c a13d
00000080: c686 f03c edf3 203e 8345 fbb8 e802 8a3d
00000090: 2d17 253d 7804 cd3c 7060 953c ba15 d23d
000000a0: 6fd2 d53d a1ce b93c 8e86 1b3d 2b74 833d
000000b0: fea1 d43c b87b e43d 88ec 783d 0734 e03d
000000c0: 9194 0d3e 103a 093d e56f 9e3d d4de 853d
000000d0: 01e2 343d 8856 773b 9e23 fdbb 62f6 e0bc
000000e0: 36fb ee3d ff4b c7bd d6fc bdbd 7ec7 063e
000000f0: fd54 e73b b58d 523d f30e 2abb 81c7 da3d
00000100: 2b27 8c3d f74e 953c 980a 443d d6da 6a3d
00000110: feb2 fe3b 69f5 a73d 4361 c53d 48bc 0a3e
00000120: a32a 033d 1852 b33c 4c79 6e3d 8c01 523d
00000130: aaf1 8c3d 52f4 e8bc d841 1b3d 5e08 603d
00000140: c02a 173d aac2 ddba 68c9 0f3e 9f71 073d
00000150: 44ae 503d e3dd 233c a876 9ebc 23ec 073d
00000160: 7f4d 503d 001e 593d 91bd 2a3c 2c5c 5b3d
00000170: bef4 efbb ea1e 82bb 7718 763d de8c df3d
00000180: aa13 793d e997 4d3c b0ee cb3c 6e1b 943c
00000190: ca1a c83d 904a 513d 6fb0 ab3a 5ff5 ca3d
000001a0: fd05 ef3c 7555 2ebd 1a01 6b3b be30 12bd
000001b0: c82e e039 ea77 a33d 4331 f43d 8176 143c
000001c0: 3c80 af3d d064 6e3b 80b3 793d 68ed b33c
000001d0: 2e76 d5bc 37d5 1d3d 8e4a 8e3c 6937 a83b
000001e0: 56ce e6ba c0e6 7e3d 312c e13d 25e7 7c3d
000001f0: 4dab 5c3d 95bf 8f3d 8966 263d e8ff 45bc
0.016192645 0.032492094 0.061479084 0.1473779 0.071279116 0.1174686 0.10395455 0.114167996
-0.005234189 -0.0011546323 0.057954863 0.0421605 0.020718431 0.007957815 -0.015003394 0.09275011
0.04086973 0.08632147 0.09033445 0.046470374 0.04712011 0.04276987 0.026083766 0.07165131
0.07812126 0.053791095 0.07947882 0.03807735 0.007526672 0.018739088 0.025268693 0.07888149
0.02936114 0.1571805 -0.0001198156 0.067388356 0.040305305 0.025026545 0.018234462 0.1025805
0.10440528 0.022681536 0.03797012 0.06418642 0.02595615 0.1115641 0.06077245 0.109474234
0.13826205 0.03350264 0.07736186 0.06536642 0.044160847 0.0037740786 -0.007725193 -0.027461234
0.116690084 -0.09731292 -0.0927674 0.13162038 0.007059692 0.051404674 -0.0025948852 0.106825836
0.06843408 0.01822613 0.047861665 0.057337604 0.0077728024 0.08201105 0.09637692 0.13548386
0.032023083 0.021889731 0.058221146 0.051271006 0.06882031 -0.028436814 0.03790459 0.05469548
0.036906004 -0.0016918976 0.14041674 0.033067342 0.050947443 0.010001632 -0.01934369 0.033184182
0.050855156 0.053007126 0.010421173 0.0535547 -0.0073228767 -0.0039709704 0.060081925 0.1091554
0.06080977 0.012548425 0.024894089 0.018079486 0.097707346 0.0510965 0.0013098846 0.09910082
0.02917766 -0.042561967 0.003585881 -0.035691015 0.00042759464 0.07981856 0.119234584 0.009061457
0.08569381 0.0036376007 0.0609622 0.02196379 -0.026057329 0.038533416 0.017369535 0.0051335585
-0.00176091 0.06223178 0.10994757 0.061743874 0.053874303 0.07018963 0.04062513 -0.012084939

action_model._continuous_distribution.log_sigma f4 [1, 35]
00000000: c2e3 b9bf 9c99 92bf de35 bcbf ed26 e8bf
00000010: 4846 23bf 4209 04c0 7e39 63bf c754 d8bf
00000020: e6b9 dabf ac2a febc 3465 563f c7a2 763f
00000030: 82c3 76bd 4879 653f bba4 793f 41e0 bebf
00000040: 538b 64bf 0536 97bf 0199 f1be 7918 aebd
00000050: 9098 d7be b5b6 453e 35f1 7bbd a931 3a3e
00000060: d302 533f ecc1 9f3e 4ab6 e73e d408 873e
00000070: bd8b 703e c3b2 cb3e d0a5 b23e be9f 2c3f
00000080: 7004 133f 6601 133f eedf 453f
-1.4522631 -1.1453128 -1.4703939 -1.8136879 -0.63779116 -2.063065 -0.887596 -1.6900872
-1.7087982 -0.031026207 0.83748174 0.9634213 -0.060245045 0.89638186 0.97516984 -1.4912187
-0.8927509 -1.181336 -0.47187045 -0.085007615 -0.42108583 0.19307978 -0.06150933 0.18183006
0.82426184 0.31202638 0.45256263 0.26373923 0.23490806 0.39784822 0.3489213 0.6743125
0.57428646 0.5742401 0.77294815

action_model._continuous_distribution.mu.weight f4 [35, 128]
00000000: 2de9 9bbd 2c66 acbb b023 033d bcb3 a33d
00000010: 670b 033d 94bf fabc e38c a7bd 73e4 35bd
00000020: c381 f93c 9845 7bbd 5273 843d 3da1 053e
00000030: 21dd 073d 08f0 04bd aa1a 4abd 0a68 08be
00000040: 21b5 47bd ee94 43bd dee9 a7bd d282 403d
00000050: 21cc 483d d393 c3bd 2505 c43d b2ca 0abe
00000060: 02d8 e0ba 38e7 c9bc 0ea8 3a3d c042 433d
00000070: 3c68 60bd 41b5 7ebd c006 48bd d2fe 3e3d
00000080: 49be bcbd 41dc f23c 80f2 dc3c 880d 12bc
00000090: a170 6b3d 9a40 db3d 97df d4bb cf6e 4abd
000000a0: 21ff f9bc be4d 0f3c 468d 9ebc 871b 0cbd
000000b0: 3ec7 76bb 425c 72bd 871b f63d 3a22 09bd
000000c0: 9047 d23d 55bc fabc 5033 1c3d f190 ff3d
000000d0: 5e33 a23c 9db7 543d 7602 f93c a84c 4ebd
000000e0: a604 48bc a8ce 573d 8182 b1bc 3291 afbd
000000f0: 3a7e 643d 2bec b0bd 8ca0 6abd 4e8f 3dbd
00000100: 8a6f c6bd 1830 183d be21 84bd dd3a b2bc
00000110: 6abc bf3d 5b38 53bd 7f87 dc3d 4eb9 2e3d
00000120: 5b92 663d 6087 7a3c 3791 663d 47bc 613d
00000130: 6690 a63d 318e 153d dec5 b53c 8bbc 5c3a
00000140: ffec 013d ec42 8dbd a43a d53a 167d 3b3c
00000150: 87cf 40bd 2951 f73c 8f4d 8a3a 0e6a 813c
00000160: 734c 97bd 8efc f8bd 2255 3f3d 1b2d d6bc
00000170: cd66 813c f0d7 8d3d 7c01 b3bd ca21 153d
00000180: 5e73 143d 65bb ef3b f2ea b8bd 6d0b 873a
00000190: daab 003e 580e bebd e431 6bbd 62af 253e
000001a0: bfb9 a5bd 3904 1c3d 0034 023d cefd cabd
000001b0: 57b6 8dbd 6983 23bd 140d 46bc e61b 393d
000001c0: 92f5 8039 4ed8 8b3d c973 d53a 8b73 d93d
000001d0: be30 843c 09f6 0b3e 04d7 1e3c 0a44 a5bd
000001e0: 100d 863d d126 6abd 4bde a4bc fb41 6abd
000001f0: 7203 4e3d 01a8 af3b d057 283d 16c0 aabd
00000200: 90cb 4c3d 2f1d 033e 8580 09bd 4168 73bb
00000210: 2362 12bd e5fe 38ba 7c8e cf3d 0c42 8ebd
00000220: 24dd 633c 6fb5 1e3c d25e 52bc 5f95 ec3c
00000230: 2bce 8e3c 7786 723d b5b9 4bbd 85e6 82bd
00000240: 9a99 e7bd 78d5 473d 0a98 d03b 82df 09be
00000250: 9eea 0d3d 9bb8 b8bc 180e 8b3d f42d be3c
00000260: e705 8abd 00f9 e3bc 2e2a 8dbd 4b4c 9c3c
00000270: 872f 43bb 1856 32bd 014c ed3c e12d ab3a
00000280: c4c7 af3d 1666 a53d 8ff4 e03d 05d5 cf3c
00000290: 30ae 973d c3cb 2cbe 2394 05be d043 51bd
000002a0: f8d8 89bd 4066 63bc f6e1 833d 0273 04bd
000002b0: b20f a43d 0bfc 11be 5aeb 31bd 83bb 20bd
000002c0: f821 8abd 3e2c 85bc c114 da3c c986 c63d
000002d0: 82df f83c ef8c b2bd 4865 39bd d8ff b1ba
000002e0: 539f a03d 87e6 a1ba 1eb3 cbbd 3276 12bd
000002f0: 7d45 0ebc 1eee e43d 6749 db3d b3b2 b3bc
00000300: f431 f43c 595a cb3c 9edc 76bd 43fc c33c
00000310: bf7e b43d 6bce 93bc 0dbb 53ba 47da 033e
00000320: 80f8 d43b 2fdd e2bc 3675 013e ffc1 4d3d
00000330: c922 7c3c 82eb a13a 5b64 9b3c 5719 d33d
00000340: 7207 243d cc36 51bc aebc cd3c 9f4a b4bd
00000350: df50 ad3c ac08 d13d c2bf bebc fcf7 a2bd
00000360: d3fc 21bb 71ec cabd d765 293d f881 b33c
00000370: 972c 19bd d40a 263d 012a 8cbd 957a 773c
00000380: 016a 093d f4dd 0abc efa7 3e3d a156 e8bc
00000390: dabb 23bd ae02 4abd c76a 3bbd e648 dbbd
000003a0: f10e 33bd 9e60 23be 2d4f bbbc 78b9 a7bb
000003b0: 30db e53c 203a 363d 02cb cfbb 3968 a5bd
000003c0: 8c01 f5bc 1fb1 063d 64b6 773d 8c6f f93c
000003d0: 12bd 473d e477 243d b772 8dbd f253 123d
000003e0: 3fd2 a4bd af59 11bc 67cf fc3d e37d 093d
000003f0: 430a 36bd 1721 043d 973f cb3d b76d 45bb
-0.07612834 -0.0052612033 0.032016456 0.07993266 0.031993296 -0.03060893 -0.08181169 -0.04440732
0.030457383 -0.061345667 0.06467308 0.13049789 0.03316987 -0.032455474 -0.049341835 -0.13320938
-0.048756722 -0.047749452 -0.081989035 0.04699976 0.049022797 -0.095496796 0.09571294 -0.13553885
-0.0017154219 -0.024646387 0.045570426 0.04767108 -0.054786906 -0.062184576 -0.048834562 0.046629734
-0.092159815 0.02964604 0.026971102 -0.008914359 0.05748046 0.10705681 -0.0064963805 -0.04942208
-0.030517163 0.0087465625 -0.019354474 -0.03420594 -0.0037655379 -0.059170015 0.12016969 -0.033479907
0.10267556 -0.030607382 0.038134873 0.12478817 0.019799884 0.05193292 0.030396681 -0.050366074
-0.0122081395 0.052687317 -0.021668674 -0.08572616 0.05578444 -0.086387955 -0.057282016 -0.046279244
-0.09689243 0.03715524 -0.06451748 -0.021756584 0.09362109 -0.051567417 0.10768031 0.04265719
0.05629192 0.015291065 0.05629083 0.055111196 0.081330106 0.036512557 0.022189077 0.0008420429
0.031720158 -0.0689753 0.0016268087 0.011443397 -0.047072913 0.030190067 0.0010551679 0.015797641
-0.073876284 -0.12157546 0.04671205 -0.026144555 0.01579609 0.069259524 -0.087405175 0.036409177
0.036242835 0.0073160403 -0.09029187 0.0010303088 0.12565556 -0.092800796 -0.057420626 0.16180184
-0.08092069 0.038089965 0.031787872 -0.09911691 -0.06919544 -0.039920244 -0.012088079 0.04519262
0.00024597027 0.06828366 0.0016285117 0.10617741 0.016136523 0.13668074 0.009694818 -0.08069618
0.0654546 -0.057165924 -0.020125529 -0.05719183 0.050296254 0.005360604 0.04109937 -0.08337419
0.04999882 0.12804101 -0.03356983 -0.0037140998 -0.03573812 -0.0007057025 0.101345986 -0.06946191
0.0139077045 0.009686812 -0.01283999 0.02887982 0.017432293 0.059210267 -0.04973765 -0.06391624
-0.11308594 0.048787564 0.0063657807 -0.13464168 0.034647577 -0.022548964 0.067897975 0.023215272
-0.06739407 -0.027828693 -0.06892811 0.019079348 -0.0029782967 -0.043539137 0.028966906 0.0013059938
0.08583024 0.08076112 0.10984146 0.02537013 0.074062705 -0.16874604 -0.13044791 -0.05109006
-0.06730837 -0.013879359 0.06439583 -0.032336242 0.08010806 -0.14256303 -0.04343734 -0.039241325
-0.0674476 -0.016256448 0.026621224 0.09693677 0.030380014 -0.08718287 -0.045262605 -0.0013580276
0.07842889 -0.0012352028 -0.09946273 -0.03575725 -0.0086835595 0.1117823 0.1070736 -0.021935796
0.029808976 0.024823355 -0.06026899 0.023923999 0.088132374 -0.018042764 -0.0008076884 0.12876235
0.00649935 -0.02769336 0.12642369 0.050233837 0.015389153 0.0012353512 0.018968752 0.103075676
0.040046163 -0.012769412 0.025114384 -0.08803295 0.021156726 0.10206732 -0.023284797 -0.079574555
-0.0024717345 -0.09908379 0.041356888 0.02191256 -0.03739604 0.04053767 -0.06843949 0.015104909
0.03354836 -0.008475769 0.046546873 -0.02836162 -0.03997407 -0.04931896 -0.045756128 -0.10707264
-0.04371542 -0.15954825 -0.022864902 -0.005118545 0.028058618 0.044489026 -0.006341339 -0.080765195
-0.029907964 0.03288376 0.060476676 0.030448698 0.048764296 0.0401534 -0.06906646 0.035724588
-0.08047914 -0.00887148 0.12344246 0.03356732 -0.04444338 0.03225812 0.09924238 -0.003012521

action_model._continuous_distribution.mu.bias f4 [35]
00000000: fbe0 a3bb c03b 49bc c443 393c 54db 7bbb
00000010: 0342 d2bd 9737 09bd 8a98 933d 5197 6ebd
00000020: 291b b7bd 4d6a fc3c b235 8cbd ed57 0fbd
00000030: 9d29 c2bb cef2 9fbd 8295 c13c 3b5f 5bbd
00000040: f7d0 c1bd 4254 eabc d6f0 5fbd 4bea b7bd
00000050: d306 993c a74c f83c 47f0 10bd be90 523d
00000060: 3945 253e 6e24 703d 47bd dd3d 356a 1b3c
00000070: 23a6 c63d 82cc 8c3d 803e 7b3c 9df0 bf3d
00000080: 7c3d 0d3d aa14 6c3d 3c7c c23d
-0.005001185 -0.012282312 0.0113076605 -0.003843029 -0.10266497 -0.03350028 0.07206829 -0.058249775
-0.08940727 0.030812407 -0.06846179 -0.034995962 -0.005925371 -0.07809983 0.023630861 -0.053557616
-0.09463685 -0.02860463 -0.05467304 -0.08980235 0.018680012 0.030309988 -0.035385396 0.05140757
0.16139688 0.058628492 0.108271174 0.009485771 0.09699657 0.06874944 0.015334725 0.09372065
0.034482464 0.057636894 0.09496352

onnx::Div_66 f4 [35]
00000000: 6a3a 993e 006a a93e 7f70 ea38 dcaa d53e
00000010: ad6b 5e3e 293c b93e 1d63 913c 7f70 ea38
00000020: 3863 b93e c424 313e bd31 ab3e 036f 8d3c
00000030: 7f70 ea38 5e5d ab3e a051 1e3e 78c8 c53e
00000040: 15f4 533b 7f70 ea38 90c9 c53e f270 3e3e
00000050: 14cf b23e 27e9 2e3b 7f70 ea38 01d0 b23e
00000060: 09e7 253e 93ad cb3e 852d 5f3b 7f70 ea38
00000070: b5ae cb3e 936b 3f3e 9655 bb3e 77d7 a13a
00000080: 7f70 ea38 c555 bb3e 5dde 2c3e
0.2992738 0.33088684 0.000111789435 0.41731918 0.21720763 0.3617871 0.017747456 0.000111789435
0.3620851 0.17299181 0.33436385 0.017264849 0.000111789435 0.3346967 0.15460825 0.38629508
0.003234153 0.000111789435 0.38630342 0.18597773 0.34923613 0.0026689263 0.000111789435 0.3492432
0.16201414 0.39780864 0.0034054231 0.000111789435 0.39781728 0.1869338 0.36588734 0.0012347539
0.000111789435 0.36588874 0.168817

onnx::Div_69 f4 [225]
00000000: 9c31 b73f 413b 193e e423 343e e630 7f3f
00000010: 7f70 ea38 7f70 ea38 a8f9 8f3f ee04 193e
00000020: 45cc 3d3e f76f 033e ba28 053e d639 ed3d
00000030: 1962 2c3e 7873 cc3d 2333 eb3d 420f 1b3f
00000040: 4037 0940 fb2f bc41 6b8b 063d 9215 683c
00000050: a100 a53e a40d a83e 8233 893f 304e 0d40
00000060: 3831 d53f 7a95 a43f 7f70 ea38 7f70 ea38
00000070: 7f70 ea38 7d10 283e febe 0a3f f7ad ec3d
00000080: 6c01 503f 6045 183a 8f87 5c3d d6a5 813e
00000090: b66a 953e 8f1c a63f 8c97 0240 a879 cc3f
000000a0: 4f8c a23f e8e4 b33c d34f 803c cbac 743d
000000b0: 4799 3d3e a7ea ce3d f313 ee3d 8e07 ad3c
000000c0: 7bbe 663e 7f70 6a39 d4d9 123c 1076 103f
000000d0: c66b d23e a6b2 d43f 8db9 0040 11d4 c93f
000000e0: 196c a33f 5e0e a93d adef 823d f6c2 8a3e
000000f0: a9ef 5e3e 4011 fb3d e1e4 f53c 12d9 af3c
00000100: 0e46 7d3e b87a 513d 6b66 6b3d 7ecc c33e
00000110: 2dcb ca3e fa0c 6f3f 7fe2 2340 2553 fd3f
00000120: e707 9e3f 2372 013d cd7f f13c 990a 0f3d
00000130: 9853 8e3d 92a8 af3d 27a1 6d3d 4056 313e
00000140: 1d8b 713e 810a fc3d b537 253c 4251 9f3e
00000150: ee04 863e 056a 363f 59bf 3c40 63e7 e43f
00000160: ce98 963f 0658 a83d 0093 783d 05f8 ce3d
00000170: 0145 e83d 83e1 0a3d 5cd7 1f3d 5597 923d
00000180: 3cd5 683e 8091 d73e 7e64 1b3d ea25 913e
00000190: e67e 603e 34b3 403f 4027 2540 39fb e13f
000001a0: 1b1b 1740 f860 de3d 0cf3 6f3d bf53 603e
000001b0: d9f6 bb3d 0d92 ea3d 724e d13d f960 bb3d
000001c0: 46fc 903e 8c7a 703d 4757 2c3d a448 c53e
000001d0: 01f9 b23e 853b 5f3f 8799 2c40 ab06 f83f
000001e0: bfa3 b03f 0409 013d fa99 bf3c 1833 183d
000001f0: 2622 273d 0d06 a13d 82c1 813d 31d5 093e
00000200: 97cd 6c3e 67fa f23d a69e ba3c 90ea ac3e
00000210: 6b8e 723e 40b2 303f dbd9 0c40 ce9c f43f
00000220: 66a7 b93f 9bb1 923d 3fa3 873d 4799 033e
00000230: 52cb f93d 3846 7b3d e0df 6a3d 4864 983d
00000240: bb29 7e3e a928 ed3e 73ab 363d a2d2 a83e
00000250: 63da 733e 6368 3b3f f036 4840 a472 f73f
00000260: f163 2140 9171 e43d 7027 6e3d e3ac 893e
00000270: 259a d33d d571 ca3d e259 ba3d d764 db3d
00000280: f962 923e 0abf 663a 6bba 1f3d 45c9 b63e
00000290: d69f d63e 39e4 c63f dc4a 3c40 3ab6 0640
000002a0: d3da 2d40 a92b a13d b0cb 813d 3be3 543e
000002b0: 8dc3 bd3d dd5c 303e ff40 733d 8fc8 833e
000002c0: c339 933e 0671 ea3c 0fb8 e93d e0b2 6c3f
000002d0: 9987 723f 2a44 0440 a6fd 5040 afc3 2e40
000002e0: 8f0a 3b40 777a d83d 4202 a43d 7a29 783e
000002f0: b98a 793e 1981 823c e007 8d3c cde2 ad3d
00000300: aa9f b43e 908a 0c3a ab43 353d 8430 b33e
00000310: 6a17 d03e 9ad6 b93f 3222 3240 7af4 0140
00000320: 06d4 1840 c115 9a3d 5b54 723d 9738 4e3e
00000330: cd23 a93d f807 6a3e b0c1 ca3d 7643 793e
00000340: ba3b 8d3e f678 be3c 32d6 fa3d ad17 5f3f
00000350: 2cd3 753f 740b ec3f 3696 8340 0d10 2e40
00000360: bb32 3040 b1f4 d63d 2e11 8a3d 392b 5b3e
00000370: ac56 893e 2aad df3c c809 ea3c c8cf dc3d
00000380: 2513 ac3e
1.4312015 0.1496401 0.17591816 0.9968399 0.000111789435 0.000111789435 1.1248064 0.14943287
0.18534954 0.1283568 0.13003817 0.11583297 0.16834296 0.099829614 0.11484363 0.60570157
2.1439972 23.523428 0.032847803 0.014165299 0.32227042 0.32822907 1.0718844 2.2078972
1.6655645 1.2858117 0.000111789435 0.000111789435 0.000111789435 0.1641254 0.5419768 0.11556619
0.8125217 0.00058086775 0.053840216 0.25321835 0.29182976 1.2977465 2.0404997 1.5974627
1.2699069 0.021959737 0.015663063 0.0597351 0.18515502 0.1010335 0.11624899 0.021121766
0.225336 0.00022357887 0.008963067 0.5643015 0.4109785 1.6617019 2.0113251 1.5767843
1.2767364 0.082546934 0.06393371 0.27101868 0.2177111 0.122591496 0.030016365 0.021465812
0.24733755 0.051142424 0.05747072 0.38241953 0.39608136 0.93379176 2.5606992 1.9790999
1.2346162 0.03160299 0.029479885 0.034922216 0.06949538 0.08577074 0.058015015 0.17318058
0.23588224 0.12306691 0.010084082 0.31116682 0.26175636 0.7125552 2.949179 1.7883114
1.1765382 0.08219914 0.060687065 0.101059 0.113412865 0.03390647 0.039023742 0.071577705
0.22737592 0.42103195 0.037937634 0.2834924 0.21923408 0.7527344 2.5805206 1.7654792
2.3610294 0.10858339 0.058581397 0.21906947 0.09177942 0.11453638 0.102200404 0.091493554
0.2831747 0.05871062 0.04207542 0.38531983 0.349556 0.87200195 2.6968706 1.9377035
1.3799971 0.03150274 0.023388851 0.0371581 0.04080405 0.07862482 0.06335737 0.13460232
0.23125301 0.11864167 0.022780728 0.33772707 0.2368714 0.6902199 2.2007968 1.9110353
1.4504211 0.07162782 0.066229336 0.1285144 0.121969834 0.061346263 0.05734241 0.07441002
0.24820606 0.46320084 0.0445971 0.329732 0.23813777 0.73206156 3.128353 1.933186
2.521725 0.111544736 0.05814308 0.26889715 0.10332135 0.09884993 0.09099175 0.10712593
0.28591135 0.0008802271 0.03899614 0.3570043 0.4191882 1.5538398 2.942069 2.1048722
2.716481 0.07869656 0.063376784 0.20789807 0.09265814 0.17222925 0.059388157 0.25738952
0.28755006 0.028618347 0.114120595 0.9246044 0.94738156 2.0666604 3.2654815 2.7306936
2.9225194 0.10570233 0.08008243 0.24234572 0.24369325 0.0159307 0.01721567 0.084905244
0.35278064 0.00053612236 0.044253986 0.34997952 0.40642864 1.4518616 2.783337 2.0305467
2.387941 0.075236805 0.05916248 0.20138775 0.082587816 0.22854602 0.09900224 0.2434214
0.2758463 0.023251038 0.12247886 0.871455 0.9602535 1.8440995 4.1120863 2.7197297
2.7530963 0.1049589 0.06741558 0.21403207 0.26823938 0.02730425 0.028569117 0.10781819
0.33608356
