npcmake/onnx list/Walker-49999980.onnx (onnx, 293127 bytes, 13 tensors)

network_body.observation_encoder.processors.0.normalizer.running_mean f4 [35]
000000 b3 42 8c 3d d5 bc f3 3d 00 00 00 00 ba ff 4f 3f
       0.06848659 0.11901251 0.0 0.8124958
000010 73 4f 6b 3f 06 9e fb 3d 74 73 bc 38 00 00 00 00
       0.91918105 0.12286 8.9860434e-05 0.0
000020 f1 84 60 3f f3 51 74 3f cb eb c4 3d cd bc b5 38
       0.8770285 0.95437545 0.096152864 8.6659194e-05
000030 00 00 00 00 59 5e 67 3f f0 b9 77 3f 4e d8 1d 3e
       0.0 0.9037834 0.96768093 0.15414545
000040 c0 92 09 37 00 00 00 00 56 89 58 3f e2 34 70 3f
       8.200004e-06 0.0 0.8458456 0.9383069
000050 d8 ad e6 3d 40 54 fc 35 00 00 00 00 00 2a 63 3f
       0.11263627 1.8799983e-06 0.0 0.8873596
000060 d1 c5 75 3f db 00 3e 3e 7a 71 28 37 00 00 00 00
       0.9600497 0.18555014 1.0040001e-05 0.0
000070 ea 7e 50 3f ef 49 6c 3f 58 fd 0c 3e fa 52 16 35
       0.81443655 0.92300314 0.13768518 5.60001e-07
000080 00 00 00 00 4b c0 5c 3f 72 ee 72 3f
       0.0 0.86230916 0.9489509

network_body.observation_encoder.processors.1.normalizer.running_mean f4 [225]
000000 38 f7 fc 3f 0a c0 b7 3c aa 98 0e bc e6 f6 df 3d
       1.9762945 0.022430439 -0.00870339 0.10935764
000010 5a e7 33 ae 00 00 00 00 b1 20 03 40 ed 37 fc 3c
       -4.090537e-11 0.0 2.0488703 0.030788386
000020 37 e4 4e 3c 7c 03 8d 3b 71 b7 73 3f 44 94 4e bb
       0.012627653 0.004303394 0.95201784 -0.0031521479
000030 23 44 e3 3c 28 0f 62 3b 04 34 76 3f 15 0c 80 bb
       0.027742451 0.0034493897 0.9617312 -0.0039076903
000040 45 16 21 40 1b 2e 21 42 67 23 e2 3a 68 2e 10 39
       2.5169842 40.295025 0.0017252982 0.00013750198
000050 ba 3f fe 3c a3 65 5a 3d 52 f1 e9 3d 90 28 59 3e
       0.031036247 0.053319585 0.11422981 0.2120688
000060 e1 6b d2 3c 96 8d f6 bc db b5 77 2c 56 a9 e9 1a
       0.025686206 -0.03009681 3.5201761e-12 9.664012e-23
000070 4c ad 81 ac 07 22 0d bb 99 8a a0 3d ae 04 c3 3b
       -3.6856403e-12 -0.0021535174 0.078389354 0.0059514856
000080 58 b3 65 3d 23 96 0b 35 e6 da 4c 3a 9d a5 b3 3c
       0.05607924 5.200001e-07 0.0007814601 0.021929557
000090 c0 a4 05 bd 8d c9 df 3d 4e 51 bb be 8c 19 53 3e
       -0.03262782 0.10927115 -0.36585468 0.20615214
0000a0 35 4c 89 3d 01 22 8b 39 7a 21 21 3e cc 86 25 3b
       0.067039885 0.0002653748 0.15735427 0.0025257347
0000b0 50 3f bc 3c 7a 49 45 bd 15 d2 bd 3c 74 79 78 3f
       0.022979409 -0.048165776 0.023171464 0.9706032
0000c0 5e 58 2b 3f 67 d9 80 33 48 79 ec 38 3d 48 20 3c
       0.6693171 6.00001e-08 0.00011275947 0.009782848
0000d0 64 98 74 bd 08 fb b6 3d 3f cd 82 3c e4 cc c9 3d
       -0.059715644 0.08934599 0.01596701 0.09853533
0000e0 09 e5 a2 bd f9 9d a5 bc 03 ad 02 3f 0d 87 7d bc
       -0.07953841 -0.020216929 0.51045245 -0.015474093
0000f0 6f e9 00 3d 78 fe 88 3c 14 da b8 b9 a6 2c 78 3f
       0.03147262 0.016722903 -0.00035257696 0.9694313
000100 97 48 42 3f 79 c1 87 3b 4f 09 0f 3a 1e e3 da 3c
       0.75892013 0.004142937 0.0005456404 0.026719626
000110 74 96 ce bc da 6c 1b 3e fd ad b5 3e 64 e9 a7 3c
       -0.025218226 0.15178242 0.35484305 0.020497032
000120 d5 fa 46 be ff c0 df bd f9 8d 0c bb ab a3 c8 3b
       -0.19431622 -0.10925483 -0.0021446927 0.0061230264
000130 91 e9 6c 3f 07 89 c9 bd f2 77 84 3c 4d c9 9d 3e
       0.92543894 -0.09840589 0.016170476 0.30817643
000140 99 ab 32 3f 1e 08 a5 3c 33 83 99 37 65 02 8c 3c
       0.6979309 0.020145472 1.8300116e-05 0.017090986
000150 d7 11 22 bc 2e 29 9e 3d aa ec 33 bd 38 75 aa bd
       -0.009891949 0.07722698 -0.043926872 -0.08323139
000160 29 0a 4e be a8 ba 32 be 9d 38 4b be 9f 89 34 3e
       -0.20121063 -0.17454016 -0.19845815 0.17630623
000170 56 7d 06 3f 22 cb b6 bb f7 03 41 3c c4 e3 56 3f
       0.52535 -0.0055784145 0.01178073 0.8394129
000180 d2 bb 3c 3f d0 75 4a 3e b5 5e d3 39 f1 97 aa 3b
       0.7372409 0.19771504 0.00040315618 0.005206101
000190 f8 68 01 bd 41 5c e6 3d 3d dd c9 3d 2b 6c aa bc
       -0.031594247 0.11248065 0.09856651 -0.020803532
0001a0 62 15 79 3e 80 57 73 be 89 d4 05 bf b7 fb 41 3d
       0.24324563 -0.23763847 -0.5227743 0.047359195
0001b0 ba 79 37 bf ba 4e 87 3d 8d 3c 2e bd b8 89 29 3f
       -0.71670115 0.06606813 -0.042538214 0.6622577
0001c0 fb c9 14 3f cd d1 b0 3b a3 28 5a 3a 9d 2b 3c 3c
       0.581207 0.005396104 0.00083220954 0.011485008
0001d0 6e 85 12 3c 87 3f 1a 3e 88 cb 15 3f 42 d2 d3 bd
       0.008942945 0.15063296 0.5851369 -0.10342838
0001e0 36 4b fa 3c 03 a1 df 3d 61 6f 86 bb 86 76 ba 3b
       0.030553441 0.109193824 -0.004102633 0.0056903986
0001f0 97 35 72 3f 1b 49 96 3d 39 40 91 ba 8c 2b 87 3e
       0.9461302 0.073381625 -0.0011081762 0.2640041
000200 be 03 2e 3f a2 a0 91 3c cd 8c fc 39 e5 eb bb 3c
       0.6797446 0.017776791 0.0004817009 0.022939632
000210 28 7a 03 bd 56 9a bd 3d a2 16 7c be ae 5a a3 be
       -0.03209892 0.09257953 -0.24618009 -0.3190512
000220 dd 58 0e be 38 bf 19 3e 43 d6 58 be 61 e4 20 3e
       -0.13901086 0.1501435 -0.21175484 0.1571212
000230 28 01 01 3f df 6c 8d 3c 15 d8 93 3b 1a de 58 3f
       0.5039239 0.017263828 0.004511843 0.847139
000240 19 6f 2c 3f a6 c8 5e 3e 07 3e 00 3b 71 3f 28 3d
       0.6735702 0.21756229 0.0019568221 0.041076127
000250 99 33 30 bd ab 99 d8 3d 94 97 62 be 12 d0 33 be
       -0.043017957 0.10576185 -0.22128135 -0.17559841
000260 16 f9 1f 3e 29 c9 4d 3e 3c 67 05 bf f3 5c 9f 3c
       0.15622362 0.20096268 -0.5211065 0.019453501
000270 dc 37 38 bf af a6 99 3c 30 8d 77 3d c0 7c 29 3f
       -0.71960235 0.018756239 0.06043738 0.6620598
000280 ad 27 06 3f 79 7c 61 35 c6 8e 05 3a 33 95 18 3d
       0.5240429 8.4000163e-07 0.0005094822 0.037251662
000290 8a bf bb 3a 74 c9 ed 3d 24 4b 87 be 6e 6d 82 bd
       0.0014324051 0.1161069 -0.26424515 -0.06368528
0002a0 e9 ca a4 be e7 ac 40 be 1c 64 c6 3e a8 cf 6d bd
       -0.32186058 -0.18815957 0.38748252 -0.058059365
0002b0 36 60 5e 3f f9 7e c1 be 94 03 01 bd d8 de 08 3d
       0.86865556 -0.37792185 -0.031497553 0.033415645
0002c0 26 58 1c 3f 33 4c 9f 3a 20 65 9d 3b cd 17 f4 3c
       0.61072004 0.0012153446 0.004803315 0.029796505
0002d0 12 22 a5 3c 0b 78 ad 3d 91 65 56 be a6 85 0c bd
       0.020157848 0.08470162 -0.20937182 -0.034307145
0002e0 58 67 75 be bd bd 98 be c2 12 7e 3e c4 9f 67 bd
       -0.23965204 -0.2983226 0.24811843 -0.05654885
0002f0 a6 cd 75 be 66 36 09 bb 74 5d 3a 3c b8 9f 6f 3f
       -0.2400423 -0.0020936965 0.01137482 0.93603086
000300 3b 6b 10 3f 43 39 ec 34 fa ac cc 3a 89 20 be 3c
       0.5641362 4.400009e-07 0.0015615516 0.023208873
000310 43 a2 06 3c e5 cd f0 3d 0b 2e 03 be 50 4f 0c be
       0.008217397 0.11758021 -0.12810533 -0.1370213
000320 bb 92 52 3e 9d 25 2f 3e b5 a5 d2 3e d8 1f f3 bc
       0.20563786 0.17104192 0.4114205 -0.02967827
000330 9f 9b 6b 3f f4 82 47 3e 2b 6f 71 bc 3e 5e af 3b
       0.92034334 0.19483548 -0.014735977 0.0053518107
000340 e7 c3 22 3f 4f 79 5c 3a ef 25 07 3c f1 90 66 3c
       0.63580173 0.00084104104 0.00824879 0.014072643
000350 64 29 ed 3c 71 b0 cc 3d 40 cf 92 be 12 85 f3 bd
       0.0289504 0.09994591 -0.28673744 -0.118906155
000360 bf da 4f 3d b8 51 73 3e bd 28 7f 3e 71 68 38 bb
       0.050745722 0.23761642 0.24917884 -0.0028138424
000370 0c 15 ae be c9 8e 84 b9 24 2f 6a bc 22 80 65 3f
       -0.34000432 -0.00025283385 -0.014293466 0.8964864
000380 74 27 0f 3f
       0.55919576

network_body._body_endoder.seq_layers.0.weight f4 [128, 260]
000000 31 d2 a9 bb 73 69 a7 bd 88 9a dd bc 50 20 ec bd
       -0.0051825275 -0.0817441 -0.027051225 -0.115296006
000010 e2 f2 4c bd cc 7e 2e 3c 13 06 24 3d d9 7a b5 bd
       -0.05003632 0.010650348 0.040044855 -0.08861322
000020 bc 88 94 bd d9 d9 1e 3c b6 44 3b 3a 08 b5 b6 3d
       -0.072526425 0.009695494 0.00071437226 0.08921248
000030 07 85 01 3e a8 93 12 3d 08 a6 0e be 62 fe 96 bd
       0.12648402 0.035785347 -0.13930523 -0.073727384
000040 dd 4c 8a 3d 2a 55 e3 3d 9e a6 d1 bb f0 91 31 bd
       0.06752942 0.11100228 -0.006398036 -0.043352067
000050 ce 86 20 3b d9 4b 16 3e 17 46 ee 3a 4d d6 d3 bd
       0.0024494412 0.14677371 0.0018178847 -0.10343609
000060 fa b1 22 3d ce 92 89 3c 89 a8 7b 3d 64 63 9f 3d
       0.039720513 0.016793635 0.061440025 0.07782629
000070 b3 ef 85 3d e4 16 99 3d d5 10 90 bc cd 57 03 bb
       0.065398596 0.07475069 -0.017586151 -0.0020041347
000080 43 a6 c3 bd 6e 01 34 3e cf d8 0c bd 52 00 34 3d
       -0.09553196 0.1757867 -0.034386452 0.043945618
000090 1d d7 58 bd 8a b4 33 3e eb d0 31 3e af 97 8e bc
       -0.052939523 0.17549339 0.17364852 -0.017406313
0000a0 51 65 97 3d 63 6c d7 bd 99 3b 43 be d8 ff fb 3c
       0.073923714 -0.1051872 -0.19065703 0.030761644
0000b0 9f 8c 8f 3c 09 65 ce 3d 52 7e 9b bd 23 10 9b 3d
       0.017523108 0.10077865 -0.07592453 0.07571437
0000c0 ad 96 3c bd ff 5e 83 3c a1 d1 01 bc d9 b1 2a 3b
       -0.046042133 0.016036509 -0.007923515 0.0026045947
0000d0 2d 70 91 3d a9 4e 91 3a 36 b9 1b bd 7f 87 e7 bc
       0.07101474 0.0011086065 -0.038018428 -0.028262852
0000e0 fa 99 58 3d b8 4f 22 3e ae 4c 1c 3e 73 05 1f 3e
       0.05288122 0.15850723 0.15263626 0.15529422
0000f0 a3 57 bc 3d eb 18 39 bd 01 55 a4 bb 42 d1 92 3d
       0.09196403 -0.04518978 -0.005015016 0.07168819
000100 fe 85 b6 3d c9 df 36 bc 5d 44 18 be 16 ad e4 3d
       0.08912276 -0.011161753 -0.14869829 0.11165826
000110 d5 10 e9 bd 4e 89 8a 3d 8d cc 42 be e0 d6 c2 3d
       -0.113801636 0.0676447 -0.19023342 0.095136404
000120 a5 c6 6b 3e a3 da 0b 3e 45 17 be 3d 98 21 5d 3d
       0.23024996 0.13657622 0.09281782 0.053987116
000130 bb 23 0e be 7d 99 15 bb e5 11 51 3e fc dc ad bd
       -0.13880818 -0.0022827082 0.20416982 -0.08489415
000140 9a a6 ed bc 44 fe 6f 3c d4 6f 8f 3d 3c 45 de 3c
       -0.029010106 0.014648024 0.070037514 0.027132623
000150 08 ae e3 3d 28 f2 9a bd d3 fe 15 bd 88 ee 16 3e
       0.11117178 -0.07565719 -0.036619972 0.1473943
000160 23 8c be 3d 6f 1e 69 3e 69 70 e5 bd 99 1e b2 3c
       0.09304073 0.22765516 -0.11203081 0.021743106
000170 32 17 2a ba 5e be df 3d de 6c ac 3d 15 40 cb bd
       -0.0006488442 0.109249815 0.08419202 -0.09924332
000180 6c d3 8b bd d7 98 a3 3d 9c 64 10 bc 6d 20 e6 3c
       -0.06827435 0.07988136 -0.00881305 0.028091634
000190 9f e2 14 3d 36 c8 99 3c 98 cc 90 bd 2f 73 d2 3d
       0.036348935 0.018772226 -0.07070273 0.10275876
0001a0 d7 02 15 3e 3a 23 17 be 45 a6 9e 3d 7b 67 58 3b
       0.14551865 -0.14759532 0.07746557 0.0033020664
0001b0 d2 76 df bd 5e 6a e5 bc 57 f4 4c be e7 7b fb 3c
       -0.10911335 -0.028004821 -0.20015083 0.03069873
0001c0 1a a4 1a bd b3 43 3c 3e fc 61 04 3c 85 b8 64 bb
       -0.037754156 0.183852 0.008080002 -0.0034900021
0001d0 ab 74 cb bc e1 22 b1 bc c6 b9 24 3e 81 80 3b bd
       -0.024835905 -0.021623077 0.16086492 -0.045776848
0001e0 9c b4 b4 3d 38 78 06 3d 59 83 5c bb 00 de ac bd
       0.08823511 0.032829493 -0.0033647625 -0.08440781
0001f0 ab ea d5 3c 3c ac 47 be 36 fc b5 bd 61 9b 49 ba
       0.026112875 -0.19499296 -0.08885996 -0.0007690695
000200 25 9e 2f be f9 32 e8 3d 71 28 2c be 75 c8 12 bb
       -0.17150171 0.11337847 -0.16812302 -0.0022397314
000210 3a 52 16 be db 04 88 bd c2 59 67 3e 24 0a 22 3d
       -0.14679804 -0.06641551 0.22592834 0.039560452
000220 2c c4 7e bd eb 2b 32 bd 2a e6 2c bd eb 79 bf 3d
       -0.062198803 -0.043498915 -0.04221169 0.09349426
000230 95 9d 3f 3e 00 a7 50 3b d6 9f e9 bd 82 27 1f bd
       0.18712457 0.003183782 -0.114074394 -0.038856037
000240 64 38 67 bc 07 ea e1 bd 9c 44 06 3e 6d a8 16 bc
       -0.014112566 -0.11030965 0.1311211 -0.009195429
000250 89 1f 38 3d 77 03 7b 3b 00 72 c2 3b e3 52 c7 3d
       0.04495195 0.0038301626 0.005934 0.09732606
000260 2d f2 58 3d 30 55 81 3d 2c 55 22 bd 7d ef c0 bb
       0.05296533 0.06315076 -0.039632007 -0.005887924
000270 a9 41 d1 bc 6d 7f d9 3d d6 45 ff 3d b8 b6 66 3d
       -0.025544005 0.10620008 0.12464492 0.056326598
000280 32 81 90 bd 19 98 03 3e 97 e6 08 3d 5a ce 10 3d
       -0.07055892 0.1285099 0.033423033 0.035353042
000290 fa c2 41 bb aa 4d 19 bd cf d4 ba 3d e3 65 07 3d
       -0.0029565678 -0.03742758 0.09122621 0.03305615
0002a0 74 23 65 bd 6a 31 89 bc 22 c3 6b bd ad ed 99 3d
       -0.055942014 -0.016747195 -0.05755914 0.07516036
0002b0 30 ed 1d 3e 82 96 2a be 51 db cc 3d 4e ef c6 bc
       0.15422511 -0.16658977 0.10002769 -0.024284031
0002c0 49 a1 6a bd 36 12 cc bd 3c b3 5b 3d ef 97 4d bd
       -0.05728272 -0.09964411 0.053637728 -0.050193723
0002d0 70 06 29 bd b0 a8 93 3d b0 27 29 3d 91 a1 c8 3d
       -0.041265905 0.07209909 0.041297615 0.09796441
0002e0 ae e8 2c 3d 76 a6 01 bd 68 f1 ea 3d 61 41 5a 3d
       0.04221409 -0.03165289 0.11471826 0.053285006
0002f0 3b 61 99 3d 1a 6c d8 bc 60 cf 09 be 55 96 12 3d
       0.07489248 -0.026418734 -0.13458014 0.0357879
000300 06 5f 8a 3d 9a 32 7d bd fe 61 69 3d 47 c9 1e 3e
       0.067564055 -0.061815836 0.05697822 0.15506469
000310 8b fb d3 bb 26 04 0a 3d e2 61 32 3d 39 1e 4d 3e
       -0.0064691952 0.033695363 0.04355038 0.2003106
000320 d2 0b be 3d 26 12 f0 3d 8e 9b 5e 3d 14 1f 9c bd
       0.09279598 0.117222115 0.054347567 -0.07623115
000330 5e b7 60 bd 39 c2 cc 3d 76 3c e2 3d 75 5a 84 bd
       -0.054862373 0.099979825 0.11046688 -0.06462566
000340 e8 50 c6 bd 12 0f 1e 3d 59 bf d8 bd d4 0a 1a be
       -0.096834004 0.03858859 -0.10583372 -0.15043193
000350 fa 66 37 3e 8c 10 0e 3b 24 32 42 be cf ac 38 bc
       0.17910376 0.0021677343 -0.1896444 -0.0112716695
000360 80 e7 fc 3d c4 ed 1b 3d bf f5 49 3d f6 31 f4 3c
       0.123488426 0.038068548 0.049306627 0.02980898
000370 d1 f2 73 bd 57 2f ea 3d 43 4b ca bd 89 49 1f 3d
       -0.05955774 0.114348106 -0.09877636 0.038888488
000380 a5 12 20 bd 8d 78 c9 bd 8f 73 0d be 9c 9e a8 bc
       -0.03908028 -0.09837446 -0.13813613 -0.020583443
000390 5e b6 9d 3d e9 7b a9 bd 68 00 20 bd 0d 24 95 3d
       0.077007994 -0.08275587 -0.039062887 0.07282267
0003a0 bb ba 0f 3e d5 41 0b 3d 0f b6 33 3d d9 49 db 3c
       0.14036076 0.03399833 0.043874796 0.026768612
0003b0 d6 13 b9 bc 4d 05 38 3e ba b6 b1 3d 73 3c 04 3d
       -0.022592466 0.17970772 0.086774305 0.03228421
0003c0 4c 37 2d bc de 80 e0 3a 3b 2a bf 3d 76 fc f0 3b
       -0.010572266 0.0017128249 0.09334227 0.0073543144
0003d0 13 8d 59 be d4 16 b1 3c 44 39 1e bc a3 33 1c 3e
       -0.21245222 0.02161733 -0.009657208 0.15254073
0003e0 df 7c c4 bd 14 a6 1d 3e 92 5f 58 3d b5 10 68 bd
       -0.0959413 0.15395385 0.052825518 -0.056656558
0003f0 f5 91 16 bd 3e a9 88 3d 01 b5 51 3e 26 99 12 be
       -0.03676029 0.066729054 0.20479204 -0.14316234

network_body._body_endoder.seq_layers.0.bias f4 [128]
000000 87 68 15 3c 01 f7 df 3d e1 7b c2 ba 20 84 7e 3d
       0.00911916 0.10935784 -0.0014837944 0.062137723
000010 03 c8 47 3d 1b e0 ac bd 17 cb 0b bd 4d f0 33 bd
       0.04877473 -0.08441182 -0.03412923 -0.04393034
000020 3a 3a bc 3d ce 89 b7 3d 90 51 91 3d 01 ad e4 3c
       0.09190793 0.08961831 0.07095635 0.027914526
000030 7d 3f 33 3e e6 16 b3 bd e0 ad 7a bc a5 eb 9c 3d
       0.17504688 -0.08744602 -0.015300244 0.07662133
000040 4e c5 02 3e 2f 61 25 3d 80 3c 87 3d 49 41 f5 3d
       0.12770578 0.040375885 0.06603336 0.11975343
000050 06 aa 81 bd 35 3e b1 3d 15 c6 1d 3d 1f dd 94 3d
       -0.063312575 0.08654443 0.038518984 0.07268738
000060 a5 60 b4 3d f6 be 5d 3d 03 cf fa bc 42 29 da 3c
       0.08807496 0.054137193 -0.030616289 0.026631001
000070 83 4b 81 bd 55 e9 52 bd e5 cd b4 bb 57 dd 86 3d
       -0.06313231 -0.051492054 -0.0055177086 0.06585186
000080 a4 0f 84 3b 2e 5a d5 3c 13 05 30 3e ca ef 92 3d
       0.004030185 0.026043978 0.17189436 0.071746424
000090 d2 ad b5 3b 6f a5 3a 3d 6b 6a 83 3e bb 32 49 3b
       0.0055444026 0.045567926 0.25667128 0.0030700404
0000a0 07 ac 89 3c c9 c1 41 3b 62 a2 a6 3d f7 2e 7e 3d
       0.016805662 0.0029564968 0.08136441 0.062056508
0000b0 1c df a0 bc 2d 8e 1c 3e 46 e6 6b bc 12 2c 4e 3c
       -0.019637637 0.15288611 -0.014398163 0.012583749
0000c0 f3 58 57 bd b4 26 d5 bd 57 f9 85 3d 10 fd c0 3c
       -0.052575063 -0.10407773 0.065416984 0.02355817
0000d0 bc 88 29 bd 10 eb 98 3c 6a 87 2e 3d 1f 9a 1d 3e
       -0.041390166 0.018666774 0.04260961 0.15390824
0000e0 00 4a 84 3c f4 01 ef 3c ba 42 98 3d d7 46 ad 3c
       0.016148567 0.029175736 0.07434602 0.021151943
0000f0 11 c3 9b 3d 4b af 66 3d c4 ba a6 3c db 8a 2e bb
       0.07605565 0.056319516 0.020352729 -0.0026633057
000100 51 ef c9 3d db cc c1 3d 1d b4 20 3b ae 89 02 be
       0.09860099 0.09462901 0.0024521418 -0.12747833
000110 b5 47 e5 3d 17 bb ad 3d 90 80 40 bd 72 27 72 3d
       0.11195318 0.0848295 -0.046997607 0.05911965
000120 0f 74 c4 3d 24 2f d0 3b 1b 21 36 3d 2a 06 42 bd
       0.09592449 0.006353276 0.044465166 -0.04736916
000130 a5 b4 24 3d 37 71 4b bb 7c b6 ea bd 5c a7 18 3d
       0.04021134 -0.0031042823 -0.114605874 0.03726898
000140 19 50 66 3c 8a e1 45 3d f6 a4 b0 3d ee 0f 58 3d
       0.014057183 0.048310794 0.08625214 0.052749567
000150 c7 a3 02 bd 1d d3 13 bb ee 7e 10 3e e1 aa 66 bc
       -0.03189447 -0.0022556253 0.1411092 -0.014078827
000160 50 43 73 bd dd 33 24 3d 98 56 30 3e cc 30 f8 bd
       -0.059390366 0.040088523 0.17220533 -0.12118682
000170 2d b5 8e 3c f2 9f d9 bc f0 39 0a 3d 33 b6 c1 3d
       0.017420376 -0.026565526 0.03374666 0.0945858
000180 e8 26 06 3e 30 09 91 3d 60 92 d5 bb 80 ef 46 3c
       0.13100779 0.070818305 -0.0065176934 0.012142062
000190 0f f5 4f 3e 1e b9 e0 3c 45 b5 52 bd 37 ea b8 3d
       0.20308326 0.02743202 -0.051442403 0.09029048
0001a0 b9 8a 79 3d 71 f2 af 3d a3 e0 f2 3d 21 7f 17 3e
       0.06092331 0.08591164 0.11859252 0.1479459
0001b0 e4 4e 81 3d fb 08 fa 3d 30 b1 7d 3d 80 26 8e bd
       0.06313875 0.12208744 0.061936557 -0.06940937
0001c0 0b b6 33 3c 73 94 b7 3c 59 9f 6b bc 01 43 e8 ba
       0.010968695 0.022409653 -0.014381253 -0.0017720164
0001d0 4c e1 7b 3d 4d d1 3d 3a 98 86 d3 3d 19 55 d7 bc
       0.061494157 0.0007240966 0.10328406 -0.026285695
0001e0 3d a4 b0 bc f4 c8 23 bc a3 20 99 bd e8 5e 1b 3e
       -0.02156269 -0.009996641 -0.07476928 0.15172923
0001f0 25 ee 52 bd a4 02 85 bb e5 cd 55 bd 1d 65 91 bc
       -0.051496644 -0.0040591527 -0.05219831 -0.01774841

network_body._body_endoder.seq_layers.2.weight f4 [128, 128]
000000 21 9c 10 3e b1 44 79 3a 63 ac fb bd 46 e3 0a 3c
       0.14122058 0.0009508832 -0.122887395 0.008477038
000010 8a 3c 4c 3e 1d c1 ce 3d 18 73 dd bd b3 e6 9f 3c
       0.19944969 0.10095427 -0.10812968 0.019519186
000020 ce 35 5a 3e a4 19 90 3c 4f de 46 3e a1 39 fc bd
       0.21309587 0.017590351 0.19420741 -0.12315679
000030 5a ce 82 3c 9b 64 ad 3c a8 3b 62 bd 1d d1 9d 3c
       0.015967537 0.021166136 -0.055232674 0.019264752
000040 be 7f 16 bd 53 69 00 be 65 4a 8b be 7d 77 93 3d
       -0.03674292 -0.12540178 -0.27205196 0.07200525
000050 6c d0 2e bd 49 80 af 3d 45 99 15 3e 3b 7f 82 3d
       -0.042679235 0.0856939 0.14609249 0.063719235
000060 73 fe 92 3d 10 5a 16 3d b1 93 ca bd 54 98 be bc
       0.071774386 0.036706984 -0.09891451 -0.023265995
000070 2a 45 2e be 2b 4e 6d be 34 c7 2e 3d 17 a3 73 3d
       -0.17018571 -0.2317435 0.042670444 0.059481706
000080 18 b0 25 3d be e8 0d bd cd 38 91 3c 2b 52 6f bd
       0.04045114 -0.03464579 0.01772728 -0.05842797
000090 3a ec 1a 3e ae e3 6a 3d e6 76 ec bd 7e a5 eb bb
       0.15129176 0.05734604 -0.115461156 -0.007191359
0000a0 41 f3 a5 3d 56 02 ad bd 99 12 49 3c e6 d4 17 3e
       0.081030376 -0.08447711 0.0122725 0.14827308
0000b0 13 34 aa 3d 42 0a e7 3c 47 65 23 3c f8 98 53 3d
       0.083107136 0.028203133 0.009972877 0.051659554
0000c0 d9 0f 22 bc 38 79 31 3d 47 4a 35 be 81 cb 36 bd
       -0.009891474 0.043328494 -0.17704116 -0.04462767
0000d0 c7 84 de bd d5 da 18 3b e5 a1 40 3e 80 29 fc bd
       -0.10865169 0.0023323793 0.18811758 -0.12312603
0000e0 d5 c5 04 be 66 a9 2f bd 92 2a ab 3b 47 9b 43 be
       -0.12966092 -0.04288616 0.0052235806 -0.19102202
0000f0 56 1e 0a 3d 5b 2e 9e 3d 03 05 85 bd 0f 94 82 bd
       0.033720337 0.07723685 -0.064950965 -0.06375896
000100 cd 10 ce 3d a1 b2 73 3c 15 7f 4b 3d ed 22 fe 3c
       0.10061798 0.014874131 0.04968174 0.031022513
000110 c7 f4 15 bc a4 27 01 bd cb 17 91 3d b1 d9 36 bd
       -0.009152598 -0.031531945 0.07084616 -0.0446412
000120 d2 e4 be bd 4a 4f bc bd 9a e6 4f be 1c 94 c6 bd
       -0.09320988 -0.09194811 -0.20302811 -0.09696218
000130 23 bb 14 be a4 9d a8 bd e4 a3 e8 bd ef 2b 0f be
       -0.14524512 -0.082331926 -0.11359385 -0.13981603
000140 69 db dd 3d 92 c7 9b bd b8 5b 5b 3e 27 5b c0 3d
       0.10832865 -0.076064244 0.21421707 0.09392386
000150 e4 79 97 bc 67 a4 62 3c 17 9b 07 be 6e 11 e2 bc
       -0.01849074 0.013833142 -0.13242756 -0.027596202
000160 e7 49 bc 3d 73 b6 86 3e d8 36 2f bc 5f 35 b7 bc
       0.09193783 0.26311073 -0.010694228 -0.022364317
000170 b0 ff 09 bc 5a c3 68 3e f8 a6 aa 3e f1 87 83 be
       -0.008422777 0.2273077 0.33330512 -0.25689653
000180 9f 88 7b 3e 23 b3 ed bd f9 96 17 3d f1 81 b2 3d
       0.24563836 -0.11606433 0.037009213 0.087161906
000190 71 65 8e 3c 44 33 d9 3d 57 a8 2e bc 05 b9 70 3e
       0.017382355 0.10605481 -0.0106602525 0.2350808
0001a0 1f 88 46 3d d0 05 dd bd c8 2e 0d 3e 7a 22 00 be
       0.04846966 -0.10792124 0.13787377 -0.12513152
0001b0 21 32 86 3d 48 c2 35 bd 05 41 18 be 8c ed 80 be
       0.0655253 -0.044374734 -0.14868553 -0.25181234
0001c0 cb 58 29 3e 20 d1 f2 bd 6a 8e b9 bb 36 01 98 3c
       0.16537778 -0.11856294 -0.005662729 0.018555265
0001d0 a2 8a 97 bd d8 3e 07 be 64 9a ba bd 4c e9 89 be
       -0.07399489 -0.13207567 -0.09111479 -0.26935804
0001e0 6c 85 da 3b 1c 92 53 be 8f 8d a8 3d fc 0d f8 3d
       0.006668737 -0.20661205 0.08230125 0.12112042
0001f0 5a ec ed bd 5e ec 8a 3d 44 b6 75 bd 80 0d 0a 3e
       -0.11617346 0.06783365 -0.059988275 0.13481712
000200 56 da 5c be 35 12 17 be 7c 84 f8 3b 75 22 51 be
       -0.21567664 -0.14753039 0.0075841527 -0.204233
000210 d2 60 61 be c5 53 b1 bd 9b fd 81 3d 45 80 d5 ba
       -0.2200959 -0.08658556 0.063471995 -0.0016288838
000220 f1 be 09 be 99 e3 bd bd b2 95 cb 3d 7b 72 5c 3e
       -0.13451745 -0.092719264 0.099406615 0.21528046
000230 86 4b 9f 3d c9 ee 14 3d d4 d2 76 3d 46 da b8 3c
       0.07778077 0.036360536 0.060259655 0.022565018
000240 70 80 ab bd 4d 53 2e 3d 03 5b 88 bc e2 69 12 3d
       -0.08374107 0.04255991 -0.01664496 0.03574551
000250 f7 a8 16 be f3 f5 25 3d 71 43 61 be 29 73 8a bd
       -0.14712892 0.04051776 -0.21998383 -0.06760246
000260 64 92 a7 3d 84 4e 60 bd 94 4c b0 bd d6 ee ef bb
       0.08182219 -0.05476238 -0.08608356 -0.0073221726
000270 ca 8a ca bd 02 85 0a 3e 7f cf 05 bd 67 0f 94 3d
       -0.09889753 0.13527301 -0.032668587 0.072295
000280 b2 01 69 3c ff 9a 35 bd a8 3d 5c 3a 6b 65 b8 bd
       0.014221596 -0.04433727 0.00084015215 -0.09003719
000290 a6 1a 81 3d fc 9a 45 3e 36 41 ab bd 05 00 3b 3c
       0.06303911 0.19297403 -0.083620474 0.011413579
0002a0 e5 a7 8d 3d b9 21 36 bd c4 e7 75 bd 05 9f bd 3c
       0.06916789 -0.044465754 -0.060035482 0.023147115
0002b0 6e 32 15 3d 3f 4f 9a 3d f2 6d 02 3e a2 e8 cd bc
       0.036425047 0.07534646 0.12737253 -0.025135342
0002c0 7a 06 23 3d 30 dc 9d bc c5 8b 13 3e eb 36 f2 bd
       0.0398011 -0.019270033 0.14408787 -0.11826881
0002d0 cd 0f 83 3d c8 e7 63 be 17 6e a0 bd 9d 84 93 bc
       0.06399498 -0.22256386 -0.07833498 -0.01800757
0002e0 73 73 88 bd c1 ce 26 3a ee 2d c2 bc b2 0c e0 bb
       -0.06662645 0.0006363206 -0.023703542 -0.006837451
0002f0 9d 89 28 3d 9f 59 90 3d b5 50 7e bc fd b4 a5 bd
       0.041146863 0.07048344 -0.015522172 -0.080911614
000300 65 01 e0 bc 10 cb 99 3d 48 e5 16 3e c6 a9 67 3d
       -0.027344415 0.07509434 0.14735901 0.056558393
000310 c7 f1 3b 3d dc 37 75 be 7c d0 08 be ad f4 30 bd
       0.045884874 -0.2394709 -0.1336078 -0.04320209
000320 98 48 43 be 3f f8 08 bd fe 09 6e bb 54 c1 6d 3d
       -0.19070661 -0.03343987 -0.0036321874 0.0580457
000330 73 65 0d 3e 5a d7 41 bd 59 ed 20 be bd d7 0e bd
       0.13808231 -0.047324516 -0.15715541 -0.034873713
000340 b1 e4 0c be 2c e0 0f 3d 2e 7f bd 39 d8 35 d3 3d
       -0.13759114 0.035125896 0.00036143645 0.10313004
000350 f9 23 81 3c 75 e1 6f bd a9 a0 8c 3d d5 3a 6c 3d
       0.015764223 -0.058564622 0.06866581 0.057673294
000360 6c a9 df bc 3e e5 24 be ac a6 8c be 0c 18 ff 3c
       -0.027302466 -0.16103074 -0.2747091 0.031139396
000370 63 9b 8e 3e 2f 30 2b 3e 87 71 a0 3d d7 d8 cb bd
       0.27852926 0.167176 0.078341536 -0.09953468
000380 9d 4d 94 bd 3c a1 c9 bd 86 af 95 3d ff 87 81 3d
       -0.07241366 -0.09845206 0.07308869 0.06324767
000390 c8 81 91 bd e9 94 8d 3e 85 a2 10 3e 1f f5 64 3e
       -0.07104832 0.27652672 0.14124496 0.22359131
0003a0 b6 59 49 3c 99 c2 8d bd e0 f3 0a be 92 16 0d bd
       0.012289455 -0.06921882 -0.13569593 -0.034445353
0003b0 41 33 96 bd 2e e1 20 be 4f 9e 72 3e a9 bc eb 3d
       -0.07333995 -0.15710899 0.23693202 0.115105934
0003c0 25 63 9d be 81 06 29 be 5a a3 54 bc 98 91 2d bd
       -0.30739704 -0.16506387 -0.012978399 -0.042375177
0003d0 e1 81 8a 3d 59 6b 9a bc 2b 33 1d 3c 09 7a de 3d
       0.06763054 -0.018850015 0.009594719 0.1086312
0003e0 32 29 5f 3d 5d 44 44 39 13 a9 c4 3d ac 6b 22 be
       0.054482646 0.00018717484 0.09602561 -0.15861386
0003f0 ff de 4f 3e c7 38 f9 3d db 58 17 bc 27 e1 a5 3c
       0.2029991 0.121690325 -0.009237493 0.020248963

network_body._body_endoder.seq_layers.2.bias f4 [128]
000000 26 dd 00 3d 9e 58 41 bd 92 1e f9 3c 56 2e 1b 3d
       0.031460904 -0.047203653 0.030410085 0.037885986
000010 16 01 f4 3d 22 ce 33 3d 01 c2 23 3d ce 7f f9 3d
       0.119142696 0.043897755 0.03997994 0.1218258
000020 cc b8 d1 bb b9 06 c3 3d 71 af 80 3c ec 35 ed bc
       -0.0064002033 0.095227666 0.015708657 -0.028956376
000030 d4 e3 18 3e ef 53 21 3d 30 05 f7 3d 85 11 52 bd
       0.1493066 0.039386686 0.12061536 -0.05128624
000040 71 50 c6 3c e5 37 c7 3d 0a 58 2d 3d 48 12 1c 3d
       0.02420828 0.09727458 0.04232029 0.03810337
000050 f7 8b e5 3d 48 41 6f 3d 48 15 35 3d 08 4d 7f 3d
       0.11208337 0.058411866 0.04420975 0.062329322
000060 fc 2a eb 3c 7c 57 84 3c 86 c6 0c 3d 62 da f7 bc
       0.02870702 0.016154997 0.034369014 -0.0302555
000070 42 86 f2 3d 76 b1 0d bd a9 a8 b2 3c 08 99 60 3d
       0.11842014 -0.034593068 0.021808939 0.054833442
000080 a4 17 a5 bc 56 b7 21 3d 43 2b aa 3d 5d 9e 27 3c
       -0.020152874 0.039481483 0.08309033 0.010230628
000090 14 49 b7 3d a3 61 1d 3d c8 55 d1 3d b9 a2 37 3d
       0.089494854 0.03842319 0.102214396 0.04483292
0000a0 20 0a b2 bb 80 42 7f bc f0 17 07 bb 9d 36 a9 3d
       -0.005433336 -0.01557982 -0.0020613633 0.0826237
0000b0 55 f4 2e bc 6b 82 3f 3d 6a ef 82 bc d5 f2 7a bd
       -0.0106783705 0.046755236 -0.015983302 -0.06126674
0000c0 a7 ed 26 bc eb 10 d8 3d 52 1b 6a 3d 29 e4 15 3c
       -0.010188497 0.10550102 0.05715496 0.009148636
0000d0 87 52 2e bc e7 8a b4 3c 6e 0f 9d 3d 28 71 b4 3d
       -0.010639793 0.02203889 0.076689586 0.08810645
0000e0 65 5c a4 3d 01 b3 91 3b 4e 08 d4 bb c5 58 00 3e
       0.08025435 0.0044463878 -0.0064707166 0.12533863
0000f0 9d d3 9d bd 0f b1 71 bc bd 51 00 bd 72 ee 5b bd
       -0.07706378 -0.014751687 -0.03132795 -0.053694196
000100 39 fc 64 3d 36 8b 4d 3b 2c 99 91 3d 37 50 f5 bb
       0.0559046 0.0031363494 0.07109293 -0.007486369
000110 2d df 90 3d a5 96 57 3c 16 b7 44 3c 10 e1 fd 3d
       0.070738174 0.013158475 0.012006542 0.12396443
000120 b9 1c 94 3d b2 0f df 3d 71 40 85 bd 4a a2 83 3d
       0.07232041 0.108916655 -0.06506432 0.064274386
000130 01 04 19 3d 1b 49 02 bd 33 14 64 bc db 4f da bd
       0.037357334 -0.031808 -0.0139208315 -0.106597625
000140 30 fc a9 3c 39 51 16 3d 11 d4 85 3c fc 26 81 3b
       0.020750135 0.036698554 0.016336473 0.003941415
000150 c0 5e 60 3d e0 f4 d2 3d d5 24 7f 3b b0 83 36 3d
       0.05477786 0.103006124 0.0038931866 0.04455918
000160 e9 1f 44 3d a2 8f 84 3d c1 26 8b 3d e1 19 06 3b
       0.047881994 0.06472708 0.06794501 0.0020462202
000170 cd 8d 8b 3c a2 68 18 3d cf 82 50 3d af 52 58 3c
       0.01703539 0.03720916 0.050906 0.013203307
000180 5a f6 0a 3c 9c 37 d1 3d 7c ca 95 3d 80 4b 74 3d
       0.008481586 0.10215685 0.073140115 0.059642315
000190 ed bc 94 bc 14 a4 8a 3d c0 83 0b bc ba f4 c4 3b
       -0.018156493 0.06769577 -0.008515298 0.006010619
0001a0 a0 e1 d1 3c 9f 09 07 bc 13 37 94 bd 67 6a 48 3c
       0.025620282 -0.00824204 -0.07237067 0.0122324
0001b0 3d 05 93 3d 6f da a5 3c 29 b5 c2 3c 89 dc 24 3d
       0.071787335 0.020245759 0.023768025 0.04024938
0001c0 7d c3 b5 bc b3 67 c5 3c 04 d0 16 3d e9 f2 b4 bc
       -0.022187943 0.0240973 0.036819473 -0.022088485
0001d0 ad 3c b9 3c 1a b8 dd bb 94 f0 5d bd 5b 5b 0e 3d
       0.02261194 -0.0067663314 -0.05418451 0.034755092
0001e0 a1 c1 18 3d b1 0a 05 3e 47 e5 4f 3d ec 63 7d 3d
       0.037294034 0.1299236 0.050755765 0.06186287
0001f0 3a ad e0 ba 22 b1 93 3d a4 1a 11 bd eb e2 8a bd
       -0.0017141469 0.0721152 -0.035425797 -0.067815624

network_body._body_endoder.seq_layers.4.weight f4 [128, 128]
000000 02 f1 14 bd 7a 29 f1 3c f9 f5 21 be f3 3d 32 be
       -0.036362655 0.029438723 -0.15816487 -0.17406444
000010 b6 61 5a 3d 93 ef 9e 3d 3d 76 3d bd 5a 01 1c 3e
       0.05331584 0.07760539 -0.04625534 0.1523489
000020 ea a8 40 be 9e 2a 93 3d 34 cc d7 3d af 53 e2 bc
       -0.18814436 0.07185863 0.105369955 -0.027627794
000030 90 c3 34 be 5f 0d 08 bc 73 c6 61 3d f8 c5 0e 3d
       -0.17652726 -0.008303969 0.055120897 0.034856766
000040 79 88 63 bb 7e 22 7b bd 04 80 88 bd af 6d 79 bd
       -0.0034718795 -0.06131219 -0.06665042 -0.060895618
000050 e2 3f 05 3e 69 cd cb 3d cf 94 46 3e e2 71 1a 3d
       0.1301265 0.09951288 0.19392703 0.037706263
000060 26 0a cf 3d 0c 05 85 3c 45 cb 4c 3c c8 03 0c bd
       0.101093575 0.016237758 0.012499635 -0.034183294
000070 7a 79 30 be a4 fe 0c 3d 50 5d 5a 3e 25 7e 1a 3e
       -0.1723384 0.03442253 0.21324658 0.15087183
000080 6f a2 f2 bd b4 33 a4 3d 0f 63 99 3d 4c 5c 6b be
       -0.11847388 0.08017674 0.07489597 -0.22984427
000090 28 b0 cb 3d 61 7a ec bc 80 32 29 bc f6 ea f3 3c
       0.099457085 -0.028866949 -0.010326982 0.029775124
0000a0 81 88 0d bd f4 ed 16 be 2b 73 5b bd a6 d7 5e 3d
       -0.03455401 -0.1473921 -0.05357663 0.054404877
0000b0 15 44 80 be 26 48 d0 bb d9 2b 26 3e e5 d6 dd bd
       -0.25051942 -0.006356257 0.16227664 -0.108320035
0000c0 4f 37 77 3d 49 52 f0 3c 41 01 dc bc d3 a1 3f bd
       0.06035548 0.029336112 -0.026856067 -0.046785187
0000d0 1e b3 e5 3c d3 7d a8 bd 58 b0 33 bb f5 45 9b bd
       0.028039511 -0.08227124 -0.0027418341 -0.075817026
0000e0 9d 73 64 3d 4f 41 d9 3d f9 8a be bd af 66 fe bd
       0.05577432 0.1060816 -0.09303851 -0.12421929
0000f0 13 0b c3 3b dd 6e 6a 3d aa 87 35 3d bc 85 83 bc
       0.005952248 0.057234634 0.044318832 -0.01605498
000100 ec 4b c8 3d e9 45 10 3d 39 4a 7c bd 24 89 49 bd
       0.09780106 0.03522292 -0.06159422 -0.049203053
000110 53 c6 b8 3c 61 aa 73 bc 25 bc 4c be 3f 40 18 be
       0.022555506 -0.014872164 -0.19993646 -0.14868258
000120 84 db 90 bd 99 6b 28 bd 3e ac be bc 27 29 d4 bd
       -0.07073119 -0.041118238 -0.02327549 -0.10359412
000130 4e 0b dc 3a 94 d2 d8 be c5 89 a2 be fa 01 1f 3e
       0.0016788037 -0.42348158 -0.31745735 0.15528098
000140 a3 6b bb bb c5 a9 a4 ba 7d 7f a1 bd 67 d4 3a bd
       -0.0057196184 -0.0012562802 -0.078856446 -0.04561272
000150 1a 1a 5c 3e 3a 00 14 3e 58 31 ce bd 1e f1 8d be
       0.21494332 0.14453211 -0.10068005 -0.2772302
000160 40 d5 f5 bd a8 5f 10 3d 7a 1a d9 bd 8d 07 55 be
       -0.12003565 0.035247475 -0.10600753 -0.20803662
000170 dd bb 1a 3c 31 9c 2f be 1d ae 65 bd 27 bb 9d 3e
       0.009444204 -0.17149426 -0.05607425 0.30806848
000180 5b a5 6f bd 7f 52 ac bd ed 91 54 3d 00 d6 be 3c
       -0.058507305 -0.084141724 0.05189698 0.023295403
000190 02 fe 3a 3e a7 5a e6 bc 5b 13 2c bc 6c 1e 37 3e
       0.18260959 -0.028119398 -0.010502662 0.17882699
0001a0 d2 ce b1 3d 0b d8 76 be c0 34 27 be a1 e0 b5 bc
       0.08682026 -0.24105851 -0.16328716 -0.022201838
0001b0 d7 57 90 bd 92 06 d7 3d 0f 01 19 3d 1f b4 f8 3d
       -0.07048004 0.104993 0.037354525 0.1214373
0001c0 f3 45 83 bd 68 b6 47 3d 44 c9 89 3c e2 10 fb bd
       -0.06409826 0.04875794 0.016819604 -0.122590795
0001d0 ab e8 16 3e 82 2b 97 bc c1 39 03 3c ef 0b 7a bd
       0.14737193 -0.018453363 0.008009375 -0.061046537
0001e0 1d 44 ba bd 78 21 22 3d ed dc 35 3d cb 9b b8 3d
       -0.09095023 0.0395827 0.044400144 0.0901409
0001f0 b1 3c a0 bc b4 91 ae be 52 b4 df bd 7e e0 0e bc
       -0.01956019 -0.34095538 -0.10923065 -0.008720515
000200 46 55 eb 3d 2d ea 0c be 33 9d 9c 3d 62 fa ac 3c
       0.11490874 -0.13761206 0.07647171 0.021115486
000210 e7 df 03 bd dd 3c be 3d d2 17 30 bd dd 54 f1 3d
       -0.03219595 0.092889525 -0.042991467 0.117837645
000220 21 78 53 be 1b be 04 be 30 a5 50 be a6 9f de 3d
       -0.20651294 -0.12963144 -0.20375514 0.10870294
000230 82 db 20 bd cd f0 7a 3c 98 cd 0e be 87 b3 38 3e
       -0.03927184 0.0153162 -0.13945615 0.18037234
000240 a6 ab d5 bd b0 d3 f5 bc fd 7d d5 3d 9c fa 44 bd
       -0.1043313 -0.030008167 0.10424421 -0.048090562
000250 b4 62 9c 3d 1b d3 c5 3c a2 74 95 3e 7b 98 55 3c
       0.076360136 0.024148514 0.29190546 0.013036842
000260 d4 eb c1 3d 14 12 36 3d 9a b4 19 3c 94 38 50 bd
       0.09468809 0.044450834 0.009381438 -0.050835207
000270 4c 9c 3c bd 2c 0b 71 bd 6a e9 98 bd 21 b6 5f be
       -0.046047494 -0.058848545 -0.07466395 -0.2184682
000280 50 64 ad bc cb 16 3f 3e 0d 24 1b 3c c6 5c cc bd
       -0.021165997 0.18661039 0.009469044 -0.09978633
000290 b6 00 27 3d d9 37 d4 3c 51 37 37 3e f4 d8 51 3c
       0.040772162 0.025905536 0.17892195 0.012808073
0002a0 6b 32 65 3e cb 53 d1 bd 72 0e 07 3d 8f fa 03 3d
       0.22382514 -0.1022106 0.03297276 0.032221373
0002b0 b8 1c 88 3d 0c ad 8f 3d 91 b3 ad 3d ff 4c b1 3d
       0.06646103 0.07015428 0.08481515 0.08657264
0002c0 32 ff 41 be 2d 5b f9 bd 1d ac 42 bd 11 e0 2e 3e
       -0.18945006 -0.121755935 -0.04752742 0.17077662
0002d0 2e 50 57 3c 8c 45 72 be 86 9e 79 3d 24 e8 45 3d
       0.013141675 -0.23659343 0.060942195 0.04831709
0002e0 68 1d af 3d 1a 1a 07 3d c1 ea 7c be 00 e8 11 3d
       0.08550531 0.032983877 -0.24698927 0.035621643
0002f0 d8 ee e4 bc fb bf a2 bb 5d 38 0c be 41 68 7f b9
       -0.02794592 -0.0049667335 -0.13693376 -0.00024357533
000300 ea ca 7e 3c 9d 43 c4 bd 22 00 04 3e f6 84 db 3d
       0.015551308 -0.09583209 0.12890676 0.1071872
000310 e1 aa 6a 3e 66 81 4f 3d 98 bc 20 3e dd 70 e2 bd
       0.22916748 0.050660513 0.15696943 -0.11056683
000320 1f 1d 09 bb 25 bf 62 3d c0 95 81 3d 74 bf 76 3d
       -0.0020921899 0.05535807 0.06327391 0.060241178
000330 f3 db 5a 3d 8d bb 1c bc 70 20 6c 3d d0 19 cc 3d
       0.053432416 -0.0095662 0.057648122 0.09965861
000340 68 0d ba 3d cd 4d 7d bb 6e 63 57 bc d0 01 0a bc
       0.09084588 -0.003865111 -0.0131462645 -0.008423284
000350 ee 67 04 3e c5 04 99 be 44 65 b5 3d 3f ae 5a be
       0.12930271 -0.2988645 0.088572055 -0.21355532
000360 a0 ca b7 bd 21 c5 75 3c 65 af fe bd 71 d9 2c 3e
       -0.089741945 0.0150006125 -0.124357976 0.16879822
000370 0e 3e 83 3c 50 af 38 3e 4d 07 92 bd 48 84 0c 3e
       0.0160208 0.18035626 -0.07130299 0.13722336
000380 2b aa a0 be 87 fb d6 bd 45 1a 5f bc 29 a2 20 3d
       -0.31379828 -0.10497194 -0.013617103 0.039217148
000390 e5 79 0c bc d4 4b 95 be a5 d1 57 3d 55 ac ef b8
       -0.008573984 -0.29159415 0.052690167 -0.000114285074
0003a0 95 e1 4b 3d 5c 55 63 bd f6 34 c7 bd 69 1c b7 bd
       0.04977568 -0.055501327 -0.09726898 -0.08940966
0003b0 cd a0 9b bc 51 1c 8c 3c b0 03 bc 3d 80 43 14 be
       -0.018997574 0.017103346 0.09180391 -0.14478874
0003c0 ee 40 a0 3d 33 7a 80 3d e5 8c 56 3d 65 55 3d bd
       0.07824884 0.06273308 0.05238046 -0.046224017
0003d0 de 79 40 3d 86 27 f9 3d 40 3f 6f 3e ff 7d 99 bd
       0.04699122 0.121657416 0.23363972 -0.07494735
0003e0 49 b3 0d be af 40 9c bd a7 24 d2 3b 0a 3f 95 bb
       -0.13837923 -0.07629525 0.0064130607 -0.004554634
0003f0 d5 a1 f3 3d 5f b3 f4 bc b6 44 8d bc 4e 68 30 be
       0.118961014 -0.029870687 -0.017244678 -0.17227289

network_body._body_endoder.seq_layers.4.bias f4 [128]
000000 e0 ca 68 3c e3 2f 28 3d 75 7f 52 3d ff 10 11 3e
       0.014208525 0.041061293 0.051391084 0.1416664
000010 18 1d 89 3d 94 23 e1 3d 39 cc c8 3d df c0 e3 3d
       0.06695002 0.10993114 0.098045774 0.111207716
000020 5e 41 99 bb 39 16 81 bb 17 b6 54 3d 6e 06 51 3d
       -0.004676982 -0.0039394167 0.051931467 0.051031522
000030 11 04 dd 3c fe 06 69 3c ca c1 89 bc 23 9e c6 3d
       0.026979478 0.0142228585 -0.016816039 0.09698131
000040 cc 9c 10 3d 79 a5 b2 3d cf 45 bc 3d f4 b9 35 3d
       0.035305783 0.08722968 0.091930024 0.04436679
000050 0f c0 22 3d 0d fc 13 3d a7 74 98 3c a2 a9 91 3d
       0.039733943 0.036129046 0.018610312 0.07112433
000060 25 c6 a9 3d 0c 5f 5d 3d bb e2 93 3d 9b b1 24 3d
       0.08289746 0.054045722 0.0722098 0.04020844
000070 5d 5d 71 3c ec 1a 9e 3c 6b fc ad 3c 16 05 9b 3d
       0.014731732 0.019299947 0.021238526 0.075693294
000080 6c 13 05 3d 42 08 14 3e a6 d4 25 3c e5 07 6f 3d
       0.032489225 0.14456275 0.0101215 0.05835714
000090 6d e5 25 3d 88 f1 64 3c 5c 68 90 3c 43 b8 d3 3d
       0.040502 0.013973601 0.017627887 0.103378795
0000a0 11 2e d4 3d 51 39 ac 3c 62 75 05 3d 72 38 7d 3d
       0.10360349 0.021023424 0.032582648 0.06182141
0000b0 5d 9e c5 3c 38 23 c5 3d 5a a7 51 3d 7e 05 cf 3d
       0.024123365 0.09625858 0.05118499 0.101084694
0000c0 c3 72 f8 3d dd 93 03 3d e1 77 79 3d 75 c9 78 3d
       0.12131264 0.032123435 0.06090534 0.060739
0000d0 2c 83 16 3d 5c 95 8d 3b 22 94 95 bc b5 03 ca bc
       0.03674619 0.0043207835 -0.018259112 -0.02465997
0000e0 79 b7 e2 3d e8 7f c3 bd a8 f3 b9 bd 63 f0 03 3e
       0.11070151 -0.095458806 -0.09079677 0.12884669
0000f0 d6 34 be 3b 81 5e 70 3d d5 29 a0 bb c1 74 d3 3d
       0.0058046384 0.058683876 -0.0048877993 0.103250034
000100 cd 21 90 3d fa 87 8f 3c 9b df 38 3d 02 d5 57 3d
       0.07037697 0.017520893 0.04513512 0.052693374
000110 be 01 80 ba 8e 33 9c 3d c5 d0 ae 3d e9 1a f3 3d
       -0.0009766144 0.07627021 0.085359134 0.11870367
000120 75 eb b2 3c 55 58 c9 3c 5d 0b 84 3d 55 82 1c 3d
       0.02184079 0.024578253 0.0644748 0.03821023
000130 de 8e 88 3d 4c d5 13 bd da eb 13 3d 56 6a 6e 3d
       0.06667875 -0.036092088 0.036113597 0.05820688
000140 0a 08 40 3d 0c 5b 09 3b c3 c5 0b 3e 67 27 0d 3d
       0.046882667 0.002095881 0.13649659 0.034461405
000150 6b 68 5c 3d 26 0c 3a 3b d5 3c 9f bc 26 5f aa 3c
       0.05381052 0.0028388589 -0.019438187 0.020797323
000160 ba 16 52 3d 4e 80 37 3d 38 ca c5 3b 7f fb 51 3d
       0.051291205 0.044800095 0.0060360692 0.051265236
000170 52 de 2d bc b7 f2 fe 3a 20 06 6e 3d 0f c2 d0 3d
       -0.010612087 0.0019450997 0.05811131 0.10193264
000180 cf 4a 5a 3d 63 cb 2a 3c ff e8 96 3c 3e 91 91 3c
       0.053294 0.010424468 0.018421648 0.017769452
000190 79 3d be 3d 9b 61 7b 3d 3b 09 41 3b f0 70 b8 3d
       0.09289069 0.06137238 0.0029454965 0.09005916
0001a0 21 0e 1a 3d bb 3b 20 bd 7c 23 f5 3b 0f 0c 0f bd
       0.03761113 -0.039119463 0.0074810367 -0.03492361
0001b0 b0 37 a5 3b 1e ec a1 3d d2 15 e0 3d 99 56 3f 3c
       0.005042039 0.07906364 0.10941662 0.011678361
0001c0 d6 3c 99 3d af b0 d9 3b fd 20 66 3d 04 83 d5 3c
       0.07482307 0.006643377 0.056183804 0.02606345
0001d0 05 78 f3 bc c2 a1 24 3d 5e aa f0 3c a8 9f a9 3b
       -0.029720316 0.040193327 0.029378112 0.005176503
0001e0 cc fa 81 bb 9a d4 7e 3d 1b a2 ce 3d 36 2d 86 3d
       -0.003966665 0.06221447 0.10089513 0.06551592
0001f0 77 89 42 3d 0a c6 84 3d b9 e9 20 3d 7f 14 a0 bb
       0.047494378 0.064830855 0.039285395 -0.004885256

action_model._continuous_distribution.log_sigma f4 [1, 35]
000000 0f a0 a3 bf cc be 81 bf 55 99 a8 bf 96 82 ce bf
       -1.2783221 -1.0136352 -1.3171793 -1.6133602
000010 31 a3 17 bf 36 81 eb bf a3 fc 41 bf b2 c3 c2 bf
       -0.59233385 -1.8398807 -0.7577612 -1.5215971
000020 f5 1a c1 bf 80 cd b1 3c 3d 8c 4c 3f 38 bf 6c 3f
       -1.5086352 0.021704435 0.79901487 0.92479277
000030 12 eb 16 3d 98 97 51 3f e8 81 61 3f c5 80 a7 bf
       0.036845274 0.8187194 0.88088846 -1.3086172
000040 d3 de 3d bf 4f d2 86 bf 0f 7d c7 be 92 7d 9e bd
       -0.7416813 -1.0532931 -0.389626 -0.077387944
000050 22 09 99 be 39 d6 4e 3e f9 92 0c bd 11 51 16 3e
       -0.2988978 0.20198907 -0.03431985 0.14679362
000060 fa 26 3b 3f 86 f2 a0 3e bf 34 d8 3e 93 e9 8f 3e
       0.7310635 0.3143503 0.42227742 0.2810789
000070 5a f6 66 3e 54 ae b2 3e a8 66 ba 3e e6 a7 1f 3f
       0.22554913 0.34898627 0.36406446 0.6236557
000080 1e db 07 3f 4d ed fe 3e cf 3d 36 3f
       0.5306872 0.4979042 0.7118806

action_model._continuous_distribution.mu.weight f4 [35, 128]
000000 62 2d 9a bd cf c1 07 bc 12 ae e4 3c a9 89 a5 3d
       -0.07528187 -0.008285954 0.027915034 0.08082897
000010 4e 94 11 3d ca fb f0 bc 50 a7 aa bd d6 c7 3d bd
       0.035541825 -0.029416937 -0.083326936 -0.046333157
000020 eb 93 08 3d 60 7c 52 bd cf 20 95 3d c4 ef fc 3d
       0.03334419 -0.051388144 0.07281648 0.12350419
000030 be d7 e0 3c d8 c9 31 bd 26 37 3b bd e0 6b 0d be
       0.027446624 -0.043405384 -0.04570689 -0.13810682
000040 be c8 1d bd 5f 26 3d bd 29 64 ab bd 40 d8 1e 3d
       -0.03852152 -0.04617917 -0.083687134 0.03878045
000050 c2 ef 26 3d 22 a0 c4 bd 01 a5 c4 3d fc 26 0b be
       0.040755995 -0.096008554 0.096017845 -0.1358909
000060 d4 a0 01 bc 19 b2 9a bc 5b 69 38 3d 8e 04 59 3d
       -0.00791188 -0.018883752 0.04502235 0.05298286
000070 ce db 54 bd a2 40 71 bd d9 fb 36 bd 80 7b 08 3d
       -0.051967435 -0.05889953 -0.044673774 0.033320904
000080 29 78 bf bd e5 0b a8 3c a3 66 1c 3d d9 05 46 bc
       -0.093490906 0.020513484 0.03818382 -0.012086355
000090 0c 44 5a 3d 9b d1 d4 3d 9b 1f 3e 3b 32 24 2f bd
       0.05328755 0.103915416 0.0029010538 -0.042759128
0000a0 d8 65 e1 bc a6 79 b4 3b 2e 71 5e bc 22 ca 16 bd
       -0.027514383 0.0055076657 -0.013576789 -0.036813863
0000b0 79 49 3e bb cc cd 5b bd 84 e0 ed 3d 5f 88 1c bd
       -0.0029035492 -0.05366306 0.116150886 -0.03821599
0000c0 7a fc d4 3d e7 80 1e bd ce 95 f1 3c 72 c5 e4 3d
       0.103997186 -0.03869715 0.029490378 0.11170472
0000d0 d6 a4 b3 3c e4 15 31 3d 25 be 03 3d 98 66 46 bd
       0.021929186 0.043233767 0.032163758 -0.048437685
0000e0 fe d8 df bc b6 7e 2b 3d 65 a2 30 bc 08 5a b7 bd
       -0.02732515 0.041868888 -0.010780905 -0.08952719
0000f0 dc e8 57 3d 9b b8 ac bd 45 67 55 bd 6f 86 2a bd
       0.052712306 -0.08433648 -0.05210044 -0.041632112
000100 e0 5a b1 bd a4 9f 3f 3d 02 7e 80 bd 7d 2f 98 bc
       -0.08659911 0.046783105 -0.06274034 -0.018577332
000110 63 16 b4 3d 31 9f 54 bd 9b d5 d2 3d 05 46 57 3d
       0.087933324 -0.05190963 0.10294648 0.05255701
000120 e2 3b 6e 3d 1a 53 76 3c 89 65 31 3d 06 db 4d 3d
       0.058162577 0.015034461 0.043309722 0.050257705
000130 c8 cd 8f 3d ff e7 29 3d 21 3b b3 3c 32 d2 37 bb
       0.070216715 0.041481014 0.02187878 -0.002804887
000140 65 9d b3 3c 20 c3 98 bd 59 2d 15 3b 1f f1 36 3c
       0.021925637 -0.07459092 0.0022762625 0.011165886
000150 66 c5 41 bd 6f 7f 03 3d c0 b9 63 3c 50 b1 93 3b
       -0.047307394 0.032103952 0.013899267 0.0045072213
000160 d1 24 8e bd 06 7c f3 bd 94 b1 24 3d 65 aa c2 bc
       -0.06940616 -0.1188889 0.040208414 -0.023762891
000170 bb a0 99 3b db d1 81 3d 28 48 bc bd df f4 1e 3d
       0.00468835 0.06338855 -0.0919345 0.038807746
000180 ab 2f 19 3d a5 5a 9b 3b 6f 1a ba bd a4 35 31 bb
       0.037398975 0.0047410303 -0.09087073 -0.002704003
000190 6f 3d 01 3e 1f 72 ab bd 0a 9d 5c bd 2f 54 18 3e
       0.12621091 -0.08371376 -0.0538607 0.14875863
0001a0 57 4b 88 bd 51 36 3b 3d 53 bb 05 3d 40 43 bd bd
       -0.06654995 0.045706097 0.03264935 -0.092413425
0001b0 b9 06 8b bd 52 6c 26 bd 38 90 e4 bb d3 69 21 3d
       -0.067883916 -0.040630646 -0.0069752 0.039407562
0001c0 bf f1 13 bb bf 8b 5b 3d 0d aa 88 3b 3f a5 d0 3d
       -0.0022574512 0.05360007 0.0041706623 0.10187768
0001d0 1d bb bd 3c 90 20 05 3e 7d 79 5e 3c d3 98 a7 bd
       0.023160512 0.13000703 0.01357877 -0.08183446
0001e0 1f b2 8f 3d 3d c7 63 bd b7 28 94 bc 2a 9b 83 bd
       0.07016396 -0.05560993 -0.01808582 -0.064260796
0001f0 a2 c5 6e 3d 51 00 3b 3c 97 e5 05 3d bb 20 a4 bd
       0.058293946 0.01141365 0.032689657 -0.08014055
000200 86 ca 5f 3d 21 2e 05 3e d1 ef db bc 15 21 82 bc
       0.0546365 0.13005878 -0.026847752 -0.015884915
000210 6b 47 1d bd 04 00 5c 3b 4f 9a c1 3d 76 59 81 bd
       -0.038398188 0.0033569345 0.0945326 -0.063158914
000220 78 0d 8b 3c 78 f7 d8 3a af cf c9 bb c2 27 be 3c
       0.016974196 0.0016553244 -0.006158791 0.023212317
000230 38 c2 b8 3c ee 1d 28 3d f4 4d 1e bd 8e ec 93 bd
       0.022553548 0.04104417 -0.03864856 -0.072228536
000240 37 48 e6 bd 9a fb 3e 3d c4 99 e5 3b e0 21 10 be
       -0.11244243 0.046626665 0.0070068557 -0.14075422
000250 ff 57 e4 3c 8b f2 dc bc 0e a0 6d 3d be 85 b4 3c
       0.027873991 -0.026971122 0.05801397 0.02203643
000260 e7 71 86 bd 0e 0a ba bc 13 c8 89 bd 27 ee 5a 3c
       -0.06564694 -0.022709873 -0.06727614 0.013362444
000270 c1 58 55 bc c3 18 49 bd 21 6e e1 3c 27 e6 1c 3a
       -0.013021649 -0.04909588 0.027518334 0.0005985223
000280 8c 71 8e 3d 19 4e a7 3d 14 a0 df 3d aa a0 ff 3c
       0.06955251 0.08169193 0.10919204 0.03120454
000290 c9 1e a1 3d 04 6b 32 be 5e 3b 03 be 93 56 30 bd
       0.078672 -0.17423636 -0.12815616 -0.043051314
0002a0 30 54 81 bd eb 7a 8d bc cc a0 53 3d 75 c1 02 bd
       -0.063148856 -0.017270526 0.05166702 -0.031922776
0002b0 5c bd 98 3d 6f aa 17 be 4c 44 5a bd cc 24 35 bd
       0.074579924 -0.14811109 -0.05328779 -0.044224545
0002c0 5e f0 7f bd e7 5f 8f ba 28 49 92 3c 27 ef b8 3d
       -0.06248509 -0.0010938615 0.01785715 0.0902999
0002d0 f2 7c 00 3d 6d bb ac bd f4 68 15 bd 88 45 55 bb
       0.031369157 -0.08434186 -0.036477044 -0.0032542665
0002e0 e4 74 93 3d 20 3e 84 3b 7a 64 a6 bd 0d f4 14 bd
       0.072000295 0.004035726 -0.08124633 -0.036365557
0002f0 e4 57 2e bc 4a 92 d7 3d 41 1b fd 3d b6 ec f1 bc
       -0.010641072 0.10525949 0.12358714 -0.029531818
000300 20 5a 0f 3d 57 c4 91 3c df ad 94 bd 09 9a cd 3c
       0.03499806 0.017793817 -0.07259726 0.025097864
000310 29 76 ba 3d c2 5f 49 bc b1 12 aa 39 a6 21 05 3e
       0.091045685 -0.012290897 0.00032438853 0.13001117
000320 46 82 19 ba d4 32 24 bd 95 d9 01 3e 4f ea 6d 3d
       -0.0005855899 -0.040087536 0.12680657 0.058084782
000330 0e bf 41 3c bf 05 c5 bb f2 3b 83 3c 12 80 d3 3d
       0.011825336 -0.006012648 0.016019795 0.10327162
000340 84 88 20 3d d6 40 65 bc 63 70 04 3d ac 79 ac bd
       0.03919269 -0.013992509 0.032333743 -0.084216446
000350 e3 b8 84 3c 88 67 e3 3d a2 7a 30 bd 41 ff a3 bd
       0.016201442 0.111037314 -0.0430857 -0.0800767
000360 60 81 c2 bb 65 34 df bd 38 a9 04 3d 0d d3 d7 3b
       -0.005935833 -0.10898665 0.032387942 0.0065864385
000370 9d fd 0b bd f5 ff 28 3d fb c5 9c bd d8 3f 59 3c
       -0.03417741 0.041259725 -0.07654949 0.01325985
000380 5a 53 2f 3d d9 9d ba bb d4 a2 8d 3d 7f 6f e3 bc
       0.0428041 -0.0056950864 0.069158226 -0.027763126
000390 53 96 2d bd 37 56 82 bd 0f 00 40 bd f9 97 f0 bd
       -0.04237969 -0.063641004 -0.046875056 -0.117477365
0003a0 57 1f 3e bd 73 65 33 be cf 2a 90 bc b8 f7 80 bc
       -0.046416607 -0.17519169 -0.017598538 -0.015743122
0003b0 37 ec de 3c f6 49 0e 3d 9e f4 3c bc 62 86 98 bd
       0.027212245 0.034738503 -0.011532931 -0.074475065
0003c0 da 4e d5 bc ad 40 c3 3c 3f c5 8d 3d 56 ae 12 3d
       -0.026038576 0.02383455 0.06922387 0.03581079
0003d0 2e 62 4c 3d e7 71 e5 3c 2b db 88 bd 09 54 e2 3c
       0.04989832 0.028008414 -0.06682428 0.027627962
0003e0 8a 78 c9 bd e8 1f 61 3a 4d 8e fc 3d 47 03 6f 3d
       -0.09837444 0.0008587823 0.12331829 0.058352735
0003f0 54 bc 10 bd 69 77 25 3d e0 c2 e3 3d cd 5f 41 3a
       -0.035335854 0.04039708 0.11121154 0.0007376641

action_model._continuous_distribution.mu.bias f4 [35]
000000 7e e3 3b bc e8 2d 3e bc 36 ac ba 3b c2 ad 71 3b
       -0.011467813 -0.011607625 0.0056967987 0.003687725
000010 e7 ca cc bd 43 a8 05 bd 98 72 94 3d a8 6e 66 bd
       -0.09999638 -0.03263117 0.072484195 -0.056257874
000020 60 2e b7 bd c4 31 01 3d 3b 91 1a bd b4 ca de bb
       -0.08944392 0.0315416 -0.03773616 -0.0067990664
000030 d0 51 10 bc 89 ce b0 bd b9 53 e9 3c 8b 25 5d bd
       -0.008808568 -0.086331435 0.028482305 -0.053990882
000040 9e d2 a9 bd f6 f0 e3 bc 89 37 55 bd 19 92 9e bd
       -0.08292125 -0.02782486 -0.052054916 -0.0774271
000050 16 68 b4 3c 77 36 14 3d 47 59 de bc 4c 85 24 3d
       0.022022288 0.036184754 -0.02714218 0.040166184
000060 21 79 06 3e 3d 38 6a 3d 19 6c ca 3d e3 6f 25 3b
       0.13132145 0.05718254 0.09883899 0.0025243692
000070 75 ed a0 3d 84 27 75 3d c3 dd a8 bb b3 7e a2 3d
       0.07857791 0.05985214 -0.005153389 0.07934322
000080 12 df b5 3c 0a e8 0b 3d e7 96 80 3d
       0.022201095 0.034156837 0.06278782

onnx::Div_66 f4 [35]
000000 3d 52 81 3e 82 c9 a5 3e 84 4a 14 39 c4 d6 c7 3e
       0.25258055 0.323803 0.00014142139 0.3903104
000010 5d c2 43 3e d0 13 a8 3e ec 51 1b 3c 84 4a 14 39
       0.19117112 0.32827616 0.009479981 0.00014142139
000020 0a 21 a8 3e e4 b2 10 3e 12 f0 96 3e ce 87 18 3c
       0.32837707 0.14130741 0.29480034 0.009309722
000030 84 4a 14 39 ce ff 96 3e d9 a1 f1 3d 74 e0 b8 3e
       0.00014142139 0.29492038 0.11798448 0.36108744
000040 f7 e4 3b 3b 84 4a 14 39 78 e1 b8 3e e9 6d 28 3e
       0.002867041 0.00014142139 0.3610952 0.16448177
000050 61 de a1 3e 8b ab b4 3a 84 4a 14 39 af de a1 3e
       0.31614974 0.0013784034 0.00014142139 0.31615207
000060 27 6d 05 3e f6 09 c7 3e bb dc 4f 3b 84 4a 14 39
       0.1302992 0.38874787 0.003171726 0.00014142139
000070 fb 0a c7 3e 1e 2d 3a 3e 59 6b b0 3e 94 a4 47 3a
       0.38875565 0.18181273 0.344569 0.00076157716
000080 84 4a 14 39 72 6b b0 3e ee 49 16 3e
       0.00014142139 0.34456974 0.1467664
